gat.pth (torch, 172524 bytes, 20 tensors)

conv1.att_src f4 [1, 8, 16]
000000 8a c6 80 be 76 d9 c0 bd aa b1 b9 be 7e 78 93 3e
       -0.25151473 -0.094164774 -0.3626836 0.28802866
000010 86 65 c5 3e 5d 63 b7 3e 40 02 32 3e 00 e5 66 be
       0.3855402 0.35817996 0.17383671 -0.22548294
000020 b3 7e 5d 3e 9e 2b 28 3e 9e 15 ab be ec ac b6 bc
       0.21630363 0.16422889 -0.3341493 -0.022299252
000030 b6 b6 93 3e 0c 5f a0 3d 89 c5 b0 bc df 1e a7 bd
       0.28850335 0.07830629 -0.021578567 -0.08160185
000040 37 c2 8a 3b 01 33 df 3d d3 a7 53 3c 75 ce c6 3d
       0.004234578 0.108984 0.01291843 0.09707347
000050 58 f8 47 3e 4c e8 02 3b 7d 28 7c 3d 1f 14 a7 3d
       0.1952833 0.0019974886 0.06156205 0.08158135
000060 71 d6 c3 bb ad 54 16 3d b7 31 1f bd a6 39 e5 3d
       -0.005976491 0.036701847 -0.03886577 0.11192636
000070 86 fa c8 bd 59 46 4e 3e 23 4c f3 3d 5d 99 02 3d
       -0.098134086 0.20144023 0.11879756 0.03188454
000080 a7 45 f1 3e 57 3f 6d be ee ac 67 be f3 01 bb 3c
       0.47123453 -0.23168693 -0.22624561 0.022828078
000090 19 83 98 bd 3b 10 14 3e a0 71 68 3e 2a 64 2a be
       -0.0744688 0.14459316 0.22699594 -0.16639772
0000a0 92 71 8f 3e 27 e9 8c 3e 84 90 99 3d b6 a1 f5 3e
       0.28016335 0.2752163 0.07498267 0.47974938
0000b0 8f 46 f7 be f3 39 e4 3e 1e 59 b7 bc 5a 0c cc be
       -0.4829602 0.44575462 -0.022381362 -0.39853173
0000c0 3e f2 1b 3d 13 f6 72 3e c7 56 a6 3d e8 62 23 be
       0.038072817 0.23726682 0.0812202 -0.15955698
0000d0 23 2c bf bb 37 91 3f bd ba 9f 3a 3e a7 6a c4 3c
       -0.005834119 -0.046769347 0.18224993 0.023976637
0000e0 95 89 2c 3d aa cf 90 3e d9 ae 8a 3d f7 c2 54 3d
       0.042123396 0.28283435 0.06771631 0.051943745
0000f0 a7 e9 d6 bd 6e ba 08 3d d4 36 28 be a8 bd 14 be
       -0.104937844 0.03338092 -0.16427165 -0.14525473
000100 51 1a a9 3d 96 e1 f1 3d 2e 15 18 be b0 97 87 bd
       0.082569726 0.11810605 -0.1485183 -0.06620729
000110 66 8e 6a 3d 78 3a 34 be 95 5c 14 be 60 cc 50 be
       0.057264708 -0.17600429 -0.14488442 -0.20390463
000120 3b 05 8a be 3e 1d 8b 3e 5f be 84 be ad ff 62 3d
       -0.26957116 0.27170748 -0.25926492 0.055419613
000130 02 5f 31 3e 3d 80 61 be 5e 45 a0 be fd 5a 8d be
       0.17321399 -0.22021575 -0.31302923 -0.2760848
000140 34 6e 2a 3e 04 4a 5c be 0d 79 e5 3d a4 5c 80 3d
       0.16643602 -0.2151261 0.11204729 0.0626767
000150 5f ce 80 3d 0a 69 87 3e ef b5 8f 3e 7b 50 b1 be
       0.06289362 0.26447326 0.28068492 -0.34631714
000160 86 d4 7d 3e dc 41 1c 3b bb 54 5e 3c 45 d2 b6 bd
       0.24788103 0.0023842966 0.013570006 -0.089268245
000170 3d 50 12 be 89 1a 92 3d 2a 04 0f 3d e3 4c 39 3e
       -0.14288421 0.071339674 0.03491608 0.18095736
000180 b3 ec 9c be ce 97 8b 3e f8 8f c2 3e 05 c8 49 3d
       -0.30649337 0.27264255 0.38000464 0.04926302
000190 3c cf e6 3e 2a 5f d1 3e e6 09 94 be 16 24 94 be
       0.45079982 0.40892917 -0.28913802 -0.2893378
0001a0 d1 37 c1 3e 0d 42 91 be 81 9a d5 3d 15 f1 38 3e
       0.37737897 -0.28370705 0.1042986 0.18060715
0001b0 ba da 40 3e 03 be 99 3e 54 59 32 be a2 c7 c4 be
       0.18833438 0.3002778 -0.17416888 -0.38433558
0001c0 ac 1c ab bd be 64 38 3e cf 48 09 bd 6c b5 01 be
       -0.08355078 0.1800718 -0.0335167 -0.12666863
0001d0 a8 33 1b be 32 f9 46 be eb 57 00 be 93 16 9b be
       -0.15156424 -0.19430998 -0.12533538 -0.3029066
0001e0 d2 81 b1 bd 7c a8 4d 3e 22 e0 01 be 2b 8c 19 3e
       -0.086673394 0.20083803 -0.12683156 0.14994876
0001f0 2d eb 80 be f6 5b 8e 3e 20 8b b4 bd 57 ca 63 bc
       -0.25179425 0.27804536 -0.088155985 -0.013903222

conv1.att_dst f4 [1, 8, 16]
000000 5e 6f 7c 3d 7e db e5 bd 15 fc 83 bd 1c 59 8f bb
       0.061629646 -0.112235054 -0.06444565 -0.0043746363
000010 5d f9 37 ba 8d 0f 01 bc e1 38 be bd 0f 68 f6 bd
       -0.0007018054 -0.007877243 -0.092881925 -0.12031566
000020 42 34 50 3c 68 c2 4a 3a 71 80 55 bb 32 0e ed bb
       0.012707772 0.0007734657 -0.0032577778 -0.007234358
000030 43 d0 c8 bc 37 98 49 3e de bf 4e 3d 58 35 57 be
       -0.02451337 0.19686972 0.050475948 -0.21016443
000040 8d 06 f0 3b 26 b7 37 be 27 b6 98 bd ba 8b 83 bc
       0.0073249997 -0.1794096 -0.07456618 -0.016057838
000050 a9 23 07 be e8 4a 02 be ac e0 b5 3b 13 5f 9f 3c
       -0.13197197 -0.12723887 0.0055504646 0.019454515
000060 a0 d6 f3 bd 1e ce 4b 3a 03 d8 a7 bc e4 92 9a 3c
       -0.11906171 0.00077745493 -0.020488745 0.018868871
000070 69 48 e2 bc 17 c4 b6 3c 02 a5 d3 3c 01 f2 6d bc
       -0.027622418 0.0223103 0.025835518 -0.01452303
000080 2d 31 3a bc a9 80 bc bc a3 c9 24 bc 1f 55 8e 3c
       -0.0113642635 -0.023010569 -0.01005784 0.017374573
000090 49 c3 2f 3c f4 9a 8e bc 6c 3e 37 bd bc 55 a4 bc
       0.010727712 -0.017407872 -0.044737265 -0.020060413
0000a0 7e b3 e3 bc c5 61 03 bc 05 3a 52 bd cb a8 8e bd
       -0.02779555 -0.008018916 -0.051324863 -0.069657885
0000b0 23 9b ca bc e7 36 a1 3c 56 9f 12 3d 0a 8f 36 bb
       -0.024732178 0.0196795 0.035796486 -0.0027856254
0000c0 00 ed 33 be 3b 55 0f 3c 1f 38 49 ba 4d 13 7b bd
       -0.17570877 0.008748348 -0.0007675904 -0.061297704
0000d0 3f 0d c5 3a bf e0 c3 3a 4f dd b1 bc 2d 08 5c 3c
       0.0015033855 0.0014944299 -0.021711973 0.013429684
0000e0 f2 88 7a 3b ab 38 3f be 13 59 35 bb ea db fb bd
       0.0038228598 -0.18673961 -0.00276715 -0.12297805
0000f0 09 e9 a7 bb 39 13 11 3b b5 02 81 bd 37 63 43 3c
       -0.0051242155 0.0022136702 -0.062993445 0.01192551
000100 85 73 ba 3d 1d 2a a0 bc ee e9 db bc 6e 2f ea 3d
       0.09104065 -0.019551331 -0.026844945 0.11434828
000110 50 6a 3e bc 6c a5 90 3c 1a 31 75 bc f1 2a f9 3d
       -0.011622027 0.017657004 -0.01496532 0.121663935
000120 8c 02 43 3e 76 8d 5e bc 3a 6a b1 bc 30 80 9d bc
       0.1904394 -0.013583532 -0.021657098 -0.019226164
000130 69 1f 26 3e 6e 56 f8 ba 63 b1 ee bd 1d b7 c3 3b
       0.1622292 -0.0018946656 -0.116549276 0.0059727565
000140 45 e6 ad 3d f8 33 a9 3c 56 e3 c1 3d f4 d2 ff bd
       0.08491186 0.020654663 0.09467189 -0.12491408
000150 ef 69 17 be ed 31 d3 ba 59 fc 37 bd c9 b6 c8 3c
       -0.14786504 -0.0016112902 -0.04491839 0.024501221
000160 2c 2c c0 bc 28 46 2f bb 2a b1 53 be 76 ec 06 bb
       -0.023458563 -0.0026744697 -0.20673051 -0.002058772
000170 96 2b 59 3e 67 62 f8 3b ad 58 d5 bc 88 3a 43 be
       0.21208033 0.00758009 -0.02604326 -0.19065297
000180 cb 41 2d 3e 8a 71 d9 3c 1a 5d 17 3c c8 b7 b4 bd
       0.1691963 0.026543397 0.009238506 -0.08824116
000190 db 15 b0 3b 68 67 e7 bc c3 51 ba bc ac 15 e4 3c
       0.005373699 -0.02824755 -0.022744065 0.027842365
0001a0 f3 7b d1 bb 7e b9 fe bd 9f 6d cc bb 17 18 54 bd
       -0.0063929497 -0.124377236 -0.006238654 -0.051780786
0001b0 ef 65 a6 3d 16 9b 53 be 6d 00 30 be 3f 62 53 bc
       0.08124911 -0.2066463 -0.17187662 -0.012901842
0001c0 b4 5b 5f bd b7 50 07 bc 01 6c 74 bb 6d 39 e2 3c
       -0.054530814 -0.00825899 -0.003729582 0.027615273
0001d0 1c d3 51 3e ff 9a fb 3a 17 4f 3c be 44 78 24 3d
       0.20490688 0.0019195973 -0.18389545 0.040153757
0001e0 60 70 a1 3b 4b 63 15 3c 27 a9 03 3e 6e f4 24 3d
       0.004926726 0.009117912 0.12857495 0.04027217
0001f0 5e ed e1 3a 20 96 e1 bc 47 1a ac 3a 3a 23 d9 bb
       0.0017236879 -0.027537405 0.001313039 -0.006626514

conv1.bias f4 [128]
000000 f3 c4 71 ba 50 d2 01 ba c1 aa c7 39 58 3a 9a 3a
       -0.0009222768 -0.00049522985 0.0003808346 0.0011766655
000010 b8 34 22 38 74 bd 96 3a 18 80 4f ba 2b 4f 94 ba
       3.8672908e-05 0.0011500553 -0.0007915511 -0.0011315098
000020 70 66 1a 3a 4d 41 af 39 d7 ad 98 ba 71 2c 96 ba
       0.0005889898 0.00033427254 -0.0011648488 -0.0011457336
000030 4e 79 14 3a ea a1 22 38 d0 36 9a ba ab 49 93 3a
       0.0005663828 3.8774604e-05 -0.0011765603 0.0011237165
000040 c6 9f 98 3a 0b c6 8b ba 68 ae 99 3a 1f 0d 24 ba
       0.0011644296 -0.001066388 0.0011724951 -0.0006258059
000050 40 e5 1d b9 f9 7e 82 3a 06 ed 97 3a 4b 48 39 ba
       -0.00015058089 0.0009956054 0.0011591024 -0.00070679624
000060 6c ea 63 3a b0 5c 87 3a 1a 01 40 ba c8 93 2f ba
       0.00086942944 0.0010327306 -0.0007324383 -0.00066977413
000070 d3 d8 8e 3a 90 3e 47 3a 7a 04 27 ba 29 ac 94 b8
       0.0010898359 0.000760057 -0.00063712115 -7.089257e-05
000080 d4 9d 4e ba 3f 2c 9b b9 76 23 85 ba b4 0c d8 b9
       -0.00078817946 -0.0002959687 -0.0010157663 -0.00041208195
000090 c8 43 9b ba 1a e8 37 ba 6e 2b c3 b9 72 6f 1a b9
       -0.0011845762 -0.0007015482 -0.00037225656 -0.00014728101
0000a0 62 8c 34 3a 2b 17 12 ba 6e 36 c9 b9 ff 20 fd b9
       0.0006887374 -0.00055729103 -0.0003837826 -0.00048280504
0000b0 1b f1 93 ba 7c dc 36 3a 3b 44 6c 3a fb 0d 80 ba
       -0.0011287065 0.0006975604 0.00090128527 -0.0009769792
0000c0 dc 71 9a 39 b9 a7 3f ba 0e bd 5f ba a9 0c 80 ba
       0.00029458 -0.00073110644 -0.0008534946 -0.0009769398
0000d0 fc 0a 99 3a d3 6f 3e ba 2b 02 46 ba 00 f6 5e b9
       0.0011676247 -0.0007264588 -0.00075534236 -0.00021263212
0000e0 54 8f 3e 3a e2 43 3a 3a e6 c4 99 3a 1e 92 ac b9
       0.00072692824 0.0007105452 0.0011731654 -0.00032915262
0000f0 b7 ae 32 ba d0 39 2d 3a 86 51 94 3a 00 54 7c 3a
       -0.00068161957 0.0006608041 0.00113158 0.0009625554
000100 5e 19 88 ba f7 ca f0 b9 0d 42 9a 3a ad 49 28 3a
       -0.0010383537 -0.00045927588 0.0011768952 0.000641967
000110 66 2b 2c 3a 3a a9 2a 3a bd 9c b2 b7 8d 32 2d ba
       0.0006567746 0.0006510202 -2.129224e-05 -0.0006606959
000120 52 9f 40 3a bf a3 24 3a 8b 7f c6 39 d3 73 3a 3a
       0.00073479593 0.00062805036 0.0003786053 0.0007112596
000130 b4 49 2d ba 85 06 38 3a c2 d2 2b 3a f7 a7 52 ba
       -0.0006610409 0.00070200145 0.00065545377 -0.0008035893
000140 7e 4e 9a ba 70 0a 9a ba db 35 37 3a a7 42 3b ba
       -0.001177266 -0.0011752378 0.0006988921 -0.0007143416
000150 59 55 53 3a c4 19 1d 3a ab 91 65 ba 73 32 d8 b9
       0.0008061729 0.0005992914 -0.0008757363 -0.00041236318
000160 e5 5b 32 ba 14 b3 99 3a 3b 9a 30 39 1d 10 27 ba
       -0.00068038545 0.0011726343 0.00016842123 -0.00063729455
000170 4c dd 95 ba 78 16 8f 3a bb db 86 b8 44 66 2d ba
       -0.001143375 0.001091673 -6.430546e-05 -0.0006614665
000180 a2 2a 9a 3a 73 04 9a 3a 55 02 4e 3a f6 5a 25 3a
       0.0011761973 0.0011750594 0.0007858624 0.0006307805
000190 6f d1 98 ba 99 2d 94 ba 26 67 52 3a 4b 25 99 3a
       -0.0011659096 -0.0011305093 0.00080262346 0.0011684088
0001a0 4d 7e 99 3a 0a 28 2c ba 56 7c 52 3a 39 6e 99 ba
       0.0011710614 -0.00065672456 0.0008029392 -0.0011705823
0001b0 22 ea a0 b9 7d 82 92 3a c8 89 69 ba 04 74 99 3a
       -0.0003069202 0.0011177805 -0.00089087756 0.0011707549
0001c0 bb 41 79 39 19 48 9a 3a 4d b7 5f 3a a9 fd 96 ba
       0.00023770977 0.0011770754 0.0008534089 -0.0011519688
0001d0 fc 47 9a 3a a5 3c 92 3a e8 22 52 ba 72 8a 22 3a
       0.0011770721 0.001115699 -0.00080160657 0.00062004395
0001e0 56 05 53 ba 59 20 2d 3a 48 a5 98 3a 23 36 57 3a
       -0.00080498063 0.00066042464 0.0011645937 0.0008209666
0001f0 ef 57 9a 3a 03 15 92 3a 85 fb 90 ba 6f 64 2d ba
       0.0011775474 0.0011145178 -0.0011061287 -0.0006614392

conv1.lin.weight f4 [128, 44]
000000 20 8b 11 bc 7d 83 c2 bc 66 2e 95 3a 69 d7 cc bc
       -0.008883268 -0.02374434 0.0011381626 -0.02500506
000010 03 26 4c 3b 70 17 30 3c fe c1 db bc 08 f7 a2 3a
       0.0031150586 0.010747775 -0.026825901 0.001243324
000020 ff 09 ce bc 61 d1 25 3c 04 13 8b bc 48 fe e1 bc
       -0.02515125 0.010120721 -0.01697684 -0.027587071
000030 41 6b 80 3b ee a3 9a 3c 92 85 bd 3b 7f 90 89 3a
       0.0039190357 0.018876996 0.005783745 0.0010495334
000040 2b 37 7e bb 8f 33 85 bb e3 6d df 3c a5 52 82 3b
       -0.0038790207 -0.004064984 0.027274078 0.003977137
000050 c0 a8 c0 3c b9 47 d2 bd e0 a5 f2 3a 06 43 06 3c
       0.023517966 -0.10267586 0.0018512569 0.008194691
000060 b3 e2 74 3b 54 bd 59 3c cb bf b5 bb bc 5a b6 39
       0.0037366569 0.013289768 -0.005546545 0.00034781347
000070 4e 72 07 bc 29 37 a9 bb a9 ee 1d bb 19 9f 38 3a
       -0.008266998 -0.0051640463 -0.0024098551 0.00070427504
000080 36 30 82 bd 89 a2 c4 3c f2 2c e2 3c 43 12 b1 3b
       -0.06356852 0.024003284 0.027609322 0.0054037883
000090 1f f1 b1 ba 87 2e e0 3c 13 5f 2d 3c 71 82 c5 bb
       -0.0013575888 0.027365936 0.0105817495 -0.0060275127
0000a0 b6 df 33 3c 24 c2 44 3c 7f 8a 11 3c 6d 94 59 bd
       0.01097863 0.012009177 0.008883118 -0.053120065
0000b0 ec 66 02 3b 25 fa 25 bc 8a ec a1 39 60 aa f6 3a
       0.0019897772 -0.01013044 0.00030884548 0.0018819086
0000c0 38 e8 d2 bc 14 7d 92 bb ec 25 15 bc 37 52 8d bb
       -0.025745496 -0.004470477 -0.00910328 -0.0043127793
0000d0 47 aa e1 3c d7 34 c2 3b bc 6b b3 bd e2 f7 0c 3b
       0.027547015 0.005926709 -0.08760783 0.0021510054
0000e0 42 bc e1 3c 9f ed c0 bc ea 54 b2 3b 7a ae e1 bc
       0.027555589 -0.023550807 0.0054422515 -0.027549017
0000f0 f8 b9 0e bc 0b 9c 96 bb 49 c8 f9 bb 49 4a 95 3c
       -0.008711331 -0.0045962385 -0.007622753 0.018223898
000100 50 03 16 bc 9c 3b 93 3d d5 ca 28 bc 80 75 b2 3c
       -0.009156063 0.07189104 -0.010302265 0.021784544
000110 c9 de cc 3c 8f 13 d4 bc 50 0e a3 b7 4c 57 2c bc
       0.025008576 -0.025888233 -1.9437779e-05 -0.01051886
000120 37 0c 2f 3c f4 b5 13 3a 57 c5 9e ba d8 45 cf 3c
       0.010684065 0.0005634718 -0.0012113255 0.025301859
000130 55 99 ac bd 9d 21 a0 bc 1a 43 7f bb 54 6d bd ba
       -0.08427683 -0.019547278 -0.0038949908 -0.0014452138
000140 6e b7 11 bc 90 c6 26 bc bd cb 92 ba 7c fc da 3c
       -0.008893831 -0.010179177 -0.0011199635 0.026731722
000150 86 8f e0 3c 2f 87 c2 bb f6 6c 85 bc 70 8c 27 3d
       0.027412187 -0.0059365253 -0.016287308 0.040905416
000160 79 50 86 3c a6 06 ac bb a9 2f 19 bc e6 dc d7 bc
       0.016395794 -0.005249816 -0.009349742 -0.02635045
000170 c3 66 d2 ba aa 49 3e 3b 93 1f 1b bc f6 dd 33 bc
       -0.0016052354 0.0029035606 -0.009467977 -0.010978213
000180 d8 21 d1 38 16 21 cf 3c 55 ec 9b 3d 5c 58 06 3c
       9.9722005e-05 0.025284331 0.07613436 0.008199777
000190 7b 53 a2 bc 53 4d 19 bc bf 47 d2 3a 55 06 a8 3c
       -0.019815197 -0.009356814 0.001604311 0.020510832
0001a0 1a 0c 24 bc e3 b6 58 bc 3f 7f e7 3a 31 8b d8 3c
       -0.010012651 -0.013227197 0.0017661824 0.02643356
0001b0 f5 28 c5 bc 25 2d f7 3c 98 91 1e bc a6 00 e5 3c
       -0.024067381 0.030172894 -0.009678267 0.02795441
0001c0 43 0b de bc 90 b0 4c bb d7 a1 db bc 86 96 17 3b
       -0.02710498 -0.003123317 -0.02681057 0.002313049
0001d0 d8 b0 ab bc be 12 ff bb 65 37 89 3c 8e 05 61 bb
       -0.02095835 -0.0077842167 0.016750047 -0.0034335586
0001e0 0b f2 eb bd de 4a 10 3a a5 1f 91 3a 44 64 c0 3a
       -0.115207754 0.000550432 0.0011072053 0.0014678319
0001f0 6d d3 36 3a 89 96 b1 3b 83 4f 1d 3c 62 0c 2b bc
       0.0006974254 0.0054195565 0.009601477 -0.010439964
000200 fb a8 4c 3b 6c b5 bd bc 7e 83 df bc e9 d2 c1 bd
       0.003122865 -0.023157798 -0.02728438 -0.09464056
000210 e6 a5 22 bc 48 25 b7 bb 04 bf d0 3b 8a 92 a8 3a
       -0.009927249 -0.005589161 0.006370427 0.0012861055
000220 05 d9 df bc 07 f4 df 3c 4b 7a 6c bb ff a2 21 3c
       -0.027325163 0.027338041 -0.0036083634 0.009865521
000230 67 81 a2 3c 53 12 d9 ba b3 66 09 3e e5 f5 df 3c
       0.019837094 -0.0016561247 0.13418083 0.027338931
000240 c0 92 d5 3c 60 94 61 bb 36 9b dd bc a1 6a 79 b7
       0.026070952 -0.0034420714 -0.02705155 -1.4866383e-05
000250 af 23 e2 bc 05 52 18 39 87 48 df bc df ec 09 3c
       -0.027604906 0.00014526404 -0.027256263 0.008418291
000260 c3 38 a7 3b 0d 7f d3 bc 82 37 1b 3c f0 49 69 3c
       0.005103202 -0.025817418 0.009473683 0.0142388195
000270 15 1d 7f bc 34 cc 05 bc 97 28 dc bc 52 a8 d5 3b
       -0.015570899 -0.008166362 -0.026874823 0.0065203095
000280 18 14 d9 bc 28 a4 d7 bc ae 30 02 bb c8 f4 23 bc
       -0.02649884 -0.026323393 -0.001986544 -0.010007091
000290 09 e7 11 3e e1 3b 02 bc ff cd 8a 3c 2c 02 e1 3c
       0.14248289 -0.007948847 0.01694393 0.027466856
0002a0 36 ee d3 3b 34 a1 d2 3c 78 eb df bc bf 87 91 bb
       0.006467606 0.025711633 -0.02733396 -0.004441231
0002b0 e9 91 18 3c 8c de 2e bc 31 0f fc ba 7a 67 32 3e
       0.009312131 -0.0106731765 -0.0019230602 0.17422286
0002c0 90 4c b1 3c 5a 10 e3 bc 2b c4 a8 3a bd c3 1c 3b
       0.021642953 -0.027717758 0.0012875845 0.002392038
0002d0 2e 14 23 bb 57 5f de 3c 45 ec c3 bc 7f 1e 85 3b
       -0.0024883854 0.027145071 -0.023916373 0.0040624733
0002e0 4f b5 80 bc 9f d2 2b 3c 27 fa 2e be 2b 2e db bc
       -0.015711455 0.010487228 -0.17087613 -0.026755413
0002f0 fb d7 87 bb 85 01 00 3c e3 cb cd 3c a3 24 10 bc
       -0.00414562 0.007812862 0.025121635 -0.008797797
000300 16 9f 3b 3b 16 07 af 3b 59 f8 d5 bc e9 d7 e6 3a
       0.0028628758 0.005341421 -0.026119398 0.0017611954
000310 e6 d9 de 3a f4 f8 15 3e e0 a0 35 bc d9 95 80 bb
       0.0017002195 0.1464575 -0.011085719 -0.003924113
000320 f8 35 a9 3a 1c 2b 88 bb 25 db df bc 96 1c 26 3c
       0.0012909761 -0.0041555297 -0.027326176 0.010138651
000330 26 ff e1 3c e1 3b 83 bc 35 75 b0 bb bf 83 e7 39
       0.027587485 -0.016019763 -0.005385066 0.00044157912
000340 ad 3b b7 3b 91 8c 2c bc 91 83 a0 ba 68 28 c0 ba
       0.0055918307 -0.0105315605 -0.0012246241 -0.001466048
000350 df 02 c7 bb af 89 0e 3c 05 73 9f 3c dd bf 47 3b
       -0.0060733403 0.0086998185 0.019464025 0.003047935
000360 1f 6c 21 3c 0e f6 d1 ba 14 17 9a 3b c9 06 d9 3d
       0.009852438 -0.0016018765 0.004702458 0.10596997
000370 39 49 b1 3b 21 69 da 3c b5 36 e1 3c 93 eb 5a 3b
       0.00541034 0.026661457 0.027491907 0.0033404573
000380 14 44 10 bb 41 4e e1 3c 5e 70 da bc 02 1a eb bb
       -0.0022013234 0.027503135 -0.026664909 -0.007174731
000390 0d 13 c4 bc ea 0b 80 39 2b 57 04 be 6a 48 f1 ba
       -0.023934865 0.0002442294 -0.12923877 -0.0018408422
0003a0 59 97 dc 3c 01 26 8b bb 0d 2c 3f 3c 5b 4a 28 3c
       0.026927637 -0.004246474 0.011668217 0.010271634
0003b0 31 e1 97 ba e3 78 12 bc 71 ee df 3c 29 52 c0 ba
       -0.0011587498 -0.008939954 0.027335377 -0.0014672923
0003c0 47 46 24 3b 2f c7 9c 3d da a6 d1 bb 7c 0a 16 bc
       0.0025066303 0.07655179 -0.006398064 -0.009157773
0003d0 a7 94 c0 bc 29 4e 36 bb 44 23 e1 bc 7d 05 13 bc
       -0.023508383 -0.0027817583 -0.027482636 -0.0089734765
0003e0 54 35 70 38 00 33 c4 3a 93 1d e0 bc ce d8 cc ba
       5.7270125e-05 0.0014968812 -0.027357852 -0.0015628578
0003f0 1f 14 05 3e 17 de 9f 3b 84 9d a5 bb bc f4 be bc
       0.12995957 0.00487877 -0.0050541777 -0.023310058

bn1.weight f4 [128]
000000 39 23 33 3f ae 5d 34 3f 4d 5a 41 3f a7 8e 4a 3f
       0.6997562 0.70455444 0.75528413 0.7912392
000010 5f 1b 34 3f 26 6b 46 3f 26 44 4b 3f 3a e5 54 3f
       0.70354265 0.77507246 0.7940086 0.8316227
000020 58 d1 3b 3f 27 1e 40 3f e3 45 33 3f 55 03 48 3f
       0.7336631 0.7504601 0.70028514 0.78130084
000030 cd 88 42 3f fd 49 37 3f 1e 5f 37 3f e8 50 50 3f
       0.7598999 0.7159727 0.7162951 0.81373453
000040 88 0d 4c 3f d5 94 38 3f 5f 2f 33 3f 5a 8e 6d 3f
       0.7970815 0.721021 0.6999416 0.92795336
000050 a8 66 44 3f 0a b0 33 3f 12 01 3d 3f f4 ca 5a 3f
       0.7671914 0.7019049 0.7382976 0.8546593
000060 14 71 48 3f 60 cf 36 3f e4 28 53 3f 56 68 3e 3f
       0.78297544 0.7141018 0.8248427 0.74377954
000070 72 0b 33 3f bc ad 6c 3f 1a 18 64 3f df 2b 65 3f
       0.6993934 0.924526 0.89099276 0.89520067
000080 d6 93 54 3f d9 a8 56 3f 74 ba 4b 3f 34 bb 44 3f
       0.8303808 0.8385139 0.7958138 0.7684815
000090 fe b2 56 3f 55 7b 45 3f 28 68 47 3f 12 e0 32 3f
       0.8386687 0.77141315 0.77893305 0.69873154
0000a0 1b 75 42 3f 4d c0 5c 3f 61 b8 63 3f f5 f8 53 3f
       0.7595994 0.8623093 0.88953215 0.82801753
0000b0 e5 6d 4e 3f b5 93 55 3f c9 4b 33 3f 56 7c 47 3f
       0.80636436 0.8342851 0.70037514 0.77924097
0000c0 f8 09 33 3f 21 ba 75 3f b4 f3 41 3f 46 a2 3a 3f
       0.69937086 0.95987135 0.75762486 0.7290386
0000d0 f6 9a 41 3f c1 20 4f 3f 03 7b 42 3f bc 56 4c 3f
       0.75627077 0.80909353 0.7596895 0.79819846
0000e0 d6 a6 56 3f ae f7 58 3f 33 58 53 3f b2 d1 45 3f
       0.8384832 0.8475293 0.82556456 0.77273095
0000f0 bf 4a 33 3f cf bb 55 3f 0c ce 32 3f 72 85 5d 3f
       0.7003593 0.834897 0.6984565 0.86531746
000100 5b 5d 3e 3f 1f 09 33 3f b6 e2 44 3f 90 4a 3d 3f
       0.743612 0.6993579 0.76908433 0.739419
000110 04 d7 52 3f 10 21 33 3f 13 27 4f 3f 64 b6 42 3f
       0.8235934 0.69972324 0.80919 0.76059556
000120 be 48 69 3f 4a 9a 4a 3f dd ff 55 3f dd 02 34 3f
       0.9112662 0.79141676 0.8359354 0.7031687
000130 6c 9f 52 3f 61 40 40 3f f6 dc 59 3f 9a e5 41 3f
       0.8227451 0.75098234 0.85102785 0.7574097
000140 4f 66 4e 3f 61 5f 36 3f 07 45 40 3f 4c c8 3e 3f
       0.8062486 0.71239287 0.7510533 0.7452438
000150 a0 1a 3c 3f 2c ff 45 3f 2d 83 32 3f 4d 94 37 3f
       0.73478127 0.77342486 0.6973141 0.71710664
000160 4c 5b 34 3f 33 07 34 3f b5 98 60 3f 50 66 59 3f
       0.7045181 0.70323485 0.8773301 0.8492174
000170 b3 97 33 3f e9 40 33 3f 9f 8f 33 3f e7 b4 37 3f
       0.7015335 0.7002092 0.70141023 0.7176041
000180 b2 17 48 3f bf 69 33 3f 66 28 3a 3f 63 4a 5c 3f
       0.78161156 0.7008323 0.72717893 0.86051005
000190 a2 00 5c 3f 4e cf 55 3f 18 08 35 3f b6 37 54 3f
       0.85938466 0.83519447 0.70715475 0.8289751
0001a0 49 37 56 3f 3d db 44 3f 1d a2 39 3f 78 8b 4b 3f
       0.8367811 0.7689703 0.7251299 0.7950969
0001b0 2b e7 73 3f ab 39 5e 3f ea 31 4e 3f 49 80 59 3f
       0.9527461 0.86806744 0.8054491 0.8496137
0001c0 68 b1 5e 3f 47 b6 45 3f 09 84 46 3f 16 c6 33 3f
       0.8698945 0.7723126 0.7754522 0.7022413
0001d0 64 1a 33 3f a8 5a 33 3f a2 1c 33 3f 58 ff 54 3f
       0.69962144 0.70060205 0.69965565 0.83202124
0001e0 ad 27 34 3f 0c 63 5b 3f 4a 3e 51 3f 2e 9d 44 3f
       0.7037304 0.8569801 0.8173567 0.7680234
0001f0 79 80 32 3f 28 76 33 3f 4f ea 33 3f 00 5f 38 3f
       0.69727284 0.7010217 0.702794 0.7201996

bn1.bias f4 [128]
000000 da 13 1a bb 34 24 4f bc e5 34 4c bc 68 7e 1c bc
       -0.0023510368 -0.012642909 -0.012463783 -0.009551622
000010 bb ed 06 bc c0 db 97 bb fb d5 cf bc ba c4 92 bc
       -0.00823539 -0.0046343505 -0.025370589 -0.017916072
000020 ee 4a 16 bd f6 dc 24 bc b1 1e 9d 3b 2e 26 22 bb
       -0.036692552 -0.010062447 0.0047949185 -0.0024741995
000030 fc 9d 05 bc 7f 59 5b 3c ed 3f 82 3b 18 eb 14 bc
       -0.008155342 0.013388037 0.0039749057 -0.009089254
000040 a6 aa 33 ba f9 38 1d bc 3d 93 54 3b e3 b2 0e bd
       -0.00068537367 -0.009596103 0.0032436394 -0.03483857
000050 9f f9 f7 3b 6f c0 f0 ba 69 cc 00 bb 1e 2a 44 bb
       0.007567599 -0.0018367897 -0.0019653088 -0.002993233
000060 23 0a 87 bc 7a 88 75 ba f6 3b aa bc 39 9d a8 b8
       -0.016484326 -0.0009366345 -0.020780545 -8.040149e-05
000070 64 c5 76 ba 52 f6 41 bd ff ea 20 bc 99 9e 1e 3c
       -0.0009413569 -0.04735405 -0.009821652 0.009681367
000080 65 b3 e8 3c ef d2 eb bb 80 eb 46 bc 4c 95 12 3c
       0.028405854 -0.007196776 -0.0121411085 0.008946728
000090 d0 9f 0b bc 47 b5 ea 3a a4 04 f6 bb 7e f9 de 3b
       -0.008521989 0.0017906808 -0.0075078774 0.006804644
0000a0 a4 62 18 bc 74 15 02 3c 8b ca c1 bb 34 6a 45 39
       -0.0093008615 0.007939685 -0.0059140376 0.00018826948
0000b0 7a 17 89 3a 1a 77 97 3c 1c 60 23 bb e5 14 f5 3c
       0.0010459267 0.01848941 -0.0024929112 0.02991719
0000c0 59 38 16 3c fb 3b 7b bc 23 52 ea bc 1e 8f f3 bb
       0.009168708 -0.015334125 -0.028603619 -0.0074328324
0000d0 59 cd f0 bc d1 7c 1e bd 8e 5d 89 3c 15 9a 22 b9
       -0.029394792 -0.038693253 0.016768243 -0.00015506924
0000e0 46 eb 31 bc 48 64 c5 3a 1b cb 31 bd db 24 c8 ba
       -0.010859316 0.0015059793 -0.043406587 -0.0015269773
0000f0 1d 75 bf bb b2 6f 0c 3c 0d 9d 8e bc 6a 2f 82 3c
       -0.0058428184 0.008571552 -0.017408872 0.01589175
000100 e7 38 9c bc fe 7e 61 bb e5 7c f0 bb fa d8 7a bc
       -0.019070102 -0.0034407969 -0.0073391073 -0.01531052
000110 13 8f db 3b 48 9c aa bb 9a 28 85 bb d0 30 5e 3b
       0.0067004054 -0.0052066185 -0.004063678 0.0033903606
000120 1f b9 ef b9 ad fb 7c 3c 38 30 72 3b b1 04 57 bc
       -0.00045723558 0.015440864 0.003695501 -0.013123677
000130 4d 3e c2 3b ce 3b 54 bc 9a db a0 bc 66 1d 5b 3c
       0.005927837 -0.012953712 -0.019635964 0.013373708
000140 a4 64 d1 3b 73 c9 14 3c 49 5d 2f bc dd dc 70 bc
       0.006390171 0.009081232 -0.010703393 -0.014701095
000150 41 d4 4b bb 9e ec ab bc 1a b2 dd 3c f4 46 62 bc
       -0.0031101855 -0.020986851 0.027062465 -0.013810862
000160 f0 c7 9b 3b 02 dc 5f b9 31 32 53 3c 41 47 eb bb
       0.004754059 -0.00021348897 0.0128903845 -0.007180125
000170 98 49 51 bc f4 54 31 3c 55 ec 65 3b a8 a9 32 ba
       -0.012773894 0.010823477 0.0035083492 -0.0006815442
000180 6d 50 56 bd 56 ac 92 bb 8e 72 ab 3b 81 d3 37 3c
       -0.052322794 -0.0044761105 0.005232162 0.01121986
000190 08 3f df bc 94 ac 8d bc a5 db 11 bc 8d 74 06 bd
       -0.027251735 -0.017294206 -0.008902465 -0.032825995
0001a0 cb eb f7 bc 4e ae 21 bd be 1b 07 bd b5 8d 88 bc
       -0.030263802 -0.03947287 -0.03298544 -0.016669134
0001b0 2e 7c 0a bd e6 7c a2 bc 98 bd 1d 3c e0 57 13 bd
       -0.033809833 -0.019834947 0.009627722 -0.035972476
0001c0 ff c8 ae bc c2 e5 9d bc 8d f6 03 bd 35 56 c2 bb
       -0.021336077 -0.019274596 -0.03221755 -0.005930687
0001d0 a6 35 44 bc 26 b4 f9 3b 88 74 86 bc db 86 31 ba
       -0.011975681 0.0076203523 -0.016412988 -0.0006772109
0001e0 0d 04 20 bc 3d 51 35 bc e4 fd 95 3a 48 f7 3d b9
       -0.009766591 -0.011066732 0.0011443463 -0.00018116564
0001f0 ce 68 8b bc da 48 30 bc f2 27 f1 bb 07 bc 18 3c
       -0.017017748 -0.010759557 -0.007359498 0.009322173

bn1.running_mean f4 [128]
000000 db 36 8c c1 b8 60 d0 c0 cc 76 f8 bf b1 bd 06 42
       -17.526785 -6.5118065 -1.9411254 33.685246
000010 e7 09 d8 c0 62 bc 15 c0 1e dd 08 41 bd 3c a8 41
       -6.751209 -2.339623 8.553984 21.029657
000020 b2 9d 56 c1 4f b3 e0 41 3f 9f a2 c1 34 b9 f3 3f
       -13.4135 28.087553 -20.327757 1.9040895
000030 6e ec f1 3e b6 8f c4 40 72 29 e0 be f1 7c bc c0
       0.47250694 6.142543 -0.4378162 -5.8902516
000040 b8 02 37 42 50 02 33 c2 5f 76 67 c1 2b 1a e4 41
       45.752655 -44.75226 -14.466399 28.512777
000050 f2 be ee 40 51 82 02 c2 f8 85 9d c1 12 78 9b 40
       7.4608088 -32.627262 -19.690414 4.858407
000060 6d e5 a8 c1 46 32 7b c1 b6 a8 90 c1 18 fa b8 40
       -21.112024 -15.699774 -18.082378 5.780529
000070 6e f6 7a c1 9f 8b cd 41 fc a6 eb 41 20 35 68 42
       -15.6851635 25.693174 29.456535 58.05188
000080 a2 45 58 42 30 55 95 40 06 1c b7 c1 71 dd 07 41
       54.068 4.666649 -22.888683 8.491563
000090 4f 82 fe 3f 9b 8c 6a 41 30 34 e0 3f 0c 2f 62 c2
       1.9883517 14.6593275 1.7515926 -56.545944
0000a0 a7 0c ab 41 19 31 7f 42 e0 01 e8 41 f4 06 f3 41
       21.381178 63.797947 29.000916 30.378395
0000b0 09 fd dd 41 2e e8 11 41 1c 0e 8e c1 34 a6 b2 41
       27.748552 9.1191845 -17.75689 22.331154
0000c0 0a 1a 46 c1 74 42 51 c0 b3 fb 10 c1 f1 d7 e8 c1
       -12.381357 -3.269681 -9.06145 -29.10544
0000d0 8f dd 68 c1 bd d9 b3 41 b1 55 ab bf 4a c5 3d 3e
       -14.554091 22.481318 -1.3385526 0.18532291
0000e0 e1 45 7d c0 4f 54 6b c1 bf 87 b6 c0 2d 87 c3 c1
       -3.95739 -14.708083 -5.7040706 -24.441004
0000f0 10 5c 73 c1 ff 3d 90 41 84 22 be c1 17 d6 fe 40
       -15.209976 18.030272 -23.766853 7.963634
000100 3c 9f 9d c1 83 fb 97 c1 b2 9d 50 41 c5 f8 e9 c1
       -19.702751 -18.997808 13.0385 -29.24647
000110 a5 29 88 3e 97 9e b8 c1 7d 48 23 c0 c7 ed 57 41
       0.26594272 -23.077436 -2.5512993 13.495551
000120 6a e7 a6 41 7e 56 1d c1 b7 20 8a 41 90 77 c7 c0
       20.862995 -9.833616 17.265974 -6.233345
000130 d4 b0 99 41 6c 63 f5 c0 e2 7b 60 41 11 d5 7d c1
       19.211342 -7.6683865 14.030245 -15.864518
000140 83 e4 b8 41 2b ee dd c1 64 35 6c c1 38 78 5f c0
       23.111578 -27.741293 -14.763035 -3.4917126
000150 69 c3 34 3f ea 52 b2 41 4e 9a b3 c1 af 5b 4b c2
       0.7061067 22.290485 -22.450344 -50.839535
000160 b4 d5 cc c0 79 7f c5 c1 09 3e 38 42 e1 ca cf 40
       -6.401087 -24.687243 46.06058 6.4935155
000170 e7 b1 3c c1 39 c5 4f c1 ae c4 6f c1 a4 15 ac c1
       -11.793433 -12.98565 -14.9855175 -21.510567
000180 c7 7b 9b 41 c3 87 00 c2 53 3d cd c1 64 ee 1a c1
       19.435438 -32.13258 -25.654943 -9.683201
000190 00 7a 8f c1 61 57 3a 40 c0 ab 04 c1 dd 98 78 41
       -17.93457 2.9115832 -8.291931 15.53732
0001a0 0c 83 b8 c1 e9 fe 1d 41 ef 64 96 c0 44 fd f8 c0
       -23.063988 9.874734 -4.699821 -7.780916
0001b0 f7 d1 87 40 59 72 0b 41 59 c1 37 c1 ff 9a 29 41
       4.2443805 8.715417 -11.484704 10.600341
0001c0 8c 40 68 41 4a f9 26 42 d8 31 fc 41 44 c0 47 c2
       14.5157585 41.743446 31.524338 -49.93776
0001d0 5b 4d f7 c1 7a 98 e1 c1 0c 62 f4 c1 ee 86 f5 41
       -30.912771 -28.199451 -30.547874 30.690884
0001e0 41 7e e1 c1 63 bb b4 41 67 34 cd 41 1e da 73 42
       -28.186647 22.591497 25.650587 60.963005
0001f0 22 39 19 c2 84 f6 10 c2 b8 55 25 c2 dd aa 3d c1
       -38.305794 -36.240738 -41.33371 -11.854215

bn1.running_var f4 [128]
000000 f0 3f bd 4a 38 e4 2c 4b 77 4f 1b 4b 16 21 14 4c
       6.201336e+06 1.1330616e+07 1.0178423e+07 3.883119e+07
000010 77 50 47 4c 51 3f 06 4c ca 61 b7 4a 51 98 53 4b
       5.2249052e+07 3.5192132e+07 6.009061e+06 1.3867089e+07
000020 b5 80 94 4b 77 33 99 4b 65 18 80 4a a8 96 82 4b
       1.9464554e+07 2.0080366e+07 4.1974265e+06 1.7116496e+07
000030 fd 4d c2 4a 9c d1 67 4b dd 68 d2 4b d1 2c 97 4b
       6.3669745e+06 1.5192476e+07 2.757881e+07 1.9814818e+07
000040 07 f4 e7 4c 07 8c e6 4c 02 00 e3 4a 90 c1 ec 4b
       1.21610296e+08 1.20873016e+08 7.438337e+06 3.1032096e+07
000050 a6 78 1e 4b 85 e9 7d 4c 32 df 97 4c 42 0f f7 4b
       1.0385574e+07 6.6561556e+07 7.962459e+07 3.2382596e+07
000060 87 20 06 4d b7 32 4e 4c 85 6b 29 4c ce 5a a8 4b
       1.4064242e+08 5.4053596e+07 4.4412436e+07 2.2066588e+07
000070 e9 4a 68 4b 6f cc 45 4b 9d 5a 62 4c e7 dd 6e 4d
       1.5223529e+07 1.2962927e+07 5.9337332e+07 2.5047e+08
000080 3b f7 26 4d 9d 67 17 4b 8d c5 38 4c 5d 67 53 4c
       1.7507627e+08 9.922461e+06 4.8436788e+07 5.5418228e+07
000090 6b c0 88 4a 9c 7e cf 4b a7 70 27 4a ff 5d 69 4d
       4.4810775e+06 2.7196728e+07 2.7433378e+06 2.4470322e+08
0000a0 47 10 be 4c 63 be 65 4d a4 98 89 4c 41 1b 44 4c
       9.9648056e+07 2.4090373e+08 7.214006e+07 5.1408132e+07
0000b0 f0 2e 98 4c 58 e0 26 4c 2f a6 53 4a 37 74 fa 4b
       7.97879e+07 4.374563e+07 3.4676598e+06 3.2827502e+07
0000c0 23 9d 5d 4a 3c b4 18 4a 05 7f 80 4b 4c 23 bc 4c
       3.6309208e+06 2.501903e+06 1.684225e+07 9.863843e+07
0000d0 7c a2 52 4c 58 d4 00 4c 03 d1 e4 4a 92 c9 7c 4b
       5.5216624e+07 3.377187e+07 7.4978575e+06 1.6566674e+07
0000e0 88 ef 06 4b 57 72 6e 4c 93 3b 4c 4b 52 df 36 4b
       8.843144e+06 6.2507356e+07 1.3384595e+07 1.1984722e+07
0000f0 57 00 9e 4a ea 87 35 4c fc 35 01 4c f0 2f f9 4a
       5.1773875e+06 4.758724e+07 3.3871856e+07 8.165368e+06
000100 f5 45 84 4c cc 1b a5 4a a4 1d 2e 4a b8 7e 6f 4c
       6.934929e+07 5.410278e+06 2.852713e+06 6.2782176e+07
000110 de 77 ca 4a 1a 7b b9 4b ce be a0 4b ba ad 61 4c
       6.634479e+06 2.4311348e+07 2.1069212e+07 5.9160296e+07
000120 bc 52 8a 4b 00 1d d4 4b 09 98 9d 4c 67 a3 c6 49
       1.8130296e+07 2.7802112e+07 8.2624584e+07 1.6272449e+06
000130 5a 6f 30 4c 11 0f 63 4b 16 84 81 4c 81 0f 08 4b
       4.625137e+07 1.4880529e+07 6.790366e+07 8.916865e+06
000140 c0 58 21 4c 9e 0b 08 4c e3 59 87 4c 71 3a 9f 4b
       4.2296064e+07 3.566348e+07 7.096297e+07 2.087037e+07
000150 28 9f 44 4a c0 84 30 4c 71 89 72 4c 03 1a ba 4c
       3.22145e+06 4.627328e+07 6.3579588e+07 9.757084e+07
000160 2f ca a2 4b 3a 96 01 4c 26 d6 c5 4c 41 b2 3a 4c
       2.1337182e+07 3.397041e+07 1.0372331e+08 4.8941316e+07
000170 8c 94 0d 4c 2f e0 fe 4b 97 42 ef 4b e9 fa 08 4c
       3.7114416e+07 3.340707e+07 3.1360302e+07 3.5908516e+07
000180 f6 72 6d 4b de 5f 93 4b 52 11 58 4c ec e9 d6 4a
       1.5561462e+07 1.9316668e+07 5.664084e+07 7.042294e+06
000190 8b fe 76 4b 03 b8 e2 4b f8 0e 34 49 18 59 ea 49
       1.6187019e+07 2.9716486e+07 737519.5 1.919779e+06
0001a0 b9 e6 47 4c 72 99 9f 4b 0f 93 61 4a 5b cc e9 4a
       5.2402916e+07 2.0919012e+07 3.6958118e+06 7.6611015e+06
0001b0 06 5c 0b 4c 9a 51 d6 4b 4f 14 6c 4a 58 d1 d7 4a
       3.653225e+07 2.8091188e+07 3.8679238e+06 7.071916e+06
0001c0 15 5e bc 4a 70 dd 04 4d b2 51 b8 4c 64 e1 4c 4d
       6.1724265e+06 1.3931904e+08 9.66363e+07 2.148327e+08
0001d0 3d 02 12 4c 48 dc 51 4c 16 89 28 4c 88 b9 fa 4b
       3.8275316e+07 5.5013664e+07 4.418057e+07 3.2862992e+07
0001e0 35 d7 f2 4c 12 eb 94 4c 5e b2 59 4c 7e 23 70 4d
       1.2731844e+08 7.807605e+07 5.7067896e+07 2.5180362e+08
0001f0 79 59 14 4d cd 80 b7 4c 61 45 0f 4d 45 84 05 4b
       1.5555573e+08 9.620849e+07 1.5023054e+08 8.750149e+06

conv2.att_src f4 [1, 8, 32]
000000 c0 c9 cc 3d 93 1c 21 be ac 27 8b be 16 68 30 be
       0.09999418 -0.15733556 -0.27178705 -0.17227206
000010 8d 54 5c 3e 3e b9 a1 bc bf 61 f1 bc 9d a4 d8 3c
       0.21516629 -0.01974165 -0.029465554 0.026445681
000020 a8 cd 60 be 67 9b cc bc dd 77 97 bb 8a 46 fa bd
       -0.21953452 -0.024976445 -0.004622443 -0.122204855
000030 c9 69 6b be ec ec 63 3e 8d e7 52 3b 3d e9 45 be
       -0.22989573 0.22258347 0.0032181472 -0.19327255
000040 1e 67 d9 bc c9 a7 5a be 86 6a 76 3d 58 ca fd 3d
       -0.026538428 -0.21353067 0.060160182 0.1239211
000050 a5 33 94 bb 44 e3 46 bc 71 6d 15 bd ae 72 4f be
       -0.004522758 -0.012139145 -0.036481325 -0.2025859
000060 9d 8f 1d be 29 e7 6e 3e 43 00 f9 3d 64 f7 f3 3d
       -0.15386815 0.23330368 0.12158253 0.119124204
000070 a4 77 9c 3e d3 e7 ac 3b ee 6a 6d 3e ae 44 9e 3e
       0.3056003 0.005276659 0.23185322 0.30911773
000080 68 98 21 be 10 52 5b be 81 bc 9f 3e 0d 7e 07 3e
       -0.15780795 -0.21418023 0.31198505 0.13231678
000090 b3 2e ea 3d 19 60 70 be 0b 3b bd bd 0e 82 b6 3d
       0.114346884 -0.23474158 -0.09239777 0.08911525
0000a0 cf 51 18 be 79 73 1b bd 40 71 19 3e a1 50 97 3e
       -0.14874958 -0.03795192 0.14984608 0.29553702
0000b0 90 34 43 be 1f f3 af 3c 25 31 9a 3b 6e 67 b7 be
       -0.1906302 0.021478234 0.0047055655 -0.35821098
0000c0 a7 73 c9 3e 04 64 5c be 1c 51 4b bc a3 04 5e 3d
       0.39346048 -0.21522528 -0.012409475 0.05420364
0000d0 63 69 9a be c3 9b 22 be 12 40 68 be 2c 69 8e be
       -0.3015853 -0.15879731 -0.22680691 -0.27814615
0000e0 df 23 ca 3e 9a 6b 6a be 8b 4e 6b 3c 14 46 bc be
       0.39480492 -0.22892609 0.014361988 -0.36772215
0000f0 10 48 f7 bd 06 c9 e3 3d 90 ec b8 bb 42 cc 93 3d
       -0.12074292 0.111223266 -0.005643435 0.072166935
000100 ec 05 23 be 28 de 2a bc 7d 14 94 3e 06 bf 86 be
       -0.15920228 -0.010428943 0.2892188 -0.26317614
000110 7a 79 93 3d f8 7c ed bd 92 e1 0a 3e e5 96 83 bd
       0.07200904 -0.115961015 0.13562611 -0.06425265
000120 41 2c 88 be c0 7b b2 bc 26 15 b1 bd a3 08 91 be
       -0.26596263 -0.021787524 -0.08646612 -0.28326902
000130 19 6d 83 3e 74 62 c9 3d 15 87 56 bd 0a 67 79 3e
       0.25669172 0.098332316 -0.052374918 0.24355713
000140 5a 7e ab 3d 48 78 ee bd 02 24 6b be 84 c7 3f 3e
       0.08373709 -0.116440356 -0.22962955 0.18728453
000150 45 bf 4c 3e 2b d5 03 be e7 88 99 be a0 be 91 3d
       0.19994839 -0.12874286 -0.2998726 0.07116437
000160 71 a9 0a be 31 a0 45 be 6e 48 36 bd 9d ef d5 3d
       -0.135412 -0.1929939 -0.044502668 0.10446093
000170 12 94 98 3d 97 46 cc 3d f7 bc 47 3e aa 05 40 bd
       0.07450117 0.099744014 0.19505678 -0.0468804
000180 f9 ac 28 be fc a6 f2 3d f0 dd 51 3e 23 19 01 be
       -0.16472234 0.11848256 0.20494819 -0.12607245
000190 88 80 18 bd e0 02 bc 3c 36 2f ac bc af 2b 83 3e
       -0.037231952 0.02295059 -0.021018606 0.25619265
0001a0 0c 0a 07 bd 96 9c cc bd 8a d7 ef bc 62 d9 19 bc
       -0.032968566 -0.09990804 -0.029277582 -0.009390207
0001b0 65 b8 13 be 1e d8 77 be 0e 53 e7 3c d7 f4 89 3e
       -0.1442581 -0.24203536 0.028237846 0.2694461
0001c0 52 c2 23 be 32 cc a6 bc e0 d1 b0 3d ba 23 5c 3e
       -0.15992096 -0.02036104 0.086337805 0.21498004
0001d0 b7 ba a3 be 00 a5 4a be d2 d2 5b be ad 81 18 3e
       -0.3197839 -0.19789505 -0.2146714 0.14893217
0001e0 86 f4 4b 3e de 8e 13 3d 76 21 67 3e 9c 47 6c be
       0.19917497 0.03602492 0.22571358 -0.23074192
0001f0 26 93 fd 3d 45 af c8 3d 98 d2 2f 3e c2 2b 50 bc
       0.12381582 0.09799055 0.17170179 -0.012705745
000200 20 08 df 3c 08 85 87 be 9f b4 73 3e 4b ea 1c 3e
       0.027225554 -0.26468682 0.2379937 0.1532375
000210 08 c0 e7 3c 41 fa 65 bd 25 63 26 3d d0 4d 24 3e
       0.02828981 -0.056146864 0.040621895 0.16045308
000220 89 9c 21 3e 31 8f d0 bd c4 51 b7 3d 6b 3f 28 3e
       0.1578237 -0.101835616 0.089511424 0.16430442
000230 92 06 09 3e c5 a5 3b 3c a9 ea 12 3c ed 7e 0d be
       0.13381413 0.011453097 0.00896708 -0.1381795
000240 b2 44 f5 3d ff 31 bd bd e9 bd b4 bc 62 8b 43 bd
       0.11975993 -0.092380516 -0.022063212 -0.047740348
000250 39 bb cf bc 3a 89 57 bd 44 c8 9e 3e c2 43 92 3e
       -0.02535783 -0.052621104 0.31012166 0.2856732
000260 0a 74 a6 bd be e7 47 be 7f 01 20 be 22 68 38 be
       -0.081276014 -0.19521996 -0.1562557 -0.18008474
000270 8b 4b 6a bd 04 92 80 3d ab 6b 67 bd f0 e1 46 be
       -0.05720095 0.0627785 -0.056499165 -0.19422126
000280 45 c4 16 be a5 31 8c be 4e 53 2d be 27 9b a6 3e
       -0.14723308 -0.27381626 -0.1692631 0.32540247
000290 ee 36 3a ba 56 ae 0a 3e 67 57 a9 be 46 cf 61 3e
       -0.0007103522 0.13543066 -0.33074495 0.22051725
0002a0 50 30 23 be c9 f5 38 3e 8f b0 b7 3e 0c c2 38 3e
       -0.15936399 0.1806251 0.3587689 0.18042773
0002b0 7a 81 3c be be 65 96 3e 5b 99 96 be 5e cc a6 3e
       -0.18408766 0.29374498 -0.29413876 0.32577795
0002c0 24 35 1c 3e 04 2f 2f 3e 63 2c 86 be 9e f1 73 3e
       0.15254647 0.17107779 -0.2620574 0.23822638
0002d0 a9 66 2c be 69 62 81 3e 13 37 98 be 46 76 e5 3b
       -0.16836037 0.25270393 -0.29729518 0.0070026247
0002e0 24 ac f4 bc f3 7f 4e 3c 7f 41 0a 3e d2 16 48 be
       -0.02986724 0.012603748 0.13501547 -0.19539955
0002f0 5f 24 36 be 52 ed 1c be 23 6e d6 bd 67 2f c2 bd
       -0.17787312 -0.15324906 -0.10470226 -0.094816975
000300 c8 e7 01 bc a4 9d b6 3d 43 96 3f be ae 4f 0b 3e
       -0.007928796 0.08916786 -0.18709664 0.13604614
000310 4a 53 99 3d a7 32 3b bd 42 cb 50 3a 2e c6 59 3d
       0.07486589 -0.045702603 0.0007964858 0.053167515
000320 25 da 9e 3d c1 f7 42 be c9 9a 35 3e 38 5e 88 bb
       0.077564515 -0.19039823 0.17734827 -0.0041616224
000330 f9 f7 8c 3d 2c aa a4 3d d2 83 b1 3b e1 e9 65 3d
       0.068832345 0.0804027 0.0054173255 0.056131247
000340 28 a8 8a 3d e3 44 17 3e 9e 65 b1 bd 36 8d a2 bd
       0.067703545 0.14772372 -0.0866196 -0.0793709
000350 56 f1 f6 bc 0c f1 70 3e f0 a6 c5 bd 93 b8 9b bd
       -0.030144375 0.23529452 -0.096509814 -0.07603564
000360 26 4c 16 3e 05 08 70 be b9 07 c4 3d 59 1d 4b be
       0.14677486 -0.23440559 0.095717855 -0.19835414
000370 26 bc 89 3d 83 b4 d5 3d 0f b6 5a 3e c1 a6 99 3c
       0.067253396 0.104348205 0.21358512 0.018756272
000380 18 5f 83 be ea 9e 5b be eb 41 fd bd 25 d8 00 3e
       -0.25658488 -0.2144734 -0.123660885 0.12582453
000390 8d ad f2 bd d8 17 9c be d0 da 97 3d 86 c2 87 bd
       -0.118495084 -0.3048694 0.07414782 -0.06628899
0003a0 c1 7a 6c be bb 68 2e 3e 88 cb c6 3e 6a 31 25 be
       -0.23093702 0.17032139 0.38827157 -0.16132131
0003b0 c5 67 0e be 4f 1b 95 3d 13 37 90 3e e6 14 9a be
       -0.13906772 0.07280599 0.28167018 -0.3009407
0003c0 c8 2a 33 3e a3 31 e1 3d 01 f9 98 3e 09 e4 6c bd
       0.17496789 0.109957956 0.29877475 -0.05783466
0003d0 79 d2 bb bd 63 68 b3 bd 8b a4 2c 3e 5f 46 14 bc
       -0.09171004 -0.087601446 0.16859643 -0.009049981
0003e0 84 4b 82 be b0 8a 05 be 60 1c 06 be 30 5a 1a 3e
       -0.2544824 -0.13041186 -0.13096762 0.15073466
0003f0 4c 71 3e bd a6 b5 a3 be 5c 02 91 3e a7 43 f1 3a
       -0.046494767 -0.31974524 0.28322113 0.0018407003

conv2.att_dst f4 [1, 8, 32]
000000 77 0d 00 3d 8d 8f bb bd d1 37 0a bc 32 0b 8a bd
       0.03126284 -0.091582395 -0.008436159 -0.067404166
000010 08 a1 7b bc 20 01 58 3c 39 54 54 bc c6 98 01 bc
       -0.015358217 0.013183862 -0.012959533 -0.007909959
000020 73 67 06 bd 92 bb ca bd 10 e5 90 3c 1e ac da bc
       -0.0328135 -0.098990574 0.01768735 -0.0266934
000030 39 66 9a 3c fe 88 b8 3c 61 f5 bd 3c c3 70 d4 3c
       0.018847572 0.02252626 0.023188295 0.025932675
000040 21 64 b0 bc d8 ef a9 3d 73 3e 26 bc bb d0 48 3d
       -0.02153212 0.082977 -0.010146725 0.049027186
000050 96 7f 83 bc f3 4b d2 3c 7f 40 a5 3c 80 38 69 3d
       -0.016052049 0.025670981 0.020172356 0.05693865
000060 a7 f8 3a bd 55 df f8 bc ef a5 e7 3c 78 33 1c 3c
       -0.04564729 -0.03037993 0.028277365 0.0095337555
000070 26 8c e5 bc e4 f2 05 bc 2e 84 84 bd 54 40 82 3c
       -0.02802093 -0.008175585 -0.06470524 0.015899815
000080 82 87 9a 3d 82 16 c4 bd 4c d8 5d 3c 7d b3 93 3d
       0.07545377 -0.095746055 0.013540339 0.07211969
000090 4a 50 36 3d 2a 80 29 3c 30 66 c9 b9 95 81 cb bc
       0.044510163 0.010345498 -0.00038413843 -0.024842063
0000a0 ff a0 79 3d 86 6c b0 bc d3 82 82 3d d0 c8 84 bc
       0.060944553 -0.021536123 0.06372609 -0.016209036
0000b0 69 e5 fa bb ad de 9e 3a 95 b0 f5 3b 94 d6 d0 3d
       -0.0076567424 0.0012120806 0.007497857 0.101971775
0000c0 e3 43 55 bb e5 1f 9d bb 47 de bc bd 54 5e 5d 3c
       -0.0032541684 -0.004795062 -0.092220835 0.013511259
0000d0 03 49 41 3d 49 ed 45 3b 6c 53 7e bc 64 fe 61 bd
       0.04718877 0.0030201247 -0.015522819 -0.055174246
0000e0 ae 21 ce bc a3 51 3c 3c fe a4 3c 3c 24 e4 c9 3a
       -0.025162544 0.011494073 0.011513947 0.0015403074
0000f0 24 94 82 bb 43 08 6a bc 10 fc c4 3c b3 53 bf 3c
       -0.003984945 -0.014284196 0.024045974 0.02335534
000100 92 90 2f be 94 55 1a 3c 7f 19 fc 3c 9b cb 53 bc
       -0.17144993 0.0094198175 0.030773876 -0.012926961
000110 b3 33 26 bc ad 57 98 3d 3e 42 06 be 9d a9 14 bd
       -0.010144162 0.07438598 -0.13111207 -0.03629457
000120 50 de 08 bd fa 9c 63 be 2c de bd bc c6 1a ca bd
       -0.03341514 -0.2222785 -0.023177229 -0.09868388
000130 e8 3e 0c bd 61 45 6f bc e4 1d c9 bd a3 32 48 3d
       -0.03423968 -0.014603944 -0.09820154 0.048876416
000140 19 c8 0a 3d 31 56 ee 3c b3 f3 69 bd cf 91 73 bd
       0.033882234 0.029093834 -0.057117175 -0.059465226
000150 50 2b a5 bd 74 39 87 3d 76 7e c2 3d cc fe de 3d
       -0.08064902 0.06602755 0.09496777 0.108884424
000160 68 a7 6f bd 60 62 f2 ba f7 b1 ed bd 86 94 b3 3c
       -0.05850926 -0.0018492453 -0.1160621 0.021921407
000170 58 4f fe bc cd e7 46 3d e0 ec 00 38 9b 0b 10 bd
       -0.031043693 0.048560906 3.0738185e-05 -0.035167318
000180 79 54 f5 3c 36 4b a7 39 b4 dc a9 3d ca 3f d6 3c
       0.029947506 0.0003190876 0.08294049 0.026153464
000190 d6 62 37 bc 8d b2 b1 3c 27 2a 66 3d 64 ce d3 3d
       -0.011192998 0.021691585 0.056192543 0.103421
0001a0 85 4a 90 3c 35 7d 80 3b 26 3b cf 3a a2 69 3a bd
       0.017613659 0.003921176 0.0015810474 -0.045510896
0001b0 45 db 71 bd 78 fe b1 bd b8 c4 5f bd 7e 4e b8 3c
       -0.059047002 -0.08691114 -0.054630965 0.022498365
0001c0 f4 e4 4a 3c 21 3f 65 bc 07 26 9d 3d d6 ed b4 3a
       0.012383688 -0.013992102 0.07673269 0.0013803791
0001d0 5b 55 e3 bb e7 74 ad bd d7 ef 10 3c 2b 09 8f 3d
       -0.0069376654 -0.08469563 0.008846245 0.069841705
0001e0 f5 ad 91 3c 1d 01 07 3c 03 76 02 bd d8 d7 d9 bd
       0.017783144 0.0082400115 -0.031850826 -0.10636872
0001f0 a2 76 e8 bd fa 1d 7c bd 03 a4 d0 bd bf 2c 24 3c
       -0.113507524 -0.061552025 -0.10187533 0.010020434
000200 85 d6 f4 bc 2d b2 64 3c 87 71 07 bd 40 50 02 bc
       -0.029887447 0.013958496 -0.033067252 -0.007953703
000210 0a af b4 bb 45 33 6f bd e1 a7 9c 3c 1f 95 90 bd
       -0.0055140303 -0.058398504 0.01912302 -0.070596926
000220 0c 0c 15 bc ef 87 3a 3b ff 04 ca 3a 2f b6 98 bd
       -0.0090971105 0.002846237 0.0015412866 -0.07456624
000230 fe 98 fa bd ee 07 34 bc 29 91 9a bc c2 1b 68 bb
       -0.12236212 -0.010988219 -0.018868046 -0.0035416936
000240 2d be 16 3d e0 6c eb bc 28 66 b4 bd 9c 27 d3 bb
       0.03680246 -0.02873844 -0.08808547 -0.006443931
000250 c0 15 b5 bd a7 c2 63 3b a9 97 90 3b a3 ba f7 3a
       -0.08842039 0.0034753473 0.0044126105 0.0018900227
000260 3d 73 09 ba 63 42 c0 3c 12 e1 97 3d 23 b8 01 3c
       -0.0005243307 0.023469156 0.07415976 0.007917437
000270 92 ec ee bc 13 f2 14 bc 21 fb f1 bb ce 21 f6 bb
       -0.02916554 -0.009090918 -0.007384673 -0.007511354
000280 bb 22 bb 3d fa 25 e4 bd 33 a8 8f bc 95 02 c2 3d
       0.09137484 -0.11140056 -0.017536258 0.09473149
000290 6d 5e 19 3d 4e 9f 06 3d 5d 76 65 3c c3 bf e6 bc
       0.037443567 0.03286677 0.014005271 -0.028167611
0002a0 14 7a 53 3d f0 c8 d0 bb 3c 71 22 bd 93 2f 40 3c
       0.051630095 -0.00637161 -0.03965877 0.011730093
0002b0 f6 12 cb 3d 4e 41 2d bc 0b 72 0c bd 42 70 32 b9
       0.09915726 -0.010574652 -0.034288447 -0.00017017222
0002c0 6b b8 b1 bd 92 7f 8d bc e2 0f 4a bd 03 72 dd bd
       -0.08677753 -0.017272744 -0.049331553 -0.10812762
0002d0 d9 97 72 bc 1b e8 72 bd 4d ef a9 3c ed 1b 36 3d
       -0.014806711 -0.059303384 0.02074399 0.044460226
0002e0 3b 53 9e 3c 1d 3c 19 bd 63 7b 36 3c cf 7a 3e 3d
       0.019326797 -0.037410844 0.011137816 0.04650384
0002f0 4d c6 84 3c 86 5e 1b 3e de ed 96 3d d6 be 5c 3c
       0.016207838 0.15172777 0.07369588 0.013473233
000300 00 1d ad bd 65 c8 27 bb 29 61 73 3c fb a1 b7 3d
       -0.08452797 -0.0025601622 0.014854708 0.08966442
000310 c9 f8 9b bc 23 06 be 3d fc 30 14 3c 69 93 08 3d
       -0.019039528 0.09278514 0.009044882 0.033343706
000320 e5 ca f7 bc d0 a8 80 bc cf 3d 7d bc a0 66 b7 bc
       -0.030248115 -0.015705496 -0.015456631 -0.022387803
000330 1b f6 12 bb 14 48 a3 bc 53 56 b9 3b 78 38 00 bd
       -0.0022424522 -0.01993183 0.0056560426 -0.031303853
000340 f8 dc ca 3c 3b 36 e0 bc 3b 18 0d bc e8 be da bc
       0.02476357 -0.02736961 -0.008611734 -0.02670236
000350 64 cf fb bb 74 b2 d6 3c 2e 5f 5f bb 30 e1 9f bc
       -0.007684635 0.02620814 -0.003408383 -0.019516557
000360 a8 0b af 3c b1 05 c8 3d 42 80 a0 3d 61 dc 62 bc
       0.021367863 0.097667105 0.07836963 -0.013846488
000370 c9 26 06 bc a0 dc d1 3c ea ff ec 3c d9 d5 02 3c
       -0.008187958 0.025617898 0.028930623 0.007985556
000380 9b 32 75 3e 37 01 95 be be 8e 61 3e e1 a1 d8 3c
       0.23945086 -0.2910249 0.22027108 0.026444377
000390 d7 71 9c 3e 0b eb 3f be 13 5f 0c be 4c 4a c9 3d
       0.30555603 -0.18742006 -0.13708143 0.09828624
0003a0 6f e0 30 3e 28 2d 01 3e 49 e2 ec 3c 4e e8 8d 3c
       0.17273115 0.12614882 0.028916495 0.017322686
0003b0 dc 45 31 be 19 36 0f 3e 42 d6 94 be 18 43 c5 bc
       -0.17311805 0.1398548 -0.29069716 -0.024079844
0003c0 30 e5 14 bb 1e 9f 66 be 27 7e 90 be a6 8c 8d 3e
       -0.0022719614 -0.22521636 -0.28221247 0.2764637
0003d0 37 51 45 3d 6b 94 b0 bd 6d bf 4f 3e ef 53 12 be
       0.048173156 -0.086220585 0.20287867 -0.1428983
0003e0 fe 8e 01 3e c1 f8 3a bd 72 3e 5a bd a0 25 8a bc
       0.12652203 -0.045647386 -0.05328221 -0.016863644
0003f0 28 eb 6d be c8 37 66 3e 45 c8 8f 3e ac 12 3f 3d
       -0.23234236 0.22482216 0.2808248 0.046648666
