gat.pth (torch, 175596 bytes, 20 tensors)

conv1.att_src f4 [1, 8, 16]
0	0xb93f4b29	-0.00018243179
1	0xbc2c028d	-0.010498655
2	0x3c81fd15	0.01586775
3	0x3c6f582b	0.014608423
4	0xbc833e8f	-0.016021041
5	0xbddcc155	-0.10779063
6	0xbc5c3bfd	-0.013442037
7	0xbb1b6f96	-0.0023717633
8	0x3bacdada	0.0052751126
9	0xbc249071	-0.010044203
10	0xbccae142	-0.024765614
11	0xbc89b9aa	-0.016812164
12	0x3cc15fd9	0.023605274
13	0x3c68c01a	0.014205957
14	0xbc417788	-0.011808284
15	0x3cf8435f	0.030305563
16	0xbc215885	-0.009847765
17	0x38813053	6.1602004e-05
18	0x3c8edcad	0.01743921
19	0xba03bace	-0.00050250895
20	0xb8a5c568	-7.904583e-05
21	0xbbc5ca5c	-0.006036086
22	0x3bbb317d	0.0057126866
23	0x3b910965	0.0044261687
24	0xbb332351	-0.0027334283
25	0xbc8a05d9	-0.016848492
26	0xba89b841	-0.0010507182
27	0x3bedc35b	0.007255954
28	0xbd986036	-0.07440226
29	0xbb44cafb	-0.0030028212
30	0xba62bcbc	-0.00086493394
31	0xbb28e582	-0.0025771563
32	0xbd2923c6	-0.04129388
33	0x3d02a555	0.031895954
34	0xbc1fd9b8	-0.009756498
35	0x3a0acce0	0.0005294811
36	0x3c2a135d	0.010380593
37	0xbd6f53a2	-0.058429368
38	0x3a8db24e	0.0010810585
39	0xbba23173	-0.0049497425
40	0x3c1cc95f	0.009569495
41	0x3d3e723a	0.046495654
42	0xbc3e97a9	-0.011632838
43	0xbc2c0182	-0.010498406
44	0xbcdbe946	-0.026844632
45	0x3c6f41fe	0.014603136
46	0xbab73065	-0.0013976215
47	0xbb15bbc0	-0.0022847503
48	0xbb9e863d	-0.00483778
49	0xbcd54293	-0.026032722
50	0x3c9f9c42	0.01948369
51	0xbb99414c	-0.0046769734
52	0x3af2a9ae	0.0018513703
53	0xbe4d3c29	-0.2004248
54	0xbca8ff0f	-0.020629434
55	0xbc766a9e	-0.015040068
56	0xbbbd13b3	-0.0057701706
57	0x3cb8b2bb	0.022546163
58	0xbd012379	-0.03152797
59	0xbcce115d	-0.025154764
60	0x3a1e3d82	0.0006036387
61	0x3c6a0ffd	0.0142860385
62	0xbb096106	-0.0020962371
63	0x3d0223e6	0.031772517
64	0xbd0a16d1	-0.033713166
65	0xbc5a9627	-0.013341463
66	0xbc4a06ca	-0.01233072
67	0xbc02172e	-0.007940097
68	0x3d01dd58	0.03170523
69	0xbbe8d7cf	-0.0071058045
70	0x3c30f80d	0.010801327
71	0x3c010f8d	0.007877243
72	0xbc3ac665	-0.01139984
73	0xba3e5895	-0.00072611246
74	0xbd6acd1c	-0.057324514
75	0xbda860d5	-0.08221594
76	0xbc861878	-0.01636909
77	0x3cf825a7	0.030291392
78	0xbdab15cf	-0.08353769
79	0x3dcd4102	0.10022165
80	0xbcffc19d	-0.031220252
81	0xbc16b84f	-0.009199216
82	0xbc436fee	-0.011928542
83	0x3d4a0520	0.049321294
84	0xbd049c35	-0.032375533
85	0x3c0be0be	0.008537469
86	0x3bddcf16	0.0067690713
87	0xbe115897	-0.1419395
88	0xbb1c5a29	-0.002385745
89	0xbe6f9e63	-0.23400263
90	0xbb0939b6	-0.002093894
91	0xbc8865e7	-0.016650153
92	0xbc12f05f	-0.008968442
93	0xbd6f7f2f	-0.0584709
94	0x3a3f12d6	0.00072888786
95	0xbc00425f	-0.007828324
96	0xbc134b61	-0.00899014
97	0x3cf47d83	0.029845005
98	0xbb5a4da7	-0.0033310445
99	0x3c8c3616	0.017115634
100	0xbba6ae31	-0.005086683
101	0xbb45ae1a	-0.0030163587
102	0x3ae32d6c	0.0017332262
103	0xbe5c08e4	-0.21487767
104	0xbc75b739	-0.014997297
105	0x3cac21ac	0.02101215
106	0xbc4aecaf	-0.012385531
107	0xbdb346e5	-0.087537564
108	0xbc80c629	-0.01571949
109	0x3c1c288c	0.0095311515
110	0x3c21405c	0.009842005
111	0xbc2bdccb	-0.010489653
112	0xbe1f0c4f	-0.15532039
113	0x3e4b20d0	0.19836736
114	0x3b4a8b97	0.0030905956
115	0x3c5e683a	0.013574654
116	0x3e0a64c0	0.13514996
117	0x3dd6a414	0.10480514
118	0xbd0b70d7	-0.03404316
119	0xbcba42e4	-0.022736974
120	0x3cf091ac	0.029366337
121	0xbc72177b	-0.014776106
122	0x3c20fbb1	0.009825633
123	0x3a06df2d	0.000514495
124	0xbcc2bc00	-0.023771286
125	0xbdbb6627	-0.091503434
126	0xbe8eb9fe	-0.27876276
127	0xbc0afdf2	-0.008483397

conv1.att_dst f4 [1, 8, 16]
0	0x3f14e524	0.5816214
1	0xbdd091a1	-0.101840265
2	0xbd8eb65f	-0.06968378
3	0x3d8a8387	0.06763368
4	0x3c2a5109	0.010395297
5	0xbdc57f88	-0.09643465
6	0x3d0f2266	0.034944914
7	0x3cf06366	0.029344272
8	0xbd3d513c	-0.04622005
9	0xbe108d7a	-0.14116469
10	0xbda263a0	-0.07929158
11	0xbd69e7ae	-0.057105713
12	0x3c04875e	0.008088915
13	0x3c62bf5e	0.013839571
14	0xbdbae516	-0.09125726
15	0xbd91b188	-0.071139395
16	0x3d3e0d2b	0.046399277
17	0xb8c697ed	-9.469674e-05
18	0x3b9a18ce	0.004702664
19	0x3d1eabdc	0.038738117
20	0xbe83dbc3	-0.25753602
21	0x39f4cc22	0.00046691397
22	0xbe5f3c67	-0.21800385
23	0xbb6ddb30	-0.0036293976
24	0x3f0f5c1b	0.55999917
25	0xbdd9dc3f	-0.10637712
26	0xbd48a69a	-0.04898701
27	0x3db8c8ef	0.090227
28	0xbe5f22f5	-0.21790679
29	0xbc2584c8	-0.010102458
30	0x3d26040a	0.040531196
31	0xbd853999	-0.065051265
32	0xbdf00fa7	-0.117217354
33	0xbcf7479b	-0.030185511
34	0xbd87dca4	-0.06633881
35	0x3c565459	0.0130816335
36	0x3d05269d	0.032507528
37	0xbcf515b6	-0.02991758
38	0xbe0468b8	-0.12930572
39	0x3eacd83e	0.3375873
40	0xbc978ad4	-0.018498816
41	0xbdf70294	-0.120610386
42	0xbd04d975	-0.032433946
43	0x3c37cd11	0.011218325
44	0xbd4ec598	-0.05048141
45	0x3e976602	0.29570013
46	0x3df3cef2	0.11904706
47	0x3ccd0bd5	0.025030056
48	0xbca2c6eb	-0.019870242
49	0x3e13b8fe	0.14426038
50	0x3d8ff6e3	0.07029512
51	0xbe09da4c	-0.1346218
52	0x3ce878be	0.028377887
53	0xbe7d5c24	-0.2474218
54	0x3e537f6b	0.20654075
55	0xbe5d246f	-0.2159593
56	0x3d6be7be	0.057594053
57	0x3bdd6cc8	0.0067573525
58	0x3e3edf84	0.18639952
59	0xbb97b7d5	-0.004630069
60	0x3c605dd5	0.013694246
61	0x3ddf2509	0.10895736
62	0x3de6a84a	0.11262567
63	0x3e254a46	0.16141614
64	0x3c7e9f01	0.015540839
65	0xbc720106	-0.014770752
66	0x3de029f4	0.10945502
67	0xbd3b97be	-0.04579901
68	0xbe3ccf08	-0.18438351
69	0xbe208011	-0.15673853
70	0x3be70a5b	0.007050795
71	0x3d140973	0.036141824
72	0xbde16202	-0.11005022
73	0xbd7772a7	-0.060412075
74	0x3b150da9	0.0022743738
75	0x3d72c173	0.05926652
76	0x3dd21e93	0.10259738
77	0x3b8589d1	0.004075267
78	0x3dd4cf6b	0.10391124
79	0xbdf55bdf	-0.11980414
80	0x3daa8a9e	0.083272204
81	0x3d1d84ca	0.038456716
82	0x3d48b94e	0.049004845
83	0xbe3115ca	-0.17293468
84	0x3be68ce8	0.0070358403
85	0xbd6433fd	-0.055713642
86	0xbd1e9d9e	-0.038724534
87	0x3e1a1260	0.15046072
88	0x3c2bc855	0.010484775
89	0x3e7f90ad	0.24957533
90	0x3bfdd7f4	0.007746691
91	0xbd5356f1	-0.051596586
92	0x3c3f5a96	0.011679312
93	0x3d6a536a	0.057208456
94	0xbc665df7	-0.014060489
95	0xbc060933	-0.008180904
96	0x3dd96639	0.106152005
97	0xbd0d7128	-0.034531742
98	0x3b037f80	0.002006501
99	0xbe1e8b97	-0.15482937
100	0xbd3e768e	-0.04649978
101	0x3e490343	0.1963015
102	0xbd494f0f	-0.04914766
103	0x3c31e9a8	0.010858931
104	0xbe697b2b	-0.22800891
105	0xbe8508d3	-0.25983295
106	0xbd77c542	-0.060490854
107	0xbd507c72	-0.05089993
108	0xbd95237a	-0.07282157
109	0xbba4e69d	-0.005032374
110	0xbe15541e	-0.1458287
111	0x3e4183ee	0.18897983
112	0x3ccf9b82	0.025342707
113	0xbe0e9887	-0.13925372
114	0xbd7b6847	-0.061378743
115	0xbb7a8790	-0.0038227774
116	0xbe038906	-0.12845239
117	0xbde5ef76	-0.11227314
118	0x3d021f25	0.031767983
119	0x3c5a3178	0.013317458
120	0x3d68f567	0.05687466
121	0xbd2b185d	-0.04177128
122	0x3d967e5e	0.073483214
123	0xbca74cab	-0.0204223
124	0x3d3037b5	0.043021876
125	0x3d544e19	0.051832292
126	0x3e1c5046	0.15264997
127	0x3de4764d	0.111553766

conv1.bias f4 [128]
0	0xafd08010	-3.7925973e-10
1	0x34de5da6	4.141886e-07
2	0xb3a1957d	-7.5243385e-08
3	0xb209b921	-8.016543e-09
4	0xb3fd2378	-1.1787682e-07
5	0x34d96393	4.049185e-07
6	0xb335c1ec	-4.2318717e-08
7	0x33283df4	3.9171894e-08
8	0xb2f628a4	-2.865665e-08
9	0x335d06be	5.1461704e-08
10	0x341a6e4a	1.438249e-07
11	0x33e5a753	1.06940796e-07
12	0x31d39a95	6.158482e-09
13	0x33b586bf	8.4529795e-08
14	0x33868521	6.264077e-08
15	0x332ce736	4.0257156e-08
16	0xb497e549	-2.829277e-07
17	0x33bee131	8.8885265e-08
18	0x34fa65c8	4.6640184e-07
19	0x3398fcfd	7.12407e-08
20	0xb33d57c2	-4.4084807e-08
21	0x331b4752	3.6153615e-08
22	0xb3cb590d	-9.4691224e-08
23	0xb3db5aa3	-1.0214469e-07
24	0x30170919	5.494641e-10
25	0x2f7a84e7	2.2784584e-10
26	0x33cbf185	9.496856e-08
27	0x3251e099	1.2216469e-08
28	0x348f52e2	2.669613e-07
29	0xb38795d0	-6.313678e-08
30	0x3417a09f	1.4121404e-07
31	0x329b8923	1.8106737e-08
32	0x34a10395	2.9991193e-07
33	0x31b32f6a	5.214976e-09
34	0xb2806292	-1.4945986e-08
35	0x343e893b	1.7745053e-07
36	0xb2724ce8	-1.410374e-08
37	0x33d093ae	9.7126176e-08
38	0x3405069b	1.2388993e-07
39	0x31cca783	5.9562253e-09
40	0xb49ca8f0	-2.9180183e-07
41	0xae22da52	-3.7028443e-11
42	0x333dd23b	4.4196195e-08
43	0x314e1a68	2.9991956e-09
44	0x346251ed	2.1077695e-07
45	0xb2fc7ff5	-2.939485e-08
46	0x32d260bc	2.4491207e-08
47	0xb20271b9	-7.5928535e-09
48	0x33a487e9	7.661567e-08
49	0xb238df8d	-1.0761039e-08
50	0xb419f78e	-1.4339295e-07
51	0xb2c85a2d	-2.3324072e-08
52	0x341d53fb	1.4652316e-07
53	0x33dfb7f0	1.0417705e-07
54	0x33b8735e	8.589153e-08
55	0xb3439a4f	-4.554232e-08
56	0xb1d9e11c	-6.341123e-09
57	0xb3f9fc77	-1.1640889e-07
58	0xb48b28ad	-2.5920363e-07
59	0xb60a8c6c	-2.0645339e-06
60	0x32a8b360	1.9639344e-08
61	0x33bc875c	8.779054e-08
62	0xb583f856	-9.832536e-07
63	0x3326b14d	3.881114e-08
64	0x34994d59	2.855475e-07
65	0xb4b49e27	-3.3642684e-07
66	0x3472c0a3	2.2608087e-07
67	0xb2e57f5e	-2.6717029e-08
68	0x2bcd5cb1	1.4591853e-12
69	0xb3c86257	-9.331114e-08
70	0xaf45239c	-1.7929697e-10
71	0xb3f188be	-1.124731e-07
72	0x33f9e1ff	1.16360745e-07
73	0xb41ff72c	-1.489795e-07
74	0xb5248cfc	-6.129992e-07
75	0x33b6a1fd	8.504501e-08
76	0x33d00655	9.6869066e-08
77	0xb2ccc4f7	-2.3838295e-08
78	0x34145b04	1.3816685e-07
79	0x2aad6e0b	3.080733e-13
80	0xb3902994	-6.7130856e-08
81	0xb49661b9	-2.801078e-07
82	0x33b881a1	8.591747e-08
83	0xb15d526b	-3.2206582e-09
84	0xb38fa917	-6.689714e-08
85	0x32daf27b	2.5488808e-08
86	0x34ca8a53	3.7726076e-07
87	0xb0bda022	-1.3797072e-09
88	0x3314f0d6	3.4677974e-08
89	0x357f3eb5	9.5086153e-07
90	0x330dd564	3.30232e-08
91	0xb3091613	-3.1917875e-08
92	0x333a9aa9	4.3447162e-08
93	0xb509c746	-5.132646e-07
94	0xb338711a	-4.2943704e-08
95	0x3225ce7f	9.651216e-09
96	0xb18922e7	-3.9911927e-09
97	0xb3d2dd23	-9.8191116e-08
98	0xb290ee88	-1.6872278e-08
99	0xad814391	-1.4695608e-11
100	0xb4849d00	-2.4701149e-07
101	0x33e14a52	1.0490898e-07
102	0x34b9c214	3.4600146e-07
103	0x3587adca	1.0108863e-06
104	0xb2c35f25	-2.2744254e-08
105	0xb2e36c95	-2.6475655e-08
106	0x3456313e	1.9948217e-07
107	0xb38da033	-6.594964e-08
108	0x33a2e73f	7.585776e-08
109	0x330d80c0	3.2946218e-08
110	0xb439b992	-1.7296978e-07
111	0xb2b59d7b	-2.1142787e-08
112	0x3503b95a	4.9071025e-07
113	0x2ebb9a4b	8.5311834e-11
114	0xb2cb076d	-2.3635687e-08
115	0xaf16c21c	-1.3711382e-10
116	0x29ce3526	9.1574575e-14
117	0x2ab95697	3.2922685e-13
118	0xb4ba386d	-3.4686255e-07
119	0x3302f17b	3.048761e-08
120	0xb4017f02	-1.2060266e-07
121	0x327a6095	1.4573875e-08
122	0x35110899	5.402922e-07
123	0xb4040fd2	-1.2299213e-07
124	0xafec6996	-4.3003173e-10
125	0x33ab9fab	7.9918514e-08
126	0x341f7f13	1.4854258e-07
127	0xb3b09139	-8.2220545e-08

conv1.lin.weight f4 [128, 48]
0	0x383953e2	4.418556e-05
1	0xbeb33996	-0.35004872
2	0x3d5636e5	0.052298445
3	0xbe20a065	-0.15686186
4	0xbe21959a	-0.15779725
5	0xbc162c32	-0.00916581
6	0xbd91049c	-0.07080957
7	0xbc1076cb	-0.008817385
8	0xbce67870	-0.028133601
9	0xbc10716f	-0.008816107
10	0x3df9040f	0.12158977
11	0xbe1320a4	-0.1436792
12	0xbe2a367b	-0.16622345
13	0xbe0df14c	-0.13861579
14	0x3d511321	0.051043633
15	0xbd13d1ac	-0.03608863
16	0xbd17fcbf	-0.03710627
17	0x3cd953c5	0.026529202
18	0x3db4018d	0.08789358
19	0x3d066f4e	0.032820992
20	0x39349c75	0.00017224422
21	0x3d0684b9	0.032841418
22	0x3c30da71	0.010794268
23	0x3d5d5219	0.054033373
24	0xbe9647db	-0.29351696
25	0xbcbaac77	-0.022787316
26	0xbdfaff1d	-0.1225569
27	0xbde0d89e	-0.109788164
28	0xbddc904a	-0.107697085
29	0x3b9090a0	0.004411772
30	0xbbb70289	-0.005585019
31	0x3d575b3c	0.052577242
32	0xbc696a6b	-0.014246563
33	0x3d57618c	0.052583262
34	0x3e04d23c	0.12970823
35	0xbd24b5f7	-0.040212598
36	0xbd4a35f8	-0.049367875
37	0xbe8266cf	-0.25469062
38	0xbdff3a5f	-0.12462305
39	0x3dab3126	0.08358984
40	0x3daa97cd	0.08329735
41	0x3cd395a5	0.025828192
42	0xbd4933b2	-0.049121566
43	0xbd95140a	-0.07279213
44	0x3c3f8d0e	0.011691345
45	0xbd951dbb	-0.07281061
46	0x3d5193ef	0.05116647
47	0xbe41dfd7	-0.18933044
48	0xbd2acb51	-0.041697804
49	0x3db17e54	0.08666673
50	0x3d5df2bc	0.054186568
51	0xbd5cf849	-0.05394772
52	0xbd5b1714	-0.053488806
53	0x3b83d2c1	0.0040229266
54	0x3b005b43	0.0019585646
55	0x3d5451ab	0.051835697
56	0x3d2a9513	0.041646075
57	0x3d5453e2	0.05183781
58	0x3dc4a392	0.09601511
59	0x3aec7eb6	0.0018043134
60	0xbcb8ea92	-0.02257279
61	0x3d8bac64	0.0681999
62	0x3d92c180	0.071658134
63	0xbc80cece	-0.015723612
64	0xbc7cca92	-0.015429156
65	0x3c86d33f	0.016458152
66	0x3b6fd57a	0.0036595748
67	0xbc3b6e12	-0.011439817
68	0x3d1e0f44	0.038588777
69	0xbc3b2bfe	-0.011424063
70	0xbd95d972	-0.07316865
71	0x3d7b2411	0.061313692
72	0xbd603b9b	-0.054744344
73	0x3d75ee52	0.060041733
74	0x3d3ee740	0.046607256
75	0xbcade9eb	-0.021229705
76	0xbcc14387	-0.02359177
77	0xbbf05a42	-0.0073349783
78	0x3ca2abcf	0.019857315
79	0xbd4fb86e	-0.050712995
80	0x3de5f7da	0.112289146
81	0xbd4fb686	-0.050711177
82	0xbdcedc00	-0.101005554
83	0xbbbcabac	-0.0057577696
84	0xbd89679c	-0.06709215
85	0x3d9d9ac2	0.07695533
86	0x3dd2100c	0.10256967
87	0xbd4e29bb	-0.050332766
88	0xbd8a86fd	-0.06764028
89	0x3be2ed2a	0.006925245
90	0x3dc62d2a	0.09676583
91	0xbbc34b94	-0.0059599373
92	0x3da3c68f	0.079968564
93	0xbbc31ade	-0.0059541306
94	0xbc80f5c0	-0.015742183
95	0x3ca681cf	0.02032557
96	0x3d288490	0.041142046
97	0x3b3e42b4	0.0029031457
98	0x3c1c0fb1	0.0095252255
99	0xbb12f3c2	-0.0022423123
100	0xbc8c6bd2	-0.017141256
101	0xbc9b8c46	-0.018987786
102	0xbd84a82d	-0.064773895
103	0x3d65f2ac	0.056139633
104	0x3de9bedd	0.114133574
105	0x3d65ea0b	0.056131404
106	0x3d8c1572	0.06840028
107	0x3d47824d	0.04870825
108	0x3d109913	0.035302233
109	0x3c540a2c	0.012941878
110	0x3d2062f4	0.03915687
111	0x3aa4056e	0.0012513825
112	0x3b10e26d	0.0022107617
113	0x3d4c9085	0.049942512
114	0xbd875abf	-0.06609105
115	0x3d7d6419	0.06186304
116	0x3dac34a6	0.084084794
117	0x3d7d796c	0.061883375
118	0xbbec0c5d	-0.0072036223
119	0x3e07c4ea	0.1325871
120	0x3c473bd9	0.012160265
121	0x3c97eb7b	0.018544903
122	0x3d2c4a29	0.042062912
123	0xbb14bdff	-0.0022696254
124	0xbbdca75b	-0.0067338175
125	0x3c94de34	0.018172361
126	0xbc9adaa4	-0.018903084
127	0x3d960e31	0.073269255
128	0x3c0c56c1	0.008565606
129	0x3d962416	0.073311016
130	0xbcbb95ea	-0.022898633
131	0x3e27863f	0.16359805
132	0x3c7860a0	0.015159756
133	0x3c91604d	0.017746115
134	0x3d163046	0.03666713
135	0xbc67c6c7	-0.014146513
136	0xbc14fbda	-0.009093249
137	0x3b89cf09	0.0042055887
138	0x3d1ea933	0.03873558
139	0x3db3ec25	0.08785275
140	0x3da4b0b7	0.08041518
141	0x3db3e6c0	0.087842464
142	0xbcdaa9a3	-0.026692217
143	0x3e503370	0.20332122
144	0xbcd9e92e	-0.026600447
145	0x3ce44db2	0.02786908
146	0xbcfe791d	-0.03106361
147	0xbc8bdd82	-0.017073397
148	0xbc47fae2	-0.012205811
149	0x3cf9e4cb	0.030504605
150	0xbcb66dfd	-0.022269243
151	0xbb8af5ef	-0.0042407434
152	0xba969f42	-0.0011491554
153	0xbb8977f7	-0.004195209
154	0x3be4169e	0.006960704
155	0xbd0b67d5	-0.03403457
156	0x3c9f7538	0.019465074
157	0xbb9aaf6f	-0.0047206203
158	0x3d0cf589	0.034413848
159	0xbca59386	-0.020211946
160	0xbc1f2b63	-0.009714934
161	0xbd02e832	-0.03195972
162	0xbcced7b9	-0.025249349
163	0xbbf3cd77	-0.007440265
164	0xbbb0e823	-0.0053987666
165	0xbbf3c89d	-0.0074396865
166	0x3afbd140	0.0019212142
167	0xbcb388e9	-0.02191587
168	0xbcc7cb31	-0.024388881
169	0x3d7b3c4d	0.061336804
170	0xbd4c125c	-0.049822196
171	0xbcf254c8	-0.029581442
172	0xbccc35fb	-0.024928084
173	0xbd72e41b	-0.05929957
174	0x3b61d0e1	0.0034456777
175	0x3bd633d5	0.0065369406
176	0x3b8591f0	0.004076235
177	0x3bd793d4	0.006578902
178	0xbbfb992a	-0.0076781707
179	0x3c6321f8	0.013863079
180	0x3c92f678	0.017939791
181	0xbcdd8a73	-0.027043557
182	0xbc5ea8bf	-0.013590037
183	0xbd318016	-0.043335043
184	0xbd1cd4bc	-0.038288817
185	0xbdca110b	-0.09866532
186	0xbc5f6dfa	-0.01363706
187	0xbc2d714f	-0.010586097
188	0xba6a675e	-0.00089417945
189	0xbc2d6d49	-0.010585138
190	0xbd9e7fd6	-0.077392265
191	0x3d36374e	0.044486336
192	0x3dedb4ae	0.116067275
193	0x3d489994	0.04897459
194	0xbd2c5d0e	-0.04208093
195	0x3bee4292	0.0072711194
196	0x3bd038c6	0.006354424
197	0x3b1cf5cd	0.002395022
198	0xbe1deb13	-0.15421705
199	0x3ccf3a35	0.02529631
200	0xbadb539b	-0.001673329
201	0x3ccef8f5	0.025265196
202	0x3b086ec0	0.0020817965
203	0x3d092108	0.033478767
204	0x3d43bdc8	0.04778841
205	0x3d8550b7	0.06509536
206	0xbd825f6c	-0.063658565
207	0xbcdeb11e	-0.027184065
208	0xbca6a277	-0.020341141
209	0x3c0d7837	0.0086346185
210	0x3e04f6db	0.12984793
211	0xbc5fc2c4	-0.013657276
212	0xbbeedce8	-0.0072895177
213	0xbc5fc72b	-0.013658325
214	0x3c9e4b1f	0.01932293
215	0xbcff34d3	-0.031153118
216	0xbe0024a0	-0.12513971
217	0xbd469627	-0.04848304
218	0x3dd8c72c	0.10584864
219	0x3c5a382a	0.013319055
220	0x3c5e26a8	0.013559021
221	0x3b5b8e82	0.003350169
222	0x3d6376ef	0.055533346
223	0xbca7cea1	-0.02048427
224	0xbc986621	-0.018603386
225	0xbca7cf6c	-0.020484649
226	0x3d4bfb8a	0.049800433
227	0xbdb478c7	-0.08812099
228	0x3c2bcf18	0.010486387
229	0xbceb6108	-0.028732792
230	0x3cf80209	0.030274408
231	0x3d8390fe	0.064241394
232	0x3d850717	0.06495493
233	0xbcbc96bc	-0.023021095
234	0xbc3dc294	-0.011582036
235	0x3c260c37	0.010134748
236	0x3bf29119	0.007402551
237	0x3c260e56	0.010135254
238	0x3a210e9f	0.00061438413
239	0x3ca1f46c	0.01976987
240	0x3ee81b3e	0.45333284
241	0xbdaafe26	-0.08349256
242	0x3dd3e9cc	0.103473276
243	0xbbd613a3	-0.0065331026
244	0xbb1c11e3	-0.0023814372
245	0x3aee31b2	0.0018172769
246	0xba90a327	-0.0011034951
247	0x3d47569e	0.04866659
248	0xbcaeb01c	-0.02132421
249	0x3d47560c	0.048666045
250	0x3d26ec82	0.040752895
251	0x3d3789d3	0.044809174
252	0x3e8ba6c1	0.2727566
253	0xbc95d79c	-0.018291287
254	0x3db31646	0.08744483
255	0x3d335de8	0.043790728

bn1.weight f4 [128]
0	0x3e0ea04e	0.13928339
1	0x3eb22a2a	0.34797794
2	0x3f454952	0.77065
3	0x3d68158b	0.05666117
4	0x3f1cc3c8	0.6123624
5	0x3fe51557	1.7897137
6	0x3e8c430c	0.27394903
7	0x3ed78317	0.420922
8	0x3e4c354b	0.19942205
9	0x3ea6517f	0.32484052
10	0x3ead2093	0.33813915
11	0x3f660644	0.8985331
12	0x3df6a37e	0.120429024
13	0x3df84a47	0.12123542
14	0x3ea8fee4	0.33006966
15	0x3e7c837f	0.24659537
16	0x3f60793a	0.8768498
17	0x3ecc0914	0.39850676
18	0x3ec40b3c	0.3828982
19	0x3e8b7d8a	0.27244216
20	0x3e6e66fa	0.2328147
21	0x3e0cfcfa	0.13768378
22	0x3ee67161	0.45008376
23	0x3df9b626	0.12192945
24	0x3d49835e	0.049197547
25	0x3cced720	0.025249064
26	0x3ea3c71c	0.31987846
27	0x3e343846	0.17599592
28	0x3fec98b6	1.8484104
29	0x3e079293	0.13239507
30	0x3d84f8ad	0.06492744
31	0x3e8ead31	0.2786651
32	0x3fb1d60e	1.3893449
33	0x3d449cf2	0.048001237
34	0x3ed5b0cc	0.41736448
35	0x3f02ab68	0.51042795
36	0x3e2719ed	0.16318484
37	0x3ee845f2	0.45365864
38	0x3e837c96	0.2568099
39	0x3e377c81	0.17918588
40	0x3f2c0bd2	0.67205536
41	0x3be64f31	0.0070284833
42	0x3e2ff577	0.17183481
43	0x3d3eb632	0.046560474
44	0x3f249555	0.6429036
45	0x3e43bfd1	0.19116141
46	0x3eaf0c0f	0.34188887
47	0x3f0e1178	0.55495405
48	0x3e232f26	0.15935954
49	0x3e616930	0.22012782
50	0x3eeb3cc9	0.45944813
51	0x3edf8fa4	0.43664277
52	0x3ebc3997	0.36762688
53	0x4006a7d0	2.1039925
54	0x3eb0747a	0.34463865
55	0x3e759da7	0.23985921
56	0x3e5ad756	0.21371207
57	0x3ea081b9	0.3134897
58	0x3f9f321c	1.2437167
59	0x3f6e3636	0.9305147
60	0x3e147ea3	0.14501433
61	0x3e2b3ca4	0.16722351
62	0x3e4ef484	0.20210463
63	0x3e305bae	0.17222473
64	0x3eb7b445	0.35879722
65	0x3e923fcf	0.28564307
66	0x3e5d2f2d	0.21600027
67	0x3e5a909a	0.21344224
68	0x3a63e96a	0.0008694144
69	0x3e97a7e7	0.29620287
70	0x3e08d0a7	0.13360845
71	0x3e1f20fa	0.15539923
72	0x3eb57d65	0.3544723
73	0x3e681f6e	0.2266824
74	0x3fba6728	1.4562731
75	0x3f54f353	0.83183783
76	0x3ea2ae20	0.31773472
77	0x3d314448	0.04327801
78	0x3ee9e3cc	0.45681608
79	0x3aa4f444	0.0012585004
80	0x3e789666	0.24276122
81	0x3e5e31cf	0.21698688
82	0x3e9f97a7	0.3117039
83	0x3d59f01e	0.05320751
84	0x3ec6b90f	0.38813064
85	0x3e364b78	0.17802227
86	0x3ed939c7	0.42426893
87	0x3d989dd3	0.074519776
88	0x3e8fff80	0.2812462
89	0x3f40d640	0.7532692
90	0x3e202869	0.15640415
91	0x3e9d2fe5	0.30700603
92	0x3e36437a	0.17799178
93	0x3f610dab	0.8791148
94	0x3ea06c3d	0.3133258
95	0x3e47c793	0.19509725
96	0x3e3e366a	0.18575445
97	0x3e1c13cb	0.15241925
98	0x3ed0cdc4	0.40781987
99	0x3b38982c	0.0028166873
100	0x3e21ad5d	0.15788789
101	0x3f08dc4f	0.53461164
102	0x3ef09047	0.46985075
103	0x3ff1748f	1.8863696
104	0x3e0f8c48	0.14018357
105	0x3ef1f140	0.47254372
106	0x3f454173	0.7705299
107	0x3e3f0d99	0.18657531
108	0x3f39d448	0.7258954
109	0x3e2eaf32	0.17059019
110	0x3ec5c826	0.38629264
111	0x3daf823e	0.085697636
112	0x3f2a41e5	0.665068
113	0x3c7e7568	0.0155309215
114	0x3e426d49	0.18987001
115	0x3b8a0d0a	0.00421298
116	0x3a26a2e1	0.00063566683
117	0x3bba4304	0.0056842584
118	0x3f1a8b4f	0.6036882
119	0x3e0d77d6	0.13815245
120	0x3e481e38	0.19542778
121	0x3e70f8a4	0.23532349
122	0x3f008bec	0.50213504
123	0x3e44e5bf	0.19228266
124	0x3e3ec8eb	0.18631332
125	0x3e5ec770	0.21755767
126	0x3f2d4b99	0.6769348
127	0x3e708f89	0.23492254

bn1.bias f4 [128]
0	0x3dc1c170	0.094607234
1	0xbd542aa9	-0.051798496
2	0xbe916bea	-0.28402644
3	0x3ddee09b	0.10882684
4	0xbe199727	-0.14999066
5	0xbe8d1f4c	-0.2756294
6	0xbd1e788b	-0.038689177
7	0xbe0157df	-0.12631176
8	0xbcf0ee86	-0.029410612
9	0x3c9947a3	0.018710917
10	0xbd302158	-0.04300055
11	0xbe55a1b1	-0.20862462
12	0xbc364ddb	-0.011126961
13	0xbc8d2179	-0.017227875
14	0xbd4db0cd	-0.05021744
15	0xbd1c1b25	-0.038111825
16	0xbeae7105	-0.34070602
17	0xbdf11356	-0.11771266
18	0xbadd9001	-0.0016903878
19	0xbd26fcc0	-0.040768385
20	0xbca99b7d	-0.020704025
21	0x3de40eba	0.11135621
22	0xbe05738e	-0.13032362
23	0xbce53bd2	-0.027982626
24	0x3b4dc91c	0.0031400388
25	0x3a6c084a	0.0009003921
26	0xbd8809d7	-0.06642502
27	0xbe0f3878	-0.13986385
28	0xbe80eec2	-0.25182158
29	0xbcef59e5	-0.02921767
30	0x3f1133f4	0.567199
31	0x3b93321a	0.0044920566
32	0xbe345cb3	-0.17613487
33	0xbc28cce4	-0.010302756
34	0xbda8607e	-0.082215294
35	0xbe5784c2	-0.21046737
36	0x39d646c3	0.00040869982
37	0x3b9058d6	0.0044051213
38	0x3d33bd83	0.043881904
39	0xbe4d80f0	-0.20068717
40	0xbe53008b	-0.20605676
41	0xb9c523d4	-0.00037601462
42	0xbb0a1117	-0.0021067315
43	0xbb6124b8	-0.0034354161
44	0xbcbd9b1a	-0.023145247
45	0x3ed4469d	0.41460124
46	0xbd95b146	-0.07309203
47	0xbe424fe2	-0.18975785
48	0x3b15b387	0.0022842602
49	0xbc93808b	-0.01800563
50	0x3e1e451b	0.15456049
51	0xbdfe22e2	-0.12408997
52	0xbdc45089	-0.09585673
53	0xbe9e921a	-0.30970842
54	0xbcc0ab5a	-0.023519207
55	0xbaa5e829	-0.001265769
56	0xbb9f8256	-0.004867832
57	0xbc5addc8	-0.013358541
58	0xbe909cdd	-0.28244677
59	0xbea07a40	-0.3134327
60	0xbd20a805	-0.039222736
61	0xbcf59400	-0.029977798
62	0x3cdd2ffa	0.027000416
63	0xbd43831b	-0.047732454
64	0xbbb24f5f	-0.0054415907
65	0xbb19ec2b	-0.0023486714
66	0x3e139002	0.14410403
67	0x3ca5f4fa	0.020258415
68	0x3937c892	0.00017526958
69	0xbdc87264	-0.09787443
70	0xbccfff3f	-0.025390266
71	0xb9f7a769	-0.00047236242
72	0xbdb3908a	-0.08767803
73	0xbd672981	-0.056436066
74	0xbec30853	-0.38092288
75	0xbd6a0a93	-0.05713899
76	0xbd9d8e0b	-0.07693108
77	0x3c4c16d3	0.012456614
78	0x3c6c41ed	0.014420015
79	0x399dc1b1	0.00030089685
80	0xbc674c86	-0.014117366
81	0xbcf96a9d	-0.030446345
82	0x3e184bd5	0.14872678
83	0x3b83eb83	0.004025878
84	0xbdaf173d	-0.08549354
85	0xbd19ab01	-0.037516598
86	0xbe360bdf	-0.17777966
87	0xbb885177	-0.004160102
88	0xbd7a25b9	-0.06107113
89	0x3dd84832	0.10560645
90	0xbccfdda5	-0.025374243
91	0xbd042a83	-0.032267105
92	0xbc580541	-0.013184846
93	0xbe1ba8c9	-0.15201105
94	0xbd97e369	-0.07416422
95	0x3d7d6fc7	0.061874177
96	0x3cbd9dc7	0.023146523
97	0x3d6036e0	0.054739833
98	0xbe1b208d	-0.15149136
99	0xb82ab176	-4.0696432e-05
100	0xbc5eb60f	-0.013593211
101	0xbe08aead	-0.13347884
102	0x3d9ddfd0	0.077087045
103	0xbeafe2ec	-0.34352815
104	0xbc572d3b	-0.013133342
105	0xbe093c94	-0.13402015
106	0xbe8846b1	-0.26616433
107	0x3c9319cf	0.017956642
108	0xbe848dbe	-0.2588939
109	0xbd0bd776	-0.034141026
110	0xbdd4c1b1	-0.10388506
111	0x3c872edb	0.016501835
112	0xbd8b86aa	-0.068127945
113	0x3a422c21	0.00074070884
114	0xbd4d9368	-0.050189406
115	0xb98eb158	-0.00027216482
116	0x38cc57a9	9.743806e-05
117	0x3a5d27ab	0.0008436392
118	0xbca95fb5	-0.02067552
119	0xbc0d3389	-0.008618244
120	0x3d43731b	0.047717195
121	0xbd9b821c	-0.07593176
122	0xbdffef40	-0.12496805
123	0xbc6f44de	-0.014603822
124	0xbcd3cb16	-0.025853675
125	0xbcce8cfd	-0.025213713
126	0x3ea62eed	0.32457677
127	0xbd8d1642	-0.06889011

bn1.running_mean f4 [128]
0	0x4204f210	33.23639
1	0xc08619bb	-4.190641
2	0xc0df9242	-6.9866037
3	0x4115693d	9.338193
4	0xc11acb98	-9.6747055
5	0xc25d3997	-55.30624
6	0xc186d190	-16.852325
7	0xc08cc029	-4.398457
8	0x40846cfe	4.1383047
9	0xc1a6437b	-20.78295
10	0xc18431a5	-16.52424
11	0xc0c437ba	-6.1318026
12	0x40e07e1c	7.015394
13	0xbf60b3c1	-0.8777428
14	0xc089c983	-4.3058486
15	0xc11da501	-9.852784
16	0xc100d40c	-8.051769
17	0xc0d79e89	-6.7381024
18	0xc1af8273	-21.938696
19	0xc14ae6fe	-12.681395
20	0xc18af31d	-17.368708
21	0x40df50b3	6.978601
22	0xc0efd280	-7.494446
23	0xbfede057	-1.8584088
24	0x41090e2f	8.565963
25	0xbf049990	-0.5179682
26	0xc0da95fa	-6.8308077
27	0x41892510	17.143097
28	0xc2923871	-73.11024
29	0x3feed790	1.8659534
30	0x41295906	10.584234
31	0xc1314e95	-11.081685
32	0xc23b3fd8	-46.812347
33	0x411e7fd3	9.906207
34	0xc120a180	-10.039429
35	0xc0c2c73d	-6.086821
36	0x413246c1	11.142274
37	0xc1a10e6f	-20.132048
38	0xc197c28c	-18.969994
39	0x40dda049	6.925816
40	0xc0be2bc3	-5.942842
41	0x417d2065	15.820409
42	0x40282067	2.6269777
43	0x3f529a11	0.82266337
44	0xc1f020af	-30.015959
45	0xbe8951d4	-0.26820242
46	0xc0c42815	-6.129893
47	0xc0dac42d	-6.8364472
48	0x4105b247	8.356025
49	0xc1494671	-12.579698
50	0xc1d4e9fd	-26.614252
51	0xc12eb38d	-10.918836
52	0xc10af994	-8.685932
53	0xc292f368	-73.4754
54	0xc0bdbbcf	-5.929176
55	0xc1d0622b	-26.047934
56	0xc1ad6dc8	-21.678604
57	0xc0bb4277	-5.8518634
58	0xc111c2f5	-9.110097
59	0xc13e18c0	-11.8810425
60	0x40a787b5	5.235316
61	0x40e7f2ab	7.2483726
62	0x3f7291c4	0.9475367
63	0xc081b045	-4.0527673
64	0xc1a35e1a	-20.420948
65	0xc16ae6c1	-14.681336
66	0xc0d85a04	-6.760988
67	0xbfae2ff9	-1.360839
68	0x4110c6c8	9.048531
69	0xc085f759	-4.186444
70	0x4170e161	15.055024
71	0xc102563f	-8.146056
72	0xc0dea948	-6.958164
73	0xc0adaace	-5.4271
74	0xc1f838ff	-31.02783
75	0xc206801b	-33.625103
76	0xc0d65fd9	-6.6992
77	0x40c4617b	6.1368995
78	0xc1aca965	-21.582712
79	0x4196a37a	18.829823
80	0xc0ce0dee	-6.4392004
81	0xc0fb56fe	-7.854369
82	0xc0c19097	-6.0489
83	0x4117dc2e	9.491255
84	0xc1966393	-18.79862
85	0xbfb3b779	-1.4040366
86	0xc084704c	-4.138708
87	0xc19777e0	-18.933533
88	0xc0cb73ec	-6.3579006
89	0xc1ea97d7	-29.32414
90	0x3f50e54c	0.8159988
91	0xc041da0f	-3.0289342
92	0xc0871848	-4.221714
93	0xc1b7f9dd	-22.997004
94	0xc0815a7e	-4.0422964
95	0xc14fae8f	-12.980117
96	0x40d8b4ab	6.772054
97	0xbfafd720	-1.3737526
98	0xc077c374	-3.8713045
99	0xbfca0781	-1.578354
100	0x410109af	8.064864
101	0xc0ac173c	-5.377836
102	0xc1ed137d	-29.634516
103	0xc23f823f	-47.877193
104	0xc1485b92	-12.522356
105	0xc1454a63	-12.330661
106	0xc1056d7f	-8.339232
107	0xc1debe59	-27.842943
108	0xc0f60d94	-7.6891575
109	0x3fd961e7	1.6983002
110	0xc14727c3	-12.447207
111	0x40c89c8f	6.269111
112	0xc1d97987	-27.18434
113	0x41c9cf0e	25.2261
114	0xbfef1d1d	-1.868076
115	0x4097f7ab	4.748983
116	0x41af2073	21.890844
117	0x4191ba65	18.216013
118	0xc1701114	-15.004169
119	0xc0b4f865	-5.6553216
120	0x3d23e74b	0.0400155
121	0xc09353d5	-4.6039834
122	0xc15a2770	-13.634628
123	0xbe4c9cc0	-0.1998167
124	0xc1250938	-10.314751
125	0xc19dffa3	-19.749823
126	0xc1e86eba	-29.054066
127	0xbfbcec9b	-1.4759706

bn1.running_var f4 [128]
0	0x47bab10b	95586.086
1	0x45039d4c	2105.831
2	0x45a197e3	5170.986
3	0x46317cb7	11359.179
4	0x45c46797	6284.9487
5	0x478c26f9	71757.945
6	0x45e60f31	7361.899
7	0x44bbbd91	1501.924
8	0x45a0f828	5151.0195
9	0x4651e0ca	13432.197
10	0x462483fe	10528.998
11	0x45b13951	5671.1646
12	0x458c29c1	4485.219
13	0x4559d0f0	3485.0586
14	0x453efb43	3055.7039
15	0x455ce0f4	3534.0596
16	0x456b74a9	3767.2913
17	0x452d5543	2773.3289
18	0x461a9b81	9894.876
19	0x45c161f6	6188.245
20	0x46341b14	11526.77
21	0x454e47cc	3300.4873
22	0x4572567c	3877.4053
23	0x4551c259	3356.1467
24	0x46a3f9bb	20988.865
25	0x45997daa	4911.708
26	0x456de53a	3806.3267
27	0x46048a96	8482.646
28	0x47cf10cc	106017.59
29	0x455227c3	3362.485
30	0x459f262f	5092.773
31	0x45aaa1fe	5460.249
32	0x475fbf6f	57279.434
33	0x4637a954	11754.332
34	0x45ca3c5e	6471.546
35	0x452aa636	2730.3882
36	0x45d0a26d	6676.303
37	0x4722ff0c	41727.047
38	0x4661b1d3	14444.456
39	0x467f3640	16333.5625
40	0x4513b36b	2363.2136
41	0x46e135b6	28826.855
42	0x458519ed	4259.2407
43	0x45abad1f	5493.64
44	0x46feaed4	32599.414
45	0x461414fb	9477.245
46	0x45687831	3719.512
47	0x45939c6b	4723.5522
48	0x459e66ce	5068.8506
49	0x460cc975	9010.364
50	0x468e73bc	18233.867
51	0x462f5bdd	11222.966
52	0x460775bb	8669.433
53	0x47e82cb3	118873.4
54	0x45a351e8	5226.2383
55	0x468cd3d0	18025.906
56	0x46581a68	13830.602
57	0x45c97285	6446.315
58	0x45bfc693	6136.822
59	0x45e63e9e	7367.827
60	0x45454579	3156.342
61	0x45a1db16	5179.3857
62	0x4551df97	3357.9744
63	0x45af1b84	5603.4395
64	0x46d556b7	27307.357
65	0x45c94f53	6441.9155
66	0x453c31fc	3011.124
67	0x4614dbdc	9526.965
68	0x465c8fc4	14115.941
69	0x4517714f	2423.0818
70	0x45a43bd9	5255.481
71	0x4567b3c2	3707.2349
72	0x4591d6f4	4666.869
73	0x4525e63a	2654.3892
74	0x46821f6f	16655.717
75	0x46b366c7	22963.389
76	0x45a9bf22	5431.8916
77	0x45a8017f	5376.187
78	0x475cfb06	56571.023
79	0x474cf8f1	52472.94
80	0x45dd8509	7088.6294
81	0x45591130	3473.0742
82	0x458c3537	4486.652
83	0x465f8db4	14307.426
84	0x4614fcab	9535.167
85	0x45749195	3913.0989
86	0x45348ee2	2888.9302
87	0x46cc9fe9	26191.955
88	0x45274674	2676.4033
89	0x47858404	68360.03
90	0x457ce928	4046.5723
91	0x461796c4	9701.691
92	0x459fd8c7	5115.097
93	0x466b8a4f	15074.577
94	0x452c5454	2757.2705
95	0x463d6afd	12122.747
96	0x461a0923	9858.284
97	0x4570265e	3842.398
98	0x459d119b	5026.2007
99	0x461d8038	10080.055
100	0x458b8ec0	4465.8438
101	0x453ee78f	3054.4724
102	0x4683bf18	16863.547
103	0x471ecff1	40655.94
104	0x4689ff56	17663.668
105	0x46088bb4	8738.926
106	0x458f0145	4576.1587
107	0x46bb880d	24004.025
108	0x4574ca72	3916.6528
109	0x4680b305	16473.51
110	0x45ac09a0	5505.203
111	0x461f006b	10176.1045
112	0x4777ff3d	63487.24
113	0x4772795e	62073.367
114	0x4523edfb	2622.8738
115	0x45a837a4	5382.955
116	0x47268ea8	42638.656
117	0x46f2920b	31049.021
118	0x4648cefb	12851.745
119	0x45ade6f1	5564.8677
120	0x45cfb272	6646.3057
121	0x44f98fbd	1996.4918
122	0x45c0a2b8	6164.34
123	0x454eccbc	3308.796
124	0x455f6417	3574.2556
125	0x46b6d269	23401.205
126	0x47e3c7f5	116623.914
127	0x4566e67c	3694.4053

conv2.att_src f4 [1, 8, 32]
0	0x3ef67864	0.48138726
1	0xbc3665a7	-0.011132634
2	0x3d7e4a1e	0.062082402
3	0x3e053a59	0.13010539
4	0x3cb6b785	0.022304306
5	0xbe57475b	-0.21023314
6	0xbd0f4be8	-0.0349845
7	0x3e8a23c6	0.26980418
8	0x3ea993f8	0.33120704
9	0x3cb37fe7	0.021911575
10	0x3d274371	0.0408358
11	0x3d7a4ccc	0.061108395
12	0x3d3d20fa	0.046174027
13	0xb9fb94e5	-0.00047985386
14	0x3b808f30	0.0039233193
15	0x3d313c61	0.043270472
16	0x3d058115	0.032593805
17	0xbe8df335	-0.27724615
18	0xbcf420c1	-0.029800775
19	0x3ed2ec8e	0.41196102
20	0xbd0ec8da	-0.034859516
21	0xbd3a5139	-0.045487616
22	0xbd6ec495	-0.058292944
23	0x3cfe94a2	0.031076733
24	0x3d8b03fc	0.06787869
25	0x3d644d57	0.05573782
26	0x3d6c5fb8	0.057708472
27	0x3ce567d8	0.028003618
28	0xbdcff177	-0.10153478
29	0x3b9052d2	0.004404404
30	0x3c8ece00	0.017432213
31	0x3e9e2220	0.3088541
32	0x3d0b29f0	0.03397554
33	0xbc850455	-0.016237417
34	0x39f1fe24	0.00046156452
35	0xbc453f5a	-0.01203903
36	0xbec5bf2b	-0.38622412
37	0xbdaf2c0c	-0.08553323
38	0x3f0de31d	0.5542467
39	0xbc00a30a	-0.007851372
40	0x3c1cef53	0.009578544
41	0xbe98423f	-0.29738042
42	0xbd29436f	-0.041324075
43	0x3d09de95	0.033659536
44	0xbbd3486e	-0.0064478433
45	0x3c868113	0.01641897
46	0xbbb6a4a6	-0.005573827
47	0x3d0a2704	0.033728614
48	0x3d46e84e	0.048561387
49	0xbc3f2355	-0.011666139
50	0x3eab0b23	0.33406934
51	0x3d60b40a	0.0548592
52	0x3b77c946	0.0037809177
53	0xbcd7d63f	-0.026347278
54	0x3cc51977	0.024059994
55	0x3d854428	0.065071404
56	0x3cfc8177	0.030823452
57	0x3cb48084	0.022033937
58	0x3ccaad00	0.024740696
59	0x3c4c7db8	0.012481146
60	0x3cb96341	0.022630336
61	0x3bee296d	0.007268122
62	0x3d6fcadd	0.058543075
63	0xbcde2d21	-0.027121129
64	0x3c5955ee	0.013265116
65	0x3d83dd57	0.064387016
66	0x3c822213	0.015885388
67	0xbd64aef7	-0.055830922
68	0x3d064b9d	0.032786954
69	0x3d5a0cce	0.053234868
70	0x3d50d6c1	0.050986055
71	0xbb8d87a1	-0.0043191467
72	0x3b6fd1d1	0.0036593566
73	0x3d7afce7	0.061276343
74	0x3d804253	0.0626265
75	0x3d662d61	0.05619562
76	0x3d116c96	0.035503946
77	0x3cbe9049	0.02326216
78	0x3d7c8d27	0.06165805
79	0xbd6683c5	-0.05627801
80	0x3d44637c	0.04794644
81	0x3d2115ec	0.039327547
82	0x3f98ec22	1.1947062
83	0x3d8a37e5	0.06748942
84	0xbd239e77	-0.039946046
85	0x3d896828	0.06709319
86	0x3d6df690	0.05809647
87	0xbd3e6883	-0.04648639
88	0xbb627af3	-0.0034558147
89	0xbcadd6e3	-0.02122063
90	0x3f824910	1.0178547
91	0xbd92781d	-0.07151816
92	0x3ead5033	0.3385025
93	0xbd966e8e	-0.073453054
94	0x3d8c55e6	0.06852321
95	0x3c8fd0bb	0.017555585
96	0x3c9fbacf	0.019498257
97	0x3c3a84c6	0.011384195
98	0x3bd0ba58	0.00636987
99	0x3e9952a0	0.2994585
100	0xbcca7c80	-0.02471757
101	0xbca47d0d	-0.02007916
102	0xbac0b422	-0.0014702121
103	0x3d862448	0.06549889
104	0x3bc77ef6	0.006088133
105	0x3c4b80bd	0.01242083
106	0x3b91315a	0.004430932
107	0x3b6d5999	0.0036216734
108	0x3cea5aff	0.028607843
109	0x3c88f681	0.016719105
110	0xbceb1a8a	-0.028699178
111	0x3d0229f9	0.03177831
112	0xbc03e984	-0.00805128
113	0x3cd5d132	0.026100729
114	0x3ca6deb7	0.02036987
115	0x3d01d867	0.031700518
116	0x3cfff2d0	0.031243712
117	0x3c7f2027	0.015571631
118	0xbe7472f2	-0.23871973
119	0x3d018899	0.03162441
120	0xbc99ef63	-0.018790906
121	0xbcbe1775	-0.023204545
122	0x3cdcc40b	0.02694895
123	0xbd3d7415	-0.046253283
124	0x3cc640cb	0.024200818
125	0xbc9c2539	-0.019060718
126	0x3c9e6bb2	0.019338463
127	0x3d14e97a	0.036355473
128	0xbc6345ad	-0.0138715925
129	0x3c9812a1	0.01856357
130	0x39a22595	0.0003092705
131	0x3d05a6de	0.03262984
132	0x3c804300	0.015656948
133	0x3c371307	0.01117397
134	0x3d03c323	0.03216852
135	0x3a22450c	0.00061900984
136	0xbbab9ac0	-0.0052369535
137	0x3e8893e5	0.26675335
138	0xbc7c6ede	-0.015407292
139	0x3c19202f	0.009346052
140	0x3d0c926b	0.034319323
141	0xbd158c59	-0.0365108
142	0xbcd21eda	-0.025649477
143	0x3cb7cc5c	0.022436313
144	0x3b9e930d	0.004839307
145	0x3cb7c1b1	0.022431226
146	0x3c30647d	0.010766146
147	0x3cabe5c6	0.020983588
148	0x3cc22f21	0.023704113
149	0x3d0e8730	0.034796894
150	0x3d15eefc	0.036604866
151	0x3cf183da	0.029481817
152	0xbca09d0f	-0.019606141
153	0x3d1ca2c7	0.038241174
154	0x3cbedf37	0.023299797
155	0xbabd2e94	-0.0014433437
156	0x3a3f8d30	0.00073071104
157	0x3cb9e079	0.022690045
158	0xbc70b0fd	-0.014690635
159	0x3c0708f1	0.008241878
160	0xbca3f765	-0.020015428
161	0xba9bdb8d	-0.0011890993
162	0x3cfb51a8	0.030678585
163	0xbc9e11ba	-0.019295562
164	0x3cbc1318	0.022958323
165	0x3bafaa23	0.005360858
166	0x3b9dbfbf	0.0048141177
167	0x3d055126	0.032548092
168	0x3d71f72d	0.059073616
169	0x3cb25696	0.021769803
170	0xbd07226f	-0.032991823
171	0xbc2909e8	-0.010317303
172	0x3eafc2b5	0.34328237
173	0x3b7f18fd	0.0038924806
174	0xbc987130	-0.01860866
175	0xbd047058	-0.0323337
176	0x3c99c36e	0.018769946
177	0x3ce2c3c3	0.027681237
178	0xbc63f68b	-0.013913761
179	0x3d27d480	0.04097414
180	0x3cffbad3	0.031217014
181	0xbbd37c8a	-0.006454055
182	0x3c956b08	0.018239513
183	0xbbc8c7fb	-0.006127355
184	0x38ff832c	0.0001218378
185	0x3d1235a2	0.03569568
186	0x3cea627b	0.028611412
187	0x3beff323	0.0073226853
188	0x3cb9cc54	0.022680439
189	0x3ced0b1b	0.02893596
190	0xbbaaeacc	-0.0052159782
191	0x3c9fd7b5	0.019512037
192	0x3d84469a	0.06458779
193	0x3c0ad8e9	0.008474567
194	0x3c716566	0.014733648
195	0xbd048a49	-0.03235844
196	0x3cc9ef62	0.02465028
197	0x3cc5e868	0.024158671
198	0x3c00a48a	0.007851729
199	0x3b0b2f47	0.0021237896
200	0x3cc05b65	0.02348108
201	0xbb21a5df	-0.0024665517
202	0x3d2394a8	0.03993669
203	0x3d3ada81	0.045618538
204	0x3edc714b	0.43055186
205	0xbc49c446	-0.012314862
206	0xbd37e8c4	-0.044899717
207	0x3d7c8945	0.061654348
208	0xbe2d9702	-0.16952136
209	0x3cc42a70	0.023946017
210	0xbce0b6c6	-0.027430903
211	0x3cafaf1f	0.021445809
212	0x3cbd02fb	0.02307271
213	0x3cce91ed	0.025216067
214	0xba82099c	-0.0009921077
215	0x3d1706c3	0.036871683
216	0x3c17aed8	0.009257995
217	0x3d007c4e	0.031368546
218	0x3e14027d	0.14454074
219	0x3bcd5097	0.0062657106
220	0xbc9d39fd	-0.01919269
221	0x3cfd60c8	0.030929938
222	0x3c5ae2f6	0.013359776
223	0x3c99498b	0.018711826
224	0xbd1b88de	-0.037972324
225	0xbb34cd98	-0.0027588364
226	0x3c789626	0.015172517
227	0x3b46f36c	0.0030357493
228	0x3d17a23a	0.037019946
229	0x3c4b3dff	0.012404918
230	0x3d2a29b1	0.041543666
231	0x3f0cb73c	0.54967093
232	0x3cbf4c04	0.023351677
233	0x3d76044f	0.060062703
234	0xbdf46b80	-0.119345665
235	0xbcde1694	-0.027110375
236	0x3e7f6a22	0.2494283
237	0xbc877a15	-0.016537705
238	0x3c589b15	0.013220568
239	0x3f0cd206	0.5500797
240	0x3bf4c971	0.0074703027
241	0xbd7c3015	-0.061569292
242	0xbc6ce0ce	-0.0144578945
243	0x3c21ba63	0.009871098
244	0x3d1b1f2a	0.037871517
245	0x3d2a827d	0.04162835
246	0xbed3e029	-0.41381958
247	0x3d2282f5	0.03967567
248	0x3d42607c	0.047455296
249	0x3b729789	0.0037016592
250	0x3b8afbb6	0.004241432
251	0x3da32232	0.079655066
252	0x3d12c48c	0.035831973
253	0xbd079bd7	-0.033107605
254	0xbb799f11	-0.0038089196
255	0x3d749f89	0.059722457

conv2.att_dst f4 [1, 8, 32]
0	0xbe349073	-0.17633228
1	0x3d0b015a	0.033936836
2	0xbd73b597	-0.05949935
3	0xbe27a825	-0.16372736
4	0xbd886c92	-0.06661333
5	0x3d721ced	0.059109617
6	0x3d46f9b7	0.04857799
7	0xbdd417e6	-0.10356121
8	0xbdd0810e	-0.10180865
9	0x3c111305	0.008854632
10	0xbd444c2c	-0.047924206
11	0xbdb7c565	-0.08973197
12	0xbd1bbaa1	-0.03801978
13	0xbccc2aa9	-0.024922686
14	0xbd06d627	-0.032919075
15	0xbc5bb962	-0.013410898
16	0xbcbf17c7	-0.023326768
17	0x3c54fb20	0.012999326
18	0x3c6f9180	0.014622092
19	0xbde4b94c	-0.11168155
20	0x3d439dd8	0.047757953
21	0x3c9a0174	0.018799521
22	0x3cc11084	0.023567446
23	0xbcc63965	-0.02419729
24	0xbd830d3d	-0.063990094
25	0xbd77e4bf	-0.060520884
26	0xbccf1302	-0.025277618
27	0xbcb7586f	-0.022381036
28	0x3e36d2d3	0.1785386
29	0x3bdacd4f	0.0066773067
30	0xbc8ebb39	-0.01742326
31	0xbdaac5cd	-0.08338509
32	0xbce527c6	-0.027973067
33	0x3d1a8a36	0.037729464
34	0xbc8952d7	-0.016763134
35	0xbc93be19	-0.018034982
36	0x3dfc0b37	0.123068266
37	0x3e1da9f6	0.15396866
38	0xbe5fe2eb	-0.21863906
39	0x3b475d02	0.0030420427
40	0xbca670f7	-0.020317538
41	0x3e418dbf	0.18901728
42	0x3cf5a4ec	0.029985867
43	0xbcb3bb35	-0.021939853
44	0x3caa2ee9	0.020774322
45	0xbd151d11	-0.036404673
46	0xbc6a8457	-0.014313779
47	0xbcb58eac	-0.022162758
48	0xbcd7a638	-0.026324376
49	0x3ca1b757	0.019740744
50	0xbe15ae92	-0.14617375
51	0xbd51a957	-0.051186886
52	0x3c9a9726	0.018870901
53	0x3cbd5dba	0.023115981
54	0xbd884d0d	-0.06655321
55	0xbda85582	-0.08219434
56	0xbcf538c0	-0.029934287
57	0xbcdf60db	-0.027267864
58	0xbc8442e2	-0.016145173
59	0xbd4e20c1	-0.050324205
60	0xbc881b6e	-0.016614642
61	0xbd1d01be	-0.03833174
62	0xbda7091a	-0.08156033
63	0x3caab564	0.020838447
64	0xbd0d5573	-0.03450532
65	0xbd4085b4	-0.04700251
66	0xbce6778a	-0.028133173
67	0x3d509ae0	0.05092895
68	0xbc1c42e6	-0.009537434
69	0xbcf42e55	-0.02980725
70	0xbcf2cbe6	-0.029638242
71	0x3b580b09	0.0032965562
72	0xbc7ef813	-0.015562075
73	0xbd1f49b1	-0.038888637
74	0xbd12d1bc	-0.03584455
75	0xbd1d9914	-0.038476065
76	0xbc867a55	-0.016415754
77	0xbc9d46ea	-0.019198854
78	0xbcd5711c	-0.026054911
79	0x3cbe1cfb	0.023207178
80	0xbd039751	-0.03212673
81	0xbd51d9e1	-0.051233176
82	0xbdf0c106	-0.11755566
83	0xbd4f3898	-0.05059108
84	0x3b11aec2	0.0022229408
85	0xbd0f7a64	-0.03502883
86	0xbce06223	-0.027390545
87	0x3d54a7d9	0.051917884
88	0xbbd05904	-0.0063582677
89	0x3c06de00	0.00823164
90	0xbdcdc4a6	-0.10047273
91	0x3bbb01eb	0.0057070157
92	0xbd10a600	-0.03531456
93	0x3ca87526	0.020563673
94	0xbd24ce88	-0.040236026
95	0xbb9ea5ef	-0.004841558
96	0xbcf42718	-0.029803798
97	0xbb95fb7f	-0.0045771
98	0xbb90dec5	-0.0044210874
99	0xbe945311	-0.28969625
100	0x3d0d6ce4	0.034527674
101	0x3ca80d7f	0.020514248
102	0x3a4a3d35	0.0007714809
103	0xbd7fe445	-0.062473554
104	0x3b9cef3f	0.0047892625
105	0xbc54ec71	-0.012995825
106	0xbbfd718a	-0.007734482
107	0xbc6498ef	-0.013952478
108	0xbcc99949	-0.024609225
109	0xbc0c3ef8	-0.008559935
110	0x3d04c874	0.03241773
111	0xbcfa9047	-0.030586375
112	0x3b93c60a	0.004509692
113	0xbcb08c83	-0.021551376
114	0xbc8cacbe	-0.017172214
115	0xbcf7bb79	-0.030240761
116	0xbd157bce	-0.036495022
117	0xbc76d990	-0.015066519
118	0x3e6f9205	0.23395546
119	0xbd189da1	-0.0372597
120	0x3c983671	0.018580647
121	0x3cdb364e	0.026759293
122	0xbcdc6d57	-0.026907606
123	0x3d4be068	0.049774557
124	0xbcbdb648	-0.023158208
125	0x3c9fb715	0.01949648
126	0xbc967323	-0.018365448
127	0xbcd9e6db	-0.026599338
128	0x3c1a6e55	0.009425719
129	0xbc7a3978	-0.015272491
130	0xbb5df598	-0.003386831
131	0xbcf6eb95	-0.030141631
132	0xbc8e0c2a	-0.017339785
133	0xbc3c4d4f	-0.011493041
134	0xbd4445b0	-0.04791802
135	0xbc37ad86	-0.011210805
136	0x3bbf08d9	0.005829912
137	0xbe878653	-0.2646967
138	0x3ca63940	0.02029097
139	0xbb5b36e9	-0.0033449477
140	0xbcf0369c	-0.029322915
141	0x3d1893da	0.037250377
142	0x3ce5bdf1	0.028044673
143	0xbcb79d5e	-0.022413906
144	0xbbde03f6	-0.0067753745
145	0xbcb9a022	-0.022659365
146	0xbc5c400c	-0.013443004
147	0xbcb0a217	-0.021561665
148	0xbccedb4d	-0.025251055
149	0xbd14c6a2	-0.036322244
150	0xbd05d00c	-0.032669112
151	0xbd0014a8	-0.0312697
152	0x3cc0ad04	0.02352
153	0xbcf8ee22	-0.030386988
154	0xbccb0fcc	-0.024787806
155	0x3b249d2b	0.0025118093
156	0x3a4966b4	0.00076828455
157	0xbcd3d4d8	-0.025858328
158	0x3c9d6be9	0.019216495
159	0xba64ad50	-0.00087233353
160	0x3ca4e915	0.020130673
161	0x3bb480b9	0.005508509
162	0xbcfcf789	-0.030879753
163	0x3c8f68eb	0.017506083
164	0xbcb29b1c	-0.021802478
165	0xb7e83043	-2.7679029e-05
166	0xbc740e41	-0.0148959765
167	0xbcfab547	-0.030604018
168	0xbd6b7725	-0.057486672
169	0xbca2d5c8	-0.01987733
170	0x3cfb0d2d	0.030645931
171	0x3c181bc2	0.009283962
172	0xbeaeded0	-0.34154367
173	0xbbb754ef	-0.0055948417
174	0x3c9de4ca	0.019274134
175	0x3d06f29f	0.032946225
176	0xbc9cb135	-0.019127468
177	0xbcc189c3	-0.02362526
178	0x3c658c29	0.014010468
179	0xbd167e4f	-0.03674155
180	0xbcee02ce	-0.029054072
181	0x3bd41f12	0.0064734304
182	0xbc7247c0	-0.014787614
183	0x3b83e68c	0.004025286
184	0x398a8a53	0.0002642447
185	0xbd03f9fa	-0.032220818
186	0xbd180c20	-0.03712094
187	0xbb839a5d	-0.0040162043
188	0xbcc144b9	-0.02359234
189	0xbce270bc	-0.027641647
190	0x3c068122	0.008209499
191	0xbc5a9e80	-0.013343453
192	0xbd96434c	-0.073370546
193	0xbc8ccc09	-0.017187135
194	0xbc67f760	-0.0141581
195	0x3cf6ec6a	0.030142028
196	0xbcd8c868	-0.026462749
197	0xbc817be3	-0.015806144
198	0xbc328013	-0.010894793
199	0xbbf1a9dc	-0.007374985
200	0xbd06e86f	-0.03293651
201	0x3c745c57	0.014914594
202	0xbd00a341	-0.03140569
203	0xbd25f8f9	-0.040520642
204	0xbed6eba1	-0.41976646
205	0x3c64e26a	0.013969997
206	0x3d50fd8f	0.051023062
207	0xbd5d2af0	-0.053996027
208	0x3e308f58	0.17242181
209	0xbc9f3109	-0.019432561
210	0x3d04666c	0.03232424
211	0xbca65dde	-0.020308431
212	0xbc6f5b4d	-0.01460917
213	0xbc7d29d0	-0.015451863
214	0x3bda8901	0.006669164
215	0xbd0be636	-0.034155093
216	0xbbb6c4c5	-0.005577656
217	0xbcdd8bd7	-0.02704422
218	0xbe12392a	-0.14279619
219	0xbbdc3449	-0.0067201
220	0x3cf3a3a0	0.029741108
221	0xbcdfa042	-0.027298097
222	0xbc85198b	-0.016247531
223	0xbc8cc91f	-0.017185746
224	0x3cae2e48	0.021262303
225	0xbcb02e7b	-0.021506539
226	0xbbd6df48	-0.006557379
227	0xbcda4048	-0.02664198
228	0xbcebe74d	-0.028796816
229	0xbd31e4b6	-0.043431006
230	0xbc413bd2	-0.011794047
231	0xbe42f2d7	-0.19037949
232	0xbd653b7d	-0.055964936
233	0xbd85581d	-0.06510947
234	0x3e221454	0.15828067
235	0x3d03a4d9	0.032139633
236	0xbd874724	-0.06605366
237	0x3cf74b4e	0.030187275
238	0xbc50a953	-0.012735683
239	0xbe04c663	-0.12966304
240	0xbb8d6f3d	-0.004316239
241	0x3cf1b1db	0.029503753
242	0x3ce4b378	0.027917609
243	0xbc4ead65	-0.012614583
244	0xbc8d7ba8	-0.017270878
245	0xbd1bc117	-0.03802594
246	0x3dc8007c	0.097657174
247	0xbd494eb1	-0.04914731
248	0xbcdc3de4	-0.02688498
249	0xbcffb7fb	-0.031215658
250	0x3b8dbd28	0.0043255277
251	0xbd9e07fb	-0.07716366
252	0xbc713fcc	-0.014724683
253	0x3c30a5fe	0.010781763
254	0xbb4170b7	-0.0029516646
255	0xbd28db99	-0.04122505
