gat.pth (torch, 175596 bytes, 20 tensors)

conv1.att_src f4 [1, 8, 16]
0	0xbb21e8c5	-0.0024705392
1	0x3e343dd9	0.17601718
2	0xbea7908f	-0.32727477
3	0x3eb80fa3	0.3594943
4	0xbd451d78	-0.048123807
5	0xbe4b3d98	-0.19847715
6	0xbe18b8e5	-0.14914282
7	0x3e15222b	0.14563815
8	0xbdb192f7	-0.086706094
9	0xbd117c5f	-0.035519
10	0xbda129f0	-0.07869327
11	0x3e05863d	0.13039489
12	0xbd96457d	-0.073374726
13	0xbe34d3bb	-0.17658894
14	0xbd2eaf58	-0.04264769
15	0xbe243339	-0.16035165
16	0x3d1291af	0.035783466
17	0x3e226536	0.15858921
18	0x3dab037a	0.083502725
19	0x3d84e92c	0.064897865
20	0x3e36ff47	0.17870818
21	0x3d5a6047	0.053314473
22	0x3e4e7453	0.20161562
23	0xbcf27a7f	-0.029599426
24	0xbdee8827	-0.11647063
25	0x3e4dbd1a	0.20091668
26	0x3d473caf	0.048641857
27	0xbe1fdc9b	-0.15611498
28	0xbd14f3a1	-0.036365155
29	0x3d1d03c7	0.03833368
30	0xbd675065	-0.056473155
31	0xbe4b0bb8	-0.19828689
32	0xbe17e46e	-0.14833233
33	0xbd03cba4	-0.03217663
34	0xbede8ac6	-0.4346525
35	0xbce69c49	-0.028150694
36	0x3ed27cd3	0.41110858
37	0x3e889900	0.2667923
38	0xb902759f	-0.00012441583
39	0xbe63ef95	-0.22259362
40	0x3d274c5c	0.040844306
41	0x3e3441de	0.17603251
42	0xbeafbea6	-0.3432514
43	0x3da0e76f	0.078566425
44	0x3d60a8e7	0.054848578
45	0xbe8e2b92	-0.27767617
46	0xbe67eacc	-0.22648162
47	0x3bb7e9e8	0.0056126006
48	0xbea97aad	-0.33101407
49	0xbe4ec0c1	-0.20190717
50	0x3b923ebd	0.0044630454
51	0x3e82c128	0.25537992
52	0x3e816bb1	0.25277475
53	0xbdc0b250	-0.094090104
54	0xbc83490c	-0.016026042
55	0x3da06713	0.0783216
56	0x3e5badd4	0.21453029
57	0xbc5b6028	-0.013389625
58	0x3e04871b	0.12942164
59	0xbc075cef	-0.008261903
60	0xbcac848f	-0.021059303
61	0xbddf3ec7	-0.10900646
62	0x3e4c3a21	0.1994405
63	0xbe2657cc	-0.1624443
64	0xbea20c07	-0.316498
65	0xbe43d667	-0.19124757
66	0x3da4f510	0.080545545
67	0xbe82e423	-0.2556468
68	0xbcb59ffc	-0.022171013
69	0x3de2e273	0.11078348
70	0xbe030f89	-0.12798895
71	0x3e797bb9	0.24363603
72	0x3d0c3158	0.034226745
73	0x3e6a016c	0.22852105
74	0x3d68e99d	0.056863416
75	0x3e960f9d	0.29308787
76	0x3d916cd8	0.071008384
77	0x3e82fed2	0.25585037
78	0x3e0f8335	0.14014895
79	0xbd8f8e1b	-0.07009526
80	0xbe8246cb	-0.25444636
81	0xbda8e4a1	-0.082467325
82	0x3e22ea23	0.15909629
83	0x3e45fd14	0.19334823
84	0xbdc47288	-0.095921576
85	0xbd28bdc4	-0.0411966
86	0x3e58dafe	0.21177289
87	0x3d028060	0.03186071
88	0xbd38e250	-0.045137703
89	0xbdaf3f5d	-0.085570075
90	0xbea4e20d	-0.32203713
91	0x3c1df666	0.0096412655
92	0x3e8d01e0	0.27540493
93	0xbe4c5c81	-0.19957162
94	0xbe902f16	-0.28160924
95	0x3e59e616	0.21279177
96	0xbd93beaa	-0.07214101
97	0x3d3d25f0	0.04617876
98	0x3c642ee3	0.013927194
99	0xbe1dad05	-0.15398033
100	0x3e826664	0.25468743
101	0x3e554dfc	0.2083053
102	0x3db36b71	0.08760727
103	0x3dec82bb	0.11548372
104	0x3eb75e12	0.35813957
105	0xbc453cc6	-0.012038415
106	0x3eb9981a	0.36248857
107	0x3e6b0e9b	0.2295479
108	0xbe24bc9f	-0.16087578
109	0x3daf7a74	0.08568278
110	0x3ee37ded	0.4443201
111	0xbdf82c1b	-0.121177875
112	0x3e650274	0.22364217
113	0x3e981b23	0.29708204
114	0x3ec23163	0.37928304
115	0xbc106549	-0.008813211
116	0x3e806de4	0.2508384
117	0x3d815a0c	0.06316003
118	0xbea0bed5	-0.31395593
119	0x3e79bc53	0.24388246
120	0xbe525e0e	-0.20543692
121	0xbc232140	-0.009956658
122	0x3e76a0ce	0.2408478
123	0x3e94ad06	0.29038256
124	0xbe76307d	-0.24041934
125	0x3d93f4b6	0.07224409
126	0xbe69544a	-0.2278606
127	0x3dea1418	0.11429614

conv1.att_dst f4 [1, 8, 16]
0	0xbd2cee8c	-0.042219684
1	0x3dec0bf9	0.11525721
2	0xbc711e30	-0.01471667
3	0x3cc4d1e4	0.024025865
4	0xbd19e60d	-0.03757291
5	0xbd3d8b78	-0.046275586
6	0x3dfe3fc0	0.12414503
7	0x3bef5653	0.007303992
8	0x3b7003e8	0.0036623422
9	0xbd79dabc	-0.060999617
10	0x3d57a3ae	0.05264633
11	0xbd0e7b73	-0.0347857
12	0x3c503ff0	0.012710556
13	0xbb23ea05	-0.0025011313
14	0x3d815262	0.063145414
15	0xbd5e9021	-0.05433667
16	0x3dec9f20	0.11553788
17	0xbdfc8188	-0.123293936
18	0xbc836db8	-0.016043529
19	0xba3d36e8	-0.00072179595
20	0x3d17d734	0.037070468
21	0x3d00dd51	0.031461064
22	0x3e0b47c9	0.13601603
23	0x3d88d190	0.06680596
24	0x3d766299	0.060152624
25	0xbd181672	-0.03713078
26	0x3cad4b17	0.02115397
27	0xbdbb2809	-0.091384955
28	0xbdb22240	-0.08697939
29	0x3dd50092	0.104004994
30	0xbe0788e5	-0.13235815
31	0xbe555ab4	-0.20835382
32	0xbcf68817	-0.03009419
33	0xbc376685	-0.011193876
34	0x3d1cd3ba	0.038287856
35	0xbd9f1ec0	-0.07769537
36	0xbbf26b49	-0.0073980433
37	0x3cda4f50	0.026649147
38	0xbd14a742	-0.036292322
39	0x3b5e02e4	0.0033876235
40	0xbbfe4df1	-0.007760756
41	0xbd29f3d9	-0.041492317
42	0xbdb396f8	-0.087690294
43	0x3d27b578	0.040944546
44	0x3cd9a649	0.026568549
45	0x3da0e683	0.078564666
46	0xbd9f95c1	-0.07792235
47	0xbdfd5d7e	-0.12371348
48	0xbb86f52e	-0.004118583
49	0x3d1a8114	0.037720755
50	0x3d725fd2	0.059173413
51	0x3db16741	0.08662272
52	0xbc9d94b0	-0.019235939
53	0xbdddb72d	-0.10825954
54	0x3d46ccb9	0.048535082
55	0x3cf7dcea	0.030256707
56	0xbd407472	-0.04698605
57	0xbb2ec81a	-0.0026669563
58	0x3d584cf1	0.052807752
59	0xbd247dbd	-0.040158976
60	0x3d7fb792	0.062430926
61	0xbdda50a2	-0.10659911
62	0x3d390ff3	0.045181226
63	0xbd696b9a	-0.056987382
64	0x3d12a4eb	0.03580181
65	0xbd0c3ac9	-0.03423575
66	0x3d809bba	0.062797025
67	0x3d1edea6	0.038786553
68	0xbd3590e9	-0.04432765
69	0xba5a7df2	-0.00083348074
70	0x3c07d571	0.0082906345
71	0x3d8ba39a	0.06818314
72	0x3b385c56	0.0028131208
73	0xbcfef9c8	-0.031124964
74	0x3d1b5ac1	0.037928347
75	0x3c59a827	0.01328472
76	0x3b6cf17c	0.0036154678
77	0x3d6d4826	0.057930134
78	0x3bb437db	0.0054998226
79	0x3c831e7c	0.016005747
80	0xbc89985f	-0.016796289
81	0x3cfed4f5	0.031107405
82	0xbd84090a	-0.064470366
83	0x3c8f9f16	0.017531913
84	0xbd16d660	-0.036825538
85	0x3d99b777	0.07505696
86	0x3cca6e2b	0.024710735
87	0x3ce3a607	0.027789129
88	0xbc7ab114	-0.015301008
89	0xbc1c683b	-0.009546335
90	0xbcbb1987	-0.02283932
91	0x3d403c33	0.04693241
92	0xbc9fbbe6	-0.019498777
93	0x3d0e824a	0.034792222
94	0xbb8d73af	-0.004316769
95	0xbcdbe86b	-0.026844224
96	0x3d650c01	0.05591965
97	0x3d39f90f	0.045403536
98	0xbad43141	-0.0016188995
99	0xbd2c9f09	-0.042143855
100	0xbb6e3f2e	-0.0036353576
101	0xbc26b934	-0.010175992
102	0xbc044944	-0.0080741085
103	0xbc041d26	-0.00806359
104	0x3d78071e	0.060553662
105	0xbc0e3d2c	-0.008681577
106	0xbbd43292	-0.006475755
107	0xbcc3efb8	-0.023918018
108	0xbc97bb60	-0.018521965
109	0xbd0c18bb	-0.034203272
110	0xbc97d701	-0.018535139
111	0xbc8d2724	-0.017230578
112	0x3cf10e8d	0.029425884
113	0xbd722d3b	-0.059125166
114	0x3b897808	0.004195217
115	0xbd9433e2	-0.07236458
116	0xbc5a3f59	-0.013320767
117	0x3c54f9a9	0.012998977
118	0xbd290126	-0.04126086
119	0xbbc75f2d	-0.006084344
120	0xbd0d1b03	-0.03444959
121	0x3b60df78	0.0034312885
122	0xbd0981e1	-0.033571128
123	0x3d147d58	0.03625235
124	0xbbc051ff	-0.0058691497
125	0xbca4f1e2	-0.02013487
126	0x3ca56f91	0.0201948
127	0x3c0af166	0.008480405

conv1.bias f4 [128]
0	0x353db4e0	7.0671194e-07
1	0x343db6ae	1.7668455e-07
2	0xb56646ba	-8.57846e-07
3	0x3588670a	1.0162778e-06
4	0x35db2bba	1.6329498e-06
5	0xb5417f75	-7.2083577e-07
6	0xb5468f10	-7.396893e-07
7	0xb5bfbcc5	-1.4285548e-06
8	0x35dd95f0	1.6509421e-06
9	0xb57beec7	-9.3852253e-07
10	0xb5d4d62b	-1.5857562e-06
11	0x357f2030	9.504174e-07
12	0xb3f6eb0f	-1.14980246e-07
13	0x3537e2c2	6.850279e-07
14	0x35ad7546	1.2923635e-06
15	0x34c29db7	3.6250069e-07
16	0xb53c8339	-7.022641e-07
17	0x35963ee9	1.119418e-06
18	0xb559b6d6	-8.110486e-07
19	0x35c68c57	1.4792994e-06
20	0x35dbaf9e	1.6367883e-06
21	0x35c562ea	1.4706432e-06
22	0x35d133c5	1.558678e-06
23	0xb5a56357	-1.232237e-06
24	0x35ab5ae0	1.2766941e-06
25	0xb533a95e	-6.692916e-07
26	0x353cbba8	7.0308533e-07
27	0x354d2225	7.641814e-07
28	0x355caa2c	8.220402e-07
29	0x34a7a749	3.122789e-07
30	0x340ef0a0	1.331232e-07
31	0x35f3649b	1.8134191e-06
32	0x3589d8fb	1.0270445e-06
33	0xb5939bd4	-1.0997705e-06
34	0x3548a1ed	7.474144e-07
35	0x33d66fc3	9.985481e-08
36	0xb5c7bb74	-1.4881211e-06
37	0x35c79098	1.4868738e-06
38	0x3579ec04	9.3103176e-07
39	0xb586b3f6	-1.0036154e-06
40	0xb5b3a3c1	-1.3384198e-06
41	0x35dbadc6	1.6367346e-06
42	0xb5d02f34	-1.5510946e-06
43	0x35b1065c	1.3189378e-06
44	0xb5c22919	-1.4466087e-06
45	0x34f042e9	4.4752167e-07
46	0x35c93f17	1.4994029e-06
47	0x35be7253	1.4189376e-06
48	0x35cbbe3c	1.5180044e-06
49	0xb5e115b2	-1.677012e-06
50	0x3223347e	9.499784e-09
51	0xb5621cd5	-8.4233517e-07
52	0x356cbc09	8.819048e-07
53	0x35d3b409	1.5773122e-06
54	0xb58a0457	-1.0283064e-06
55	0xb5992edc	-1.1413026e-06
56	0x341fd50f	1.4885539e-07
57	0xb5c382a6	-1.4566656e-06
58	0xb4aaea55	-3.1835467e-07
59	0xb58822ec	-1.0142953e-06
60	0x357b21af	9.35538e-07
61	0x358871ca	1.0165907e-06
62	0x35894488	1.0227241e-06
63	0xb5a9e62f	-1.2658473e-06
64	0x35b1e9fe	1.3255628e-06
65	0xb4f009d5	-4.4710637e-07
66	0x34f344ef	4.5312433e-07
67	0x35a34dd3	1.2167096e-06
68	0x34159e52	1.3934303e-07
69	0xb5c04bf5	-1.4327221e-06
70	0xb3e26064	-1.05414784e-07
71	0xb548acda	-7.475734e-07
72	0x35b9b9ed	1.3837686e-06
73	0x35b6ef6b	1.3629736e-06
74	0xb5cd5a9c	-1.5300061e-06
75	0x358e8b59	1.062038e-06
76	0x35c53c0f	1.4695123e-06
77	0xb58e56fa	-1.0605138e-06
78	0xb55927a3	-8.089648e-07
79	0x3416f437	1.4058683e-07
80	0xb4419311	-1.8028028e-07
81	0xb5ce58e9	-1.5374072e-06
82	0xb5adbe3e	-1.2944872e-06
83	0x35c2021d	1.4454741e-06
84	0xb58fba6e	-1.0708588e-06
85	0x35c97b2d	1.5011516e-06
86	0xb5d42fa1	-1.5809093e-06
87	0xb594e24f	-1.1092724e-06
88	0x35c4f887	1.4675469e-06
89	0xb59966fe	-1.1429363e-06
90	0xb58e142e	-1.0585698e-06
91	0x35be6195	1.4184503e-06
92	0xb5878db4	-1.0099525e-06
93	0x35d6311a	1.5958533e-06
94	0x349f9feb	2.9732414e-07
95	0x34c2eb41	3.6306486e-07
96	0x354fc02f	7.7393173e-07
97	0x35d98561	1.6206578e-06
98	0x353e621e	7.0923295e-07
99	0x3571f57b	9.013672e-07
100	0x35d87c99	1.6129517e-06
101	0xb590f630	-1.0800486e-06
102	0x359b04da	1.1549812e-06
103	0x35ce9d2d	1.539394e-06
104	0x358f522a	1.0678243e-06
105	0x35894115	1.0226237e-06
106	0x35b0f535	1.3184386e-06
107	0xb580a754	-9.585442e-07
108	0x3495d7f8	2.791055e-07
109	0x35c6ac6e	1.4802333e-06
110	0xb5dbcab6	-1.6375768e-06
111	0x35b68207	1.35979e-06
112	0xb5d23ebd	-1.5664478e-06
113	0xb56e48fe	-8.8768127e-07
114	0x35cd821a	1.5311555e-06
115	0x34d72808	4.0075997e-07
116	0xb5d42d19	-1.5808356e-06
117	0xb580309a	-9.550888e-07
118	0xb564876d	-8.513369e-07
119	0x35c2911c	1.4496359e-06
120	0xb4e50e2e	-4.266489e-07
121	0xb5873ef5	-1.0076607e-06
122	0xb5c061ea	-1.4333611e-06
123	0xb538095c	-6.855896e-07
124	0xb57fe6d3	-9.5330796e-07
125	0xb5584812	-8.0571147e-07
126	0xb5c3dc89	-1.4592816e-06
127	0xb55219a8	-7.826843e-07

conv1.lin.weight f4 [128, 48]
0	0xbe058972	-0.13040712
1	0x3da4652c	0.080271095
2	0x3da05404	0.07828525
3	0x3ca62dd4	0.020285524
4	0xbcc40395	-0.02392749
5	0xbb2c69fa	-0.0026308284
6	0xbaed3841	-0.001809843
7	0xbd813db2	-0.063105956
8	0xbd94a129	-0.07257301
9	0xbd823ee0	-0.06359649
10	0xbdc4500a	-0.09585579
11	0x3ca429a7	0.020039393
12	0xbceecdc1	-0.029150845
13	0xbe308adb	-0.17240469
14	0x3d8228f0	0.063554645
15	0x3d909041	0.07058764
16	0x3d8c2625	0.06843213
17	0x3bff67ad	0.0077943415
18	0x3d702c87	0.058636215
19	0xbceb9377	-0.02875684
20	0xbd9fee10	-0.07809079
21	0xbce5b188	-0.028038755
22	0x3cbd4439	0.02310382
23	0xbd845185	-0.06460861
24	0x3d995f88	0.07488924
25	0xbd86ee5e	-0.06588434
26	0xbdf5376a	-0.1197346
27	0x3bf2af89	0.0074061793
28	0xbd40fb4b	-0.04711465
29	0x3c1e2d28	0.009654321
30	0xbc256812	-0.010095613
31	0xbbf71d2b	-0.007541319
32	0xbd8aac15	-0.06771103
33	0xbc137cfa	-0.009001965
34	0x3d8738ff	0.06602668
35	0xbd50d392	-0.05098302
36	0xbdb6936b	-0.089148365
37	0xbdce9b0b	-0.10088166
38	0x3e8085b1	0.25101998
39	0x38de6c69	0.00010605978
40	0x3db38406	0.08765416
41	0x3ac7c7f4	0.0015242086
42	0x3dac8b64	0.08425024
43	0x3cf1f869	0.029537397
44	0xbd4c6d8e	-0.049909167
45	0x3d0bfad3	0.03417475
46	0xbc4d09d0	-0.0125145465
47	0x3db99e05	0.09063343
48	0xbe4f7cbb	-0.20262425
49	0x3bc9e99c	0.0061618816
50	0x3c7e303d	0.015514431
51	0xbdbf9bdf	-0.09355902
52	0xbda06975	-0.07832614
53	0x3cfb3ef4	0.030669667
54	0xbd10919e	-0.03529512
55	0xbd5986f6	-0.053107224
56	0xbcf551bc	-0.0299462
57	0xbd5a1b6b	-0.053248804
58	0xbd189045	-0.03724696
59	0xbc9645be	-0.018343803
60	0xbe10ac48	-0.1412822
61	0x3c7f95e2	0.0155997
62	0xbe1a561e	-0.15071914
63	0xbcf0b7d5	-0.029384533
64	0xbd91a554	-0.07111612
65	0xbd8b4ebb	-0.06802126
66	0xbd3989b8	-0.045297354
67	0xbd87344c	-0.06601772
68	0xbc3c610d	-0.011497748
69	0xbd87d08b	-0.06631573
70	0xbd2f921e	-0.042863958
71	0xbd93300f	-0.07186901
72	0xbd857ad6	-0.0651757
73	0xbd82fe17	-0.0639612
74	0xbd9325fe	-0.07184981
75	0x3d02a7fd	0.031898487
76	0x3d7b4098	0.0613409
77	0x3d6e0b75	0.058116395
78	0xbd6d1358	-0.057879776
79	0xbd8a0216	-0.06738679
80	0x3d5300e8	0.051514536
81	0xbd8a2276	-0.06744854
82	0xbd3d4aa9	-0.04621378
83	0xbd50ffd4	-0.051025227
84	0x3cfc89df	0.03082746
85	0x3d08ca51	0.03339607
86	0xbd614770	-0.05499977
87	0xbb2dc4fc	-0.0026515117
88	0xbc8598e9	-0.016308265
89	0xbe14777d	-0.14498706
90	0x3d2afe29	0.041746292
91	0xbd3084f1	-0.043095533
92	0x3c3bad4f	0.011454894
93	0xbd31d4dc	-0.04341589
94	0xbd6cd466	-0.057819746
95	0xbc256ebe	-0.010097204
96	0xbd5c8303	-0.05383588
97	0x3d6e4089	0.058167014
98	0x3e01aa43	0.12662606
99	0xbd8240d9	-0.06360025
100	0xbde21669	-0.11039431
101	0xbe7228e2	-0.23648408
102	0x3d6c636e	0.05771201
103	0x3c744a65	0.014910315
104	0x3db1d3f2	0.086830035
105	0x3d24bb17	0.040217485
106	0xbd4efb3d	-0.05053257
107	0xbd18b05c	-0.037277564
108	0x3d28f3bb	0.041248064
109	0x3d397dcc	0.045285985
110	0xbd7cd96e	-0.061730795
111	0x3ce318de	0.027721819
112	0x3db61889	0.088913985
113	0x3e63bb48	0.22239411
114	0xbc4a1321	-0.012333662
115	0x3d6eefeb	0.058334272
116	0x3d9fcc17	0.07802599
117	0x3d745281	0.059648994
118	0x3d7a5344	0.061114565
119	0x3d325469	0.04353753
120	0xbaccca5c	-0.0015624273
121	0xbd21582f	-0.03939074
122	0xbd870349	-0.065924235
123	0x3dc23ae8	0.09483892
124	0xbda5316b	-0.08066066
125	0x3dad3c1d	0.08458731
126	0x3db0b1e1	0.08627678
127	0x3d615ea6	0.055021904
128	0x3b65b1ca	0.0035048597
129	0x3d4b1b4c	0.04958658
130	0x3d5b6c03	0.053569805
131	0xba2ec17c	-0.00066664047
132	0x3d0b4504	0.034001365
133	0x3d42bfe4	0.047546282
134	0x3d83e01b	0.06439229
135	0xbda3bd3a	-0.079950765
136	0xbcd5572e	-0.026042547
137	0x3e37fd5c	0.17967743
138	0x3c3ddf26	0.011588847
139	0x3c4d5cbf	0.012534319
140	0x3d3b7cd8	0.045773357
141	0x3c23eea8	0.010005631
142	0x3d4bada7	0.049726155
143	0xbd724524	-0.05914797
144	0xbea4afee	-0.32165474
145	0xbc62a06b	-0.013832192
146	0xbdbb5488	-0.091469824
147	0x3d0e104c	0.03468351
148	0x3d812e92	0.06307711
149	0x3d8fa531	0.0701393
150	0xbb7aa79d	-0.0038246878
151	0xbca3f9ed	-0.020016635
152	0xbdc3923a	-0.09549375
153	0xbd007017	-0.031356897
154	0xbd39920e	-0.045305304
155	0x3d227fb4	0.03967257
156	0xbd92b058	-0.07162541
157	0xbcbd1f64	-0.023086257
158	0xbdc5926c	-0.096470684
159	0x3d9226ed	0.07136331
160	0x3c776e6e	0.015102012
161	0x3b0121d4	0.0019704
162	0x3d5dd3e3	0.05415715
163	0xbc5fcb18	-0.013659261
164	0xbdb7eeaa	-0.089810684
165	0xbccaacba	-0.024740566
166	0xbd422cf6	-0.04740616
167	0x3cba3f1f	0.022735177
168	0xbd484a1b	-0.048898797
169	0xbceca641	-0.02888787
170	0xbdae1e2d	-0.08501849
171	0xbd2c8a28	-0.042123944
172	0x3b58cd98	0.0033081528
173	0x3bc6520a	0.0060522603
174	0xbdac6919	-0.08418483
175	0xbd02092c	-0.03174703
176	0xbc8eae0d	-0.017416978
177	0xbc8a16b6	-0.016856533
178	0xbbf63f42	-0.007514865
179	0x3d8b3de0	0.06798911
180	0x3c194c34	0.009356547
181	0xbd93b057	-0.072113685
182	0xbd97c4b8	-0.07410568
183	0x3caa6e3f	0.020804523
184	0xbe0e349e	-0.1388726
185	0xbe0dcb7e	-0.13847157
186	0xbd6535e7	-0.05595961
187	0x3cba817d	0.022766823
188	0xbd5d1f82	-0.053985126
189	0x3cbd9b28	0.023145273
190	0xbbc21028	-0.005922336
191	0x3daa912e	0.08328472
192	0x3e67687a	0.22598448
193	0xbdb38b97	-0.08766859
194	0xbe19411c	-0.14966244
195	0x3d688f66	0.05677738
196	0x3cb345f9	0.021883952
197	0xbb714177	-0.0036812702
198	0xbca40cc6	-0.020025622
199	0x3cf08d37	0.029364211
200	0xbbfbfa63	-0.0076897605
201	0x3cf15b14	0.029462375
202	0x3d762aa2	0.06009925
203	0xbcd88bb2	-0.0264338
204	0x3ccfd710	0.025371104
205	0x3df67d64	0.12035635
206	0x3d3766f7	0.04477593
207	0xbc296c4a	-0.0103407595
208	0xbd221cf5	-0.039578397
209	0x3b2079d2	0.0024486673
210	0xbd13ad0b	-0.0360537
211	0x3c3376af	0.010953589
212	0x3c8b8988	0.017033353
213	0x3c28150a	0.010258922
214	0xbcd2b5f8	-0.025721535
215	0x3d09ad12	0.03361232
216	0xbd03226c	-0.03201525
217	0x3e2b73f1	0.16743447
218	0x3da2abe8	0.07942945
219	0xbda579f5	-0.08079902
220	0xbdac356d	-0.08408628
221	0x3acda515	0.0015689457
222	0xbb4f2d44	-0.0031612674
223	0xbcca7bff	-0.02471733
224	0x3b4c17cd	0.0031142116
225	0xbcbcf8a9	-0.02306779
226	0xbd83636c	-0.064154476
227	0x3d098e5f	0.03358304
228	0x3dde4791	0.10853494
229	0x3e25900b	0.1616823
230	0xbe513290	-0.20429444
231	0xbd97ab3e	-0.07405709
232	0xbd6a4f2f	-0.05720442
233	0x3bf40ae4	0.0074475873
234	0xbd2bd90e	-0.041955046
235	0xbd13b08a	-0.036057033
236	0x3b83f30e	0.004026777
237	0xbd0ddacf	-0.0346325
238	0x3cfc2c5b	0.03078287
239	0xbdab72cd	-0.08371506
240	0x3eb65b8d	0.35616723
241	0xbcba2777	-0.022723896
242	0x3e67588e	0.22592375
243	0xbe048f2f	-0.12945245
244	0x3d3ede9b	0.046599012
245	0x3b8c61d9	0.0042841253
246	0x3d34f9aa	0.04418341
247	0x3ce40199	0.027832793
248	0x3e160b70	0.146528
249	0x3cd5252d	0.026018703
250	0x3d5cc577	0.053899255
251	0xbcd1bd26	-0.025602888
252	0x3e5cd461	0.21565391
253	0x3dafe5e2	0.085887685
254	0x3dca46a7	0.09876757
255	0xbd8a1724	-0.06742695

bn1.weight f4 [128]
0	0x3f42622f	0.75931066
1	0x3ec32464	0.381137
2	0x3e9d0883	0.30670556
3	0x3ecd3d46	0.4008581
4	0x3f661efc	0.8989103
5	0x3fb3a868	1.4035769
6	0x3f3e8131	0.7441588
7	0x3ed1b2c8	0.40956712
8	0x3eb198ff	0.3468704
9	0x3eb109e8	0.3457787
10	0x3ee0ce2f	0.43907306
11	0x3ec79a0f	0.38984725
12	0x3e28f553	0.16499834
13	0x3f19dd44	0.6010325
14	0x3f14db62	0.5814725
15	0x3ece145f	0.40249917
16	0x3eb39c74	0.35080302
17	0x3f04a3ad	0.5181225
18	0x3ee9daac	0.45674646
19	0x3f111e2e	0.56686676
20	0x3f0391cd	0.5139435
21	0x3f11e9e2	0.569975
22	0x3ee36b3d	0.44417754
23	0x3f20a1ee	0.62747085
24	0x3ee2e67f	0.4431648
25	0x3e9ced7b	0.30649933
26	0x3ed21c29	0.4103711
27	0x3f389721	0.72105604
28	0x3f129621	0.5726033
29	0x3f184c9b	0.5949189
30	0x3f7686cb	0.9629943
31	0x3f9a7c83	1.2069248
32	0x3e9e57f2	0.30926472
33	0x3f4dd40a	0.8040167
34	0x3f021df2	0.5082694
35	0x3f65d592	0.8977901
36	0x3ed361a5	0.41285434
37	0x3ed95d47	0.42453977
38	0x3ef30123	0.47461805
39	0x3f0232c9	0.5085874
40	0x3ee589c7	0.44831678
41	0x3e17b520	0.14815187
42	0x3ee61492	0.4493757
43	0x3f322969	0.69594437
44	0x3e9cb7ed	0.30609074
45	0x3ee511be	0.447401
46	0x3ef5c591	0.48002294
47	0x3e3ff511	0.18745829
48	0x3f08cceb	0.5343768
49	0x3ed0160c	0.4064182
50	0x3ed2325c	0.41054046
51	0x3eeb86b0	0.46001196
52	0x3ea73263	0.3265563
53	0x3f476f38	0.7790408
54	0x3ec22f79	0.37926844
55	0x3dfbc7fe	0.12294005
56	0x3ea8d26f	0.32973048
57	0x3f6b7df8	0.9198909
58	0x3ef21d77	0.47288105
59	0x3f68713a	0.9079777
60	0x3eeeeb06	0.46663684
61	0x3f9acedd	1.209438
62	0x3f1033b7	0.5632891
63	0x3f9a2b22	1.2044413
64	0x3ebdf3aa	0.37099963
65	0x3f66e8df	0.90199083
66	0x3f00343d	0.5007971
67	0x3f1846ec	0.5948322
68	0x3f5a6751	0.853139
69	0x3f55d103	0.8352205
70	0x3f0d9091	0.55298716
71	0x3eea6885	0.45782867
72	0x3f36e9d7	0.7145056
73	0x3ef66a5b	0.48128018
74	0x3f1ebb67	0.62004703
75	0x3ec3a529	0.38211945
76	0x3f53d8ae	0.827525
77	0x3f3fd032	0.74927056
78	0x3e6661d9	0.22498263
79	0x3f50636f	0.81401724
80	0x3f02ea9a	0.51139224
81	0x3edab35a	0.4271496
82	0x3f1c9656	0.61166894
83	0x3eb26384	0.3484155
84	0x3f331000	0.6994629
85	0x3f26f3fe	0.6521605
86	0x3e7322f7	0.23743807
87	0x3ebc7c05	0.3681337
88	0x3ef860d8	0.48511386
89	0x3f389195	0.7209714
90	0x3f2e2ea2	0.68039906
91	0x3f22d194	0.6360104
92	0x3efc8df6	0.49327058
93	0x3f769794	0.9632504
94	0x3f934d99	1.1508056
95	0x3ebf0e83	0.3731576
96	0x3f1be9a5	0.6090339
97	0x3ec0308f	0.37537047
98	0x3eb0bd1e	0.34519285
99	0x3f561612	0.83627427
100	0x3ecc196f	0.39863154
101	0x3ead6d6d	0.33872548
102	0x3e4c9e29	0.19982208
103	0x3e823cb4	0.25436938
104	0x3f0b2944	0.5435984
105	0x3ef881fd	0.48536673
106	0x3e7d7310	0.24750924
107	0x3e80f129	0.2518399
108	0x3f97622a	1.1826832
109	0x3ead830e	0.3388905
110	0x3ea24bc0	0.31698418
111	0x3ee58ab6	0.4483239
112	0x3f12a0ae	0.5727643
113	0x3f1caa3e	0.6119727
114	0x3f02cd5d	0.5109461
115	0x3ea17299	0.31532744
116	0x3f1cf6de	0.6131419
117	0x3f0982d4	0.5371525
118	0x3f969f80	1.1767426
119	0x3ed203fe	0.4101867
120	0x3fa1bd30	1.263586
121	0x3edf2b70	0.43587828
122	0x3eb26345	0.34841362
123	0x3eaa07c8	0.33209062
124	0x3ef18874	0.47174418
125	0x3f35c733	0.7100708
126	0x3f06f2b6	0.527141
127	0x3f545558	0.82942724

bn1.bias f4 [128]
0	0xbe1070cc	-0.14105529
1	0x3d927caf	0.07152688
2	0xbd49812a	-0.049195446
3	0x3c145e36	0.009055665
4	0xbe5b5e9d	-0.21422811
5	0xbe991e85	-0.29906097
6	0x3d7be8bd	0.061501253
7	0xbd46336d	-0.048388887
8	0x3d10b620	0.035329938
9	0xbe056165	-0.13025434
10	0x3b643e19	0.0034827052
11	0xbda78a23	-0.08180644
12	0xbd28ce85	-0.041212577
13	0xbd631c3d	-0.055446852
14	0xbe4c472e	-0.19949028
15	0xbd5bdac4	-0.053675428
16	0x3dc6fdec	0.097164005
17	0xbe44de40	-0.19225407
18	0xbdb978ea	-0.09056266
19	0xbda6a475	-0.081368364
20	0x3e1e0295	0.15430672
21	0x3e1407b2	0.1445606
22	0xbd4f1640	-0.05055833
23	0xbe49c97e	-0.1970577
24	0x3afaba63	0.0019129034
25	0xbd9938bf	-0.074815266
26	0x3dcc5465	0.099770345
27	0xbe45fe7c	-0.1933536
28	0x3de10717	0.109876804
29	0xbd211fb6	-0.039336883
30	0xbe389e0a	-0.18029037
31	0xbe7a34fb	-0.24434273
32	0xbd89ae39	-0.067226835
33	0xbdfaf081	-0.12252904
34	0x3be873e9	0.0070938957
35	0xbe438f34	-0.19097596
36	0xbc340e6b	-0.010989766
37	0x3d8e5020	0.069488764
38	0xbd2dcd46	-0.042432092
39	0xbb7ad358	-0.0038272943
40	0xbdc3863e	-0.09547089
41	0x3d6939cf	0.056939896
42	0xbdac1391	-0.084021695
43	0x3cfcf05d	0.030876333
44	0x3ca11bc2	0.019666556
45	0xbd5181d9	-0.051149223
46	0xbda0c95c	-0.07850906
47	0xbd4a66ee	-0.049414568
48	0xbc38851f	-0.011262207
49	0xbd04e261	-0.032442454
50	0x3ccdf547	0.025141371
51	0x3d17d349	0.03706673
52	0x3c354edb	0.011066164
53	0xbdc3c0ed	-0.09558282
54	0x3cacc49f	0.02108985
55	0x3b3b8f5e	0.002861939
56	0x3d04aed3	0.032393288
57	0xbe5f59e5	-0.21811636
58	0xbdfb5b39	-0.12273259
59	0xbe1c906c	-0.15289468
60	0xbd9c5f7a	-0.07635398
61	0xbe88cca1	-0.2671862
62	0xbdeea48d	-0.11652479
63	0xbe7b9e47	-0.24572097
64	0xbd8a9492	-0.06766619
65	0xbe338e09	-0.17534651
66	0x3da91a5e	0.08256982
67	0x3cb4c3eb	0.022066077
68	0xbe7cc5af	-0.24684785
69	0xbde1a54c	-0.11017856
70	0xbd87f89a	-0.06639214
71	0xbe1b2e29	-0.15154327
72	0xbde79807	-0.11308294
73	0x3df8f309	0.1215573
74	0x3d8a8b74	0.0676488
75	0x3da4377e	0.08018397
76	0xbe5c5624	-0.21517235
77	0x3e2bdc3d	0.16783233
78	0xbdc45e3a	-0.09588285
79	0xbe1eb7c1	-0.15499784
80	0xbcfd4338	-0.030915841
81	0xbe3a97e0	-0.18221998
82	0xbd4af05d	-0.049545635
83	0xbd2a2a85	-0.041544456
84	0xbe0cb307	-0.13740169
85	0x3df60595	0.120127834
86	0x3d738f88	0.059463054
87	0xbc9f9ce4	-0.019483991
88	0xbbe25333	-0.006906891
89	0xbe746686	-0.23867235
90	0xbe01241b	-0.1261143
91	0xbdf82fc8	-0.121184886
92	0xbd83cb0d	-0.06435213
93	0xbe444935	-0.19168551
94	0xbe5a19e2	-0.21298936
95	0xbdec7861	-0.11546398
96	0xbe0ebfe0	-0.13940382
97	0xbd2133cc	-0.039356038
98	0x3d39b2cd	0.045336533
99	0xbe25eff6	-0.16204819
100	0xbc87067c	-0.016482584
101	0x3d67ea49	0.056619916
102	0x3d17ba7a	0.037043072
103	0xbdabfb90	-0.08397591
104	0x3dedccec	0.11611351
105	0xbdcd088b	-0.10011395
106	0xbdbdf099	-0.09274406
107	0x3da3671d	0.07978652
108	0xbe8ec8ae	-0.2788748
109	0x3ce06e9b	0.02739649
110	0x3b7007f3	0.0036625832
111	0xbd9f1d80	-0.077692986
112	0xbe0ce750	-0.13760114
113	0xbe211b5a	-0.1573309
114	0x3e0af1cd	0.13568802
115	0x3d50bfbc	0.050964102
116	0xbe859c3b	-0.26095757
117	0xbe417052	-0.18890503
118	0xbe83385a	-0.2562893
119	0x3e294f11	0.16534068
120	0xbea527c5	-0.32256904
121	0x3dfc8d20	0.12331605
122	0xbceb87b0	-0.028751224
123	0x3e7a4b6a	0.2444283
124	0xbe5d355f	-0.2160239
125	0xbe48c8f3	-0.19607906
126	0xbc699176	-0.014255872
127	0xbe57f3be	-0.21089074

bn1.running_mean f4 [128]
0	0x40382c3e	2.8777003
1	0x41e8e0d1	29.109774
2	0xc1ac5a48	-21.544083
3	0x42196871	38.351994
4	0xc0aa3f35	-5.3202157
5	0xc23d97b4	-47.398148
6	0x4106d1db	8.426234
7	0x40edc90e	7.430793
8	0xc15a13ed	-13.629865
9	0xc1643f5c	-14.265469
10	0xc192626b	-18.298056
11	0x3f5c3c33	0.86029357
12	0xc150fadc	-13.061245
13	0xc1acc61f	-21.596739
14	0xc06b9bbb	-3.68138
15	0xc2443f0d	-49.061573
16	0x4151011e	13.062773
17	0x408a058b	4.3131766
18	0x40928fc6	4.5800505
19	0x41448967	12.2835455
20	0x42118414	36.378983
21	0x40cfaa67	6.489551
22	0x41dfea0a	27.989277
23	0xc0760aa2	-3.844399
24	0xc0b7e2b9	-5.746426
25	0x41402ff2	12.011705
26	0x414f1386	12.942266
27	0xc11861ea	-9.523905
28	0xc09ebeaf	-4.960777
29	0x3fc80ce3	1.5628933
30	0xc1a8e8f8	-21.113754
31	0xc22e7e90	-43.623596
32	0xc199e3c9	-19.236223
33	0xc1c79ebc	-24.952507
34	0xc20b6e78	-34.85788
35	0xc219cb5d	-38.448597
36	0x4231d616	44.45907
37	0x423bb122	46.92298
38	0xc152a490	-13.165176
39	0xc2095b49	-34.339146
40	0x3efb5492	0.4908796
41	0x41bcc2dd	23.595148
42	0xc249c4c2	-50.442146
43	0x4093f6de	4.623885
44	0x405e6063	3.474633
45	0xc1315167	-11.082374
46	0xc08a207a	-4.3164644
47	0xc105876e	-8.345564
48	0xc248132d	-50.018726
49	0xc1936a17	-18.426802
50	0x4080d7ff	4.0263667
51	0x4246f373	49.737743
52	0x413f5687	11.958625
53	0xc0c14473	-6.0396056
54	0x403243f8	2.7853985
55	0x4174ba85	15.295537
56	0xc104ce12	-8.30031
57	0xbfef104c	-1.8676848
58	0x42044827	33.07046
59	0x3e68630b	0.22694032
60	0xc05c9da9	-3.4471228
61	0xc231cf37	-44.45236
62	0x418c5e33	17.545996
63	0xc25dfeea	-55.49894
64	0xc2065621	-33.58411
65	0xc0d426d6	-6.6297407
66	0x41c9c538	25.221298
67	0xc10ea9cd	-8.916455
68	0x3fc83865	1.564221
69	0xc1483892	-12.513811
70	0xc211003e	-36.250237
71	0x41fcf0e5	31.617624
72	0xc2024a59	-32.572605
73	0x42490c41	50.261967
74	0x410ba2aa	8.727213
75	0x42168a65	37.63515
76	0x409db729	4.9286084
77	0x41f3fa4e	30.49722
78	0x41c283c9	24.314348
79	0xc1efe584	-29.987068
80	0xc23d6a68	-47.353912
81	0xc003b763	-2.058068
82	0x40c53e54	6.1638584
83	0x421e776d	39.616627
84	0xc138a3fb	-11.540034
85	0x412a4520	10.641876
86	0x42124da1	36.57581
87	0x4205f2e8	33.487213
88	0xc1a0c955	-20.098307
89	0x403c6e2d	2.9442246
90	0xc25520b6	-53.281944
91	0xc05dcbee	-3.4655719
92	0xc11ece14	-9.925312
93	0xc22d3c0b	-43.308636
94	0xc26a6ae4	-58.604385
95	0x4138a70a	11.540781
96	0xc109b2c1	-8.606141
97	0x4142bc39	12.170953
98	0x3e1a6a63	0.15079646
99	0xc14f7a27	-12.967322
100	0x41de630a	27.798359
101	0x42262873	41.5395
102	0x418b32d4	17.399818
103	0x41e26d0a	28.303242
104	0x423e3a78	47.5571
105	0xc0e42c5a	-7.130414
106	0x428deee6	70.9666
107	0x4206d14e	33.7044
108	0xc2870d01	-67.5254
109	0x413311ba	11.191828
110	0x4298f8a9	76.485664
111	0xc215479b	-37.319927
112	0x415b8b29	13.721475
113	0x3f88c86d	1.0686165
114	0x423641fa	45.56443
115	0xc18c0733	-17.503515
116	0xbfeb8c2f	-1.8402156
117	0x41a9a3d8	21.205002
118	0xc25e1ad3	-55.526196
119	0x421031e6	36.04873
120	0xc26910f9	-58.266575
121	0xbfcbfb4f	-1.5936068
122	0x41ea8a7b	29.317617
123	0x422d9a63	43.40077
124	0xc19069f7	-18.05174
125	0xc00e6979	-2.2251875
126	0xc1cdbd4e	-25.717434
127	0xc020136e	-2.501186

bn1.running_var f4 [128]
0	0x46280a5f	10754.593
1	0x47396dea	47469.914
2	0x47558774	54663.453
3	0x471db4b0	40372.688
4	0x45fe8aa7	8145.3315
5	0x474b864f	52102.31
6	0x4649f6eb	12925.7295
7	0x466c6b99	15130.899
8	0x46ecd56d	30314.713
9	0x4641f112	12412.268
10	0x46bb9791	24011.783
11	0x45c94623	6440.767
12	0x462e5ec6	11159.693
13	0x47467cd8	50812.844
14	0x463233fc	11404.996
15	0x479607dc	76815.72
16	0x4633435e	11472.842
17	0x46741348	15620.82
18	0x4622f306	10428.756
19	0x46409b79	12326.868
20	0x477406e2	62470.883
21	0x459e18e6	5059.1123
22	0x4706a433	34468.2
23	0x45a321d9	5220.231
24	0x46edb476	30426.23
25	0x471ac022	39616.133
26	0x45f8387e	7943.0615
27	0x45b69f8d	5843.944
28	0x461128ae	9290.17
29	0x45db6d15	7021.6353
30	0x46993294	19609.29
31	0x471e8fc3	40591.76
32	0x46b24dda	22822.926
33	0x46daf854	28028.164
34	0x482aaf54	174781.31
35	0x46fc81ec	32320.96
36	0x480227f2	133279.78
37	0x4756ca06	54986.023
38	0x46315e10	11351.516
39	0x47c1a452	99144.64
40	0x4683a439	16850.111
41	0x47c07c05	98552.04
42	0x479746e0	77453.75
43	0x46d74ee3	27559.443
44	0x466328c6	14538.193
45	0x47501bc3	53275.76
46	0x46520740	13441.8125
47	0x46be76d0	24379.406
48	0x47c0149e	98345.234
49	0x472a342a	43572.164
50	0x46aaa1f7	21840.982
51	0x47b0735a	90342.7
52	0x47aba830	87888.375
53	0x469d8264	20161.195
54	0x45b4025a	5760.294
55	0x46d3184f	27020.154
56	0x4755cd48	54733.28
57	0x46074a23	8658.534
58	0x47056ed5	34158.832
59	0x4605502f	8532.046
60	0x45b164fc	5676.623
61	0x4725759d	42357.613
62	0x46758f83	15715.878
63	0x4791d430	74664.375
64	0x47a9458e	86667.11
65	0x45dd499b	7081.2007
66	0x46c8ec0b	25718.021
67	0x47ab164e	87596.61
68	0x4634b41d	11565.028
69	0x4676ee83	15803.628
70	0x474393d9	50067.848
71	0x47622ddf	57901.87
72	0x4717fee2	38910.883
73	0x4796d51c	77226.22
74	0x45b7be2e	5879.7725
75	0x47502f39	53295.223
76	0x4646a471	12713.11
77	0x46c8e219	25713.049
78	0x47146768	37991.406
79	0x46b8d99a	23660.8
80	0x478524aa	68169.33
81	0x45b05df4	5643.744
82	0x468c46de	17955.434
83	0x475b419c	56129.61
84	0x4611a7e8	9321.977
85	0x4699b329	19673.58
86	0x478dca3d	72596.48
87	0x46e23f5f	28959.686
88	0x46a2df42	20847.629
89	0x465e5524	14229.285
90	0x4794f814	76272.16
91	0x464e2686	13193.631
92	0x46a4ad7e	21078.746
93	0x474ba8a3	52136.637
94	0x47a3c631	83852.38
95	0x46c1511f	24744.56
96	0x460aae3b	8875.558
97	0x46958771	19139.72
98	0x45899e32	4403.7744
99	0x46542e4c	13579.574
100	0x46ef8c08	30662.016
101	0x47b2510f	91298.12
102	0x472f4d4e	44877.305
103	0x46ea4dd7	29990.92
104	0x47892d4d	70234.6
105	0x45f4cc29	7833.52
106	0x47f21e41	123964.51
107	0x476e386a	60984.414
108	0x4794695e	75986.734
109	0x46cfefa9	26615.83
110	0x4806ec47	138161.11
111	0x479dac50	80728.625
112	0x46c14e75	24743.229
113	0x4701b538	33205.22
114	0x4791f873	74736.9
115	0x46957bdf	19133.936
116	0x4616087a	9602.119
117	0x4680cda3	16486.818
118	0x47541bcc	54299.797
119	0x4713f3d1	37875.816
120	0x47611191	57617.566
121	0x461ae3fb	9912.995
122	0x46d789d2	27588.91
123	0x47314fd3	45391.824
124	0x4680683c	16436.117
125	0x46b7a5aa	23506.832
126	0x471125db	37157.855
127	0x45f18f95	7729.9478

conv2.att_src f4 [1, 8, 32]
0	0x3e3eac8d	0.1862051
1	0x3dde43dc	0.10852787
2	0x3eba39d7	0.36372253
3	0xbd9b3ec6	-0.075803325
4	0x3e17902d	0.14801092
5	0x3ebbc7b6	0.36675805
6	0xbdb27607	-0.08713918
7	0x3d0102b9	0.031496737
8	0xbe92b8a8	-0.28656507
9	0xbdefc0ee	-0.1170672
10	0x3ea7b685	0.3275644
11	0x3c091867	0.008367634
12	0x3de11591	0.109904416
13	0x3d835094	0.064118534
14	0x3d771b9d	0.06032907
15	0xbe09233c	-0.13392347
16	0x3d494b36	0.049143992
17	0x3e3fb615	0.18721803
18	0x3ef497ae	0.47771972
19	0x3e75931d	0.239819
20	0x3e947c13	0.2900091
21	0xbe0add82	-0.13561061
22	0x3eae8280	0.3408394
23	0xbedb4700	-0.42827606
24	0x3dc30a88	0.09523493
25	0x3cb9ad0c	0.022665523
26	0xbca7b885	-0.020473728
27	0x3d41fb14	0.047358587
28	0xbddf4a91	-0.10902894
29	0x3cf41749	0.02979626
30	0xbe4579cd	-0.19284745
31	0xbeb73a64	-0.35786736
32	0xbdc62490	-0.096749425
33	0x3e8298bd	0.25507155
34	0x3e60a741	0.21938802
35	0x3db91d5d	0.09038804
36	0x3e610862	0.21975854
37	0xbe94d022	-0.29065043
38	0x3e271670	0.16317153
39	0x3e6a5b74	0.22886449
40	0xbee9b5da	-0.45646554
41	0xbd825b2b	-0.06365045
42	0x3d8fef77	0.07028096
43	0x3ed7427f	0.4204292
44	0x3e6e880e	0.23294088
45	0x3eb1cdcc	0.34727323
46	0xbe2351e0	-0.15949202
47	0x3dcc726a	0.0998276
48	0xbe000f10	-0.12505746
49	0xbf1a51ab	-0.60280865
50	0x3dd2b219	0.10287876
51	0x3e5fc396	0.21851954
52	0xbd17454b	-0.036931317
53	0x3ec2aa77	0.3802068
54	0x3ed67ec8	0.418936
55	0xbe00ab22	-0.12565282
56	0xbd8c5b05	-0.06853298
57	0x3bec8881	0.007218421
58	0xbe8eab1e	-0.27864927
59	0x3e5855cb	0.21126477
60	0xbf599555	-0.8499349
61	0xbe5e45a6	-0.21706256
62	0x3ced39b1	0.028958173
63	0xbf34c0d6	-0.70606744
64	0x3eece44d	0.4626793
65	0xbe19b684	-0.1501103
66	0x3c3b8d94	0.011447329
67	0x3e5f9d4f	0.21837352
68	0xbcfe64e6	-0.031053971
69	0xbeb243e0	-0.3481741
70	0xbe07daf3	-0.13267116
71	0x3f3e0128	0.74220514
72	0x3c0686ef	0.008210882
73	0x3b96db4a	0.004603778
74	0xbe926812	-0.28595024
75	0x3d4e4b32	0.05036468
76	0x3e5d8866	0.21634063
77	0xbdc3e139	-0.09564442
78	0x3da75271	0.08170021
79	0x3ea66e0e	0.3250584
80	0x3e409667	0.18807374
81	0x3f19d40f	0.600892
82	0x3de4ab3e	0.11165474
83	0x3dd82feb	0.105560146
84	0x3d6a57fa	0.057212807
85	0x3eab9282	0.33510214
86	0xbe0d0add	-0.13773675
87	0x3c081934	0.00830679
88	0x3ce93b3b	0.028470626
89	0x3f1ec3fd	0.62017804
90	0xbf1dfecf	-0.6171693
91	0x3f307bdb	0.6893899
92	0xbe360062	-0.17773584
93	0xbd25d78c	-0.040488765
94	0x39b0cae6	0.00033720507
95	0x3edb2b02	0.4280625
96	0x3e5df283	0.21674542
97	0xbe043469	-0.12910618
98	0x3e17b924	0.1481672
99	0x3e2adbf7	0.16685472
100	0xbd740a19	-0.059579942
101	0xbe01882b	-0.126496
102	0xbd74b2c4	-0.059740797
103	0xbea63ad0	-0.32466745
104	0xbe4f2788	-0.20229924
105	0xbe58127e	-0.21100804
106	0xbc74a2ca	-0.01493139
107	0x3e9ba812	0.30401665
108	0x3e8f4288	0.27980447
109	0x3d90907f	0.070588104
110	0x3e29782c	0.16549748
111	0x3dbf6c37	0.09346812
112	0xbe5d40eb	-0.21606795
113	0x3e062537	0.13100134
114	0x3ebeac81	0.37240985
115	0x3d29b349	0.041430745
116	0x3dc27af3	0.09496107
117	0xbd7be162	-0.06149424
118	0x3e9b5379	0.30337122
119	0x3dd35d51	0.10320533
120	0x3db9c6bb	0.09071108
121	0xbe47762e	-0.19478676
122	0x3cdbf79c	0.026851468
123	0x3c3f1607	0.011662967
124	0xbe63c2a7	-0.22242223
125	0x3e326e51	0.17424895
126	0xbe9bfd98	-0.30466914
127	0x3c6208b3	0.013796019
128	0x3df2d3c2	0.11856796
129	0xbf194ab0	-0.5987959
130	0x3e67d7d4	0.22640926
131	0xbe087b14	-0.133282
132	0xbf228f7c	-0.6350019
133	0x3eb68b6c	0.35653245
134	0x3dd6253f	0.10456323
135	0x3d4929d1	0.049112145
136	0x3ef70113	0.48243007
137	0xbe0654a8	-0.13118231
138	0x3ee5eb31	0.44906
139	0x3cf95e8b	0.03044059
140	0xbdb06d23	-0.08614566
141	0x3d6ef119	0.058335397
142	0x3e4fbbdf	0.20286511
143	0x3c261b18	0.010138296
144	0x3ed45d07	0.41477224
145	0xbeaba441	-0.33523753
146	0xbc9e56c0	-0.019328475
147	0x3e199c92	0.15001133
148	0x3d5fe459	0.05466113
149	0x3e2e145f	0.16999958
150	0xbc7ebb39	-0.015547567
151	0x3d334ee2	0.0437764
152	0x3df1a7a4	0.11799553
153	0x3d85dc7f	0.06536197
154	0x3ef2ef31	0.47448114
155	0xbdd65208	-0.10464865
156	0x3efc28e9	0.49249962
157	0x3e7dab41	0.2477236
158	0xbec8bd03	-0.39206704
159	0x3ecc02bc	0.39845836
160	0xbcb3175c	-0.021861725
161	0xbd904209	-0.07043845
162	0x3d951c33	0.07280769
163	0xbdb7b52e	-0.08970104
164	0x3d8cc832	0.06874122
165	0x3ce8699a	0.028370667
166	0x3cf9d372	0.030496333
167	0xbd1e6f86	-0.038680576
168	0x3d61357e	0.054982655
169	0x3d1cda70	0.038294256
170	0x3d6dc2bb	0.058047038
171	0xbc7445f1	-0.014909253
172	0xbc960c79	-0.018316494
173	0x3e03d0dc	0.12872642
174	0x3cbe6b2d	0.023244465
175	0x3d609315	0.05482777
176	0xbd935b97	-0.07195204
177	0x3d6bef15	0.057601053
178	0xbaf18bcf	-0.0018428507
179	0xbd7ce6bf	-0.061743494
180	0x3dc9d9fd	0.09856031
181	0xbdc79497	-0.09745138
182	0x3e298058	0.16552866
183	0xbcd85bd1	-0.026410969
184	0xbb2a44ed	-0.0025981024
185	0x3de425c7	0.11140018
186	0xbc9d3d3b	-0.019194236
187	0xbd4ff79a	-0.05077324
188	0xbd4f2424	-0.050571576
189	0xbc28b151	-0.010296182
190	0xbd632ec8	-0.055464536
191	0x3cbef223	0.02330882
192	0xbe01cae9	-0.1267506
193	0xbd2ed6eb	-0.04268543
194	0xba612d5a	-0.0008589827
195	0x3d3c8152	0.046021767
196	0x3d8b6a6d	0.068074085
197	0x3cb52fa8	0.02211745
198	0xbd413809	-0.04717258
199	0x3d5877a0	0.05284846
200	0x3c79608b	0.015220772
201	0xbcb83c49	-0.022489684
202	0x3dab1241	0.08353091
203	0xbcee7bdd	-0.029111797
204	0xbd714007	-0.05889895
205	0xbd02e3be	-0.031955473
206	0xbd37e34f	-0.044894513
207	0x3d187bdd	0.0372275
208	0xbde4f198	-0.11178893
209	0xbdbd00e6	-0.09228687
210	0xbc9f51e9	-0.019448237
211	0xbd0796c9	-0.033102784
212	0xbd05cd66	-0.032666586
213	0xbd491a26	-0.049097203
214	0xbd1b0844	-0.03784968
215	0xbccd8da7	-0.02509196
216	0x3d1c0917	0.038094606
217	0x3cc50da9	0.024054365
218	0x3af098ab	0.0018356045
219	0x3dee0e9e	0.11623882
220	0x3d04f3da	0.032459117
221	0xbdc9eca6	-0.0985959
222	0xbce1c1e0	-0.027558267
223	0xbb955342	-0.0045570442
224	0x3e1ec08e	0.15503141
225	0xbf35f199	-0.71071774
226	0x3dc22e7b	0.09481522
227	0x3dbd93e4	0.092567235
228	0x3d48f94f	0.049065884
229	0x3e2388ff	0.15970229
230	0x3d0c6ddb	0.034284454
231	0xbe7eab04	-0.24869925
232	0xbdddc231	-0.10828055
233	0xbde23fdf	-0.11047339
234	0xbceceaa3	-0.028920477
235	0xbbf48fa1	-0.007463411
236	0x3f186d7f	0.5954208
237	0x3ea3e19d	0.32008067
238	0x3ccc5c9d	0.024946505
239	0xbd4b8840	-0.049690485
240	0x3d8611df	0.065463774
241	0x3e2a7ba2	0.16648725
242	0xbdd4cf8e	-0.103911504
243	0x3e4de8a3	0.20108275
244	0x3e783f5b	0.24242918
245	0x3cce490d	0.025181318
246	0x3d37bbcd	0.044856835
247	0x3c82dbf0	0.015974015
248	0xbd10d3c0	-0.03535819
249	0x3de201e1	0.110355146
250	0x3eb16057	0.34643814
251	0x3f1835f6	0.5945734
252	0x3ee9086e	0.45514244
253	0x3d35ff7d	0.044433106
254	0xbdda3b37	-0.106558256
255	0xbe1cd39e	-0.153151

conv2.att_dst f4 [1, 8, 32]
0	0xbe5bc25e	-0.21460864
1	0xbdcb7b2d	-0.09935603
2	0xbeb24989	-0.34821728
3	0x3d1aadc2	0.037763365
4	0xbdf40513	-0.1191503
5	0xbeb52537	-0.35379955
6	0x3dc01719	0.093794055
7	0xbd6de6cc	-0.058081433
8	0x3e9b3a6f	0.3031802
9	0x3de46cc0	0.11153555
10	0xbe8e6b59	-0.27816275
11	0xbc54ee22	-0.012996228
12	0xbdfa6db2	-0.12227954
13	0x3d2234be	0.03960108
14	0xbdc497cc	-0.095992655
15	0x3e0eb6a1	0.13936855
16	0xbc72378e	-0.014783753
17	0xbdbcffa3	-0.09228446
18	0xbecf8d28	-0.4053738
19	0xbe8d306b	-0.27576002
20	0xbe97bef5	-0.29637876
21	0x3e25b574	0.161825
22	0xbeb1e29a	-0.34743196
23	0x3eacd5e8	0.33756948
24	0xbd664c71	-0.056225244
25	0x3d20db75	0.03927179
26	0x3d3a176b	0.04543249
27	0x3d455c57	0.048183765
28	0x3dfd028c	0.123540014
29	0x3d6fb283	0.05851985
30	0x3db295f6	0.08720009
31	0x3eaf3772	0.3422199
32	0x3d80c4a6	0.06287508
33	0xbd8d27c9	-0.06892354
34	0xbe13b5d7	-0.14424835
35	0xbd346f71	-0.04405159
36	0xbe1f099d	-0.15531011
37	0x3e17823e	0.14795777
38	0xbe4e600b	-0.20153825
39	0xbd4bc868	-0.04975167
40	0x3dc0333b	0.093847714
41	0xbe0173a9	-0.12641777
42	0x3cc40572	0.023928378
43	0xbdb39459	-0.087685294
44	0xbe27b88e	-0.16378996
45	0xbe05bd22	-0.1306043
46	0xbcfac7d1	-0.030612858
47	0xbdfca47d	-0.12336061
48	0xbcdf0da8	-0.027228191
49	0x3e0996db	0.13436453
50	0xbde68215	-0.1125528
51	0xbdf592a8	-0.11990863
52	0x3cc49a0d	0.023999238
53	0xbd257715	-0.04039677
54	0xbdfc1c7e	-0.12310122
55	0xbc78d7b8	-0.01518815
56	0x3da35e26	0.07976942
57	0xbcfa5fb1	-0.030563207
58	0x3ddb7c83	0.10717108
59	0xbb568792	-0.0032734615
60	0x3e14dad9	0.14536609
61	0x3dc7e9aa	0.09761365
62	0xbc449c24	-0.012000117
63	0x3e03029d	0.12793966
64	0xbe5b2496	-0.21400675
65	0x3c833726	0.016017508
66	0xbd718718	-0.058966726
67	0xbe1476f2	-0.14498499
68	0xbb9d4217	-0.0047991383
69	0x3e3a2035	0.18176349
70	0x3d9ab20c	0.07553491
71	0xbe00b4c6	-0.1256896
72	0xbe0c5b73	-0.1370676
73	0x3bc36598	0.0059630387
74	0x3d75b73a	0.05998919
75	0xbc7a64eb	-0.01528285
76	0xbd250751	-0.04029018
77	0x3c741048	0.01489646
78	0xbdba8e33	-0.091091536
79	0xbe46d572	-0.1941736
80	0x3cd474c3	0.025934583
81	0xbd5d5898	-0.054039568
82	0xbe00ef4a	-0.12591282
83	0xbc1b98aa	-0.009496847
84	0xbdf5ee2c	-0.12008318
85	0xbd503b48	-0.050837785
86	0x3d85ebf6	0.065391466
87	0xbb5157b7	-0.0031943151
88	0xbcf4fc73	-0.029905533
89	0xbd99ec83	-0.07515814
90	0x3e273e22	0.16332296
91	0xbd86b4df	-0.06577467
92	0x3c6fca6b	0.014635663
93	0x3d10945d	0.03529774
94	0xbbab741d	-0.0052323476
95	0xbe30c19d	-0.17261358
96	0xbe127b92	-0.14304951
97	0x3e12460a	0.1428453
98	0xbe0dad9d	-0.1383576
99	0xbda6cc99	-0.08144493
100	0x3dd5a10c	0.10431108
101	0x3c4fc9a7	0.012682355
102	0x3d87ff77	0.06640523
103	0x3e99520c	0.2994541
104	0x3e60f12a	0.21966997
105	0x3e61f427	0.22065793
106	0x3c4e32a3	0.012585315
107	0xbe7375b1	-0.23775364
108	0xbe817076	-0.25281113
109	0xbc0edacc	-0.008719157
110	0xbe26a971	-0.16275574
111	0xbe089a1c	-0.13340038
112	0x3e48ee31	0.19622113
113	0xbda9f796	-0.082991764
114	0xbeba8f11	-0.36437276
115	0x3bf477ea	0.007460584
116	0xbe5922bd	-0.21204658
117	0x3dcceae5	0.1000574
118	0xbe8915e5	-0.26774517
119	0xbdd86506	-0.10566144
120	0xbdea7f31	-0.11450041
121	0x3e44d046	0.19220075
122	0x3ca9eacf	0.020741848
123	0xbd59a03f	-0.05313134
124	0x3e576917	0.21036182
125	0xbe36d300	-0.17853928
126	0x3e9ff49f	0.3124132
127	0x3d12c976	0.03583666
128	0x3d56996c	0.05239241
129	0x3e4e28d9	0.2013277
130	0xbe507972	-0.20358828
131	0xbc21bfa8	-0.009872355
132	0x3dda725c	0.106663436
133	0xbe65cdf2	-0.22441843
134	0xbe241971	-0.1602533
135	0xbd6393a3	-0.05556072
136	0xbd909980	-0.07060528
137	0x3de65f1d	0.1124861
138	0xbe21ac40	-0.15788364
139	0xbd16bab9	-0.036799166
140	0x3ccc0a15	0.024907151
141	0x3c6e9331	0.01456146
142	0xbe07d2fe	-0.13264081
143	0x3c671e1d	0.014106301
144	0xbdef56aa	-0.11686452
145	0x3e4ed7af	0.20199464
146	0xbc7c2415	-0.015389462
147	0xbd64b55a	-0.055837013
148	0xbc6243bd	-0.013810095
149	0xbe1687f3	-0.14700298
150	0x3dbf7f80	0.093504906
151	0xbadc23b7	-0.0016795312
152	0xbe28a965	-0.16470869
153	0xbd6b587c	-0.057457432
154	0xbd689147	-0.056779172
155	0xbd3112c1	-0.043230776
156	0xbd617927	-0.05504718
157	0xbe4ef044	-0.20208842
158	0x3dcb12bf	0.09915685
159	0xbe5681f7	-0.20948015
160	0xbd266116	-0.040619932
161	0x3d928627	0.07154494
162	0x3c9026eb	0.017596683
163	0x3c0c0ba9	0.008547702
164	0xbc018d2c	-0.007907193
165	0xbd188363	-0.037234675
166	0xbd58b503	-0.052907
167	0x3d1b99b1	0.03798837
168	0xbd3f2b24	-0.046672
169	0xbcd03449	-0.025415557
170	0xbcaf7b2c	-0.021421038
171	0xbc36b755	-0.011152108
172	0xbbbb2341	-0.0057109897
173	0xbcad5645	-0.0211593
174	0x3a863e24	0.0010241908
175	0xbd0b1e3c	-0.03396438
176	0x3cc6983c	0.024242513
177	0xbd211d3d	-0.039334524
178	0xbcc53064	-0.024070926
179	0x3d7abdd7	0.0612162
180	0xbd38501e	-0.04499828
181	0x3da4c4c8	0.080453455
182	0xbd62916b	-0.055314463
183	0x3d117b18	0.035517782
184	0x3d349355	0.04408582
185	0xbde0b91c	-0.10972807
186	0x3bea5283	0.0071509494
187	0x3d3dc3e6	0.0463294
188	0xbd16874c	-0.036750123
189	0x3c3db334	0.01157837
190	0xbc4695cd	-0.012120676
191	0xbaccd3ae	-0.001562705
192	0x3d9e0070	0.07714927
193	0x3d14ebd9	0.036357734
194	0x3d3676b0	0.044546783
195	0xbc29890d	-0.010347617
196	0xbd2d5643	-0.042318594
197	0xbc4bbd7b	-0.012435312
198	0x3d53cce4	0.05170907
199	0xbcca2677	-0.024676545
200	0xbd538d4f	-0.051648434
201	0x3ae5c956	0.0017531316
202	0xbdbb7833	-0.091537856
203	0xbd036eb3	-0.032087993
204	0xbb939229	-0.0045035076
205	0x3c4486e7	0.011995054
206	0x3d6a952d	0.05727117
207	0xbd51a5a4	-0.051183358
208	0x3d423eec	0.04742329
209	0x3d8df29d	0.069310404
210	0x3cc2531f	0.023721276
211	0x3d81294f	0.06306707
212	0xbc451dff	-0.012031077
213	0x3d8707a1	0.06593252
214	0x3d61b8e8	0.05510798
215	0x3cd8ffa2	0.026489083
216	0xbd032734	-0.03201981
217	0xbd058043	-0.032593023
218	0xbd492011	-0.049102847
219	0xbd673e41	-0.056455854
220	0xbceffa51	-0.029294165
221	0x3da7367f	0.08164691
222	0x3cbaa23a	0.022782434
223	0xbc402f3b	-0.011730011
224	0xbdb7a7b6	-0.08967535
225	0x3d368da6	0.04456868
226	0xbe27a60c	-0.16371936
227	0xbda5e14a	-0.08099611
228	0xbda2f82b	-0.079574905
229	0xbd6607f6	-0.056159936
230	0xbdeea551	-0.11652625
231	0x3cf308ed	0.029667342
232	0xbcfa81fd	-0.030579561
233	0x3d5a1335	0.053240974
234	0xbd0bc01a	-0.03411875
235	0xbaac3ed6	-0.0013141285
236	0xbe76f8f0	-0.241184
237	0xbdd05ebd	-0.1017432
238	0xbda81723	-0.08207538
239	0x3c0832c8	0.008312888
240	0xbd969c4d	-0.07354031
241	0xbe17e1b4	-0.14832193
242	0x3db62663	0.088940404
243	0xbe681405	-0.22663887
244	0xbda101a5	-0.07861642
245	0x3d24c3c9	0.040225778
246	0x3d03cae6	0.03217592
247	0xbd16d469	-0.036823664
248	0xbce17297	-0.027520461
249	0xbd539545	-0.051656026
250	0xbcf19b21	-0.029492917
251	0xbd5fbe11	-0.05462462
252	0x3bef7271	0.0073073437
253	0xbd577eb6	-0.052611075
254	0x3db990ed	0.090608455
255	0x3dea6ef3	0.11446943
