gcn89.pth (torch, 739410 bytes, 38 tensors)

conv1.bias f4 [16]
1.3743353e-06 -2.4811882e-06 9.559055e-06 -4.659997e-06 1.1947503e-07 -2.852403e-06 -1.0393063e-05 6.0196244e-06
1.0994728e-06 -8.095631e-06 -1.0079718e-06 -5.891332e-06 -1.5793114e-06 1.5952863e-06 -1.8395037e-06 -1.2022665e-05
00000000: cd75 b835 7d82 26b6 d45f 2037 125d 9cb6
00000010: 0c49 0034 e96b 3fb6 de5d 2eb7 2efc c936
00000020: 9991 9335 78d2 07b7 a649 87b5 28ae c5b6
00000030: baf8 d3b5 9f1d d635 dee4 f6b5 f4b4 49b7

conv1.lin.weight f4 [16, 48]
0.24069892 0.04347616 -0.10671949 0.117550746 -0.07103681 0.003601634 -0.076488286 -0.0068168817
0.017611748 -0.0099964775 -0.014646738 -0.04014487 0.111541316 0.054221597 -0.057082593 0.09773798
-0.009750074 0.0026586195 -0.031355247 -0.035300657 -0.13366479 -0.036697544 -0.044180382 -0.049080517
0.10043593 -0.007023954 -0.019252162 0.14180936 -0.018448785 0.0035247987 -0.035819985 -0.0037192649
-0.049706418 -0.024729278 -0.02259924 0.002874811 0.039378162 0.048379455 0.017348308 0.087579
0.038 -0.0008192357 0.099395566 0.0492758 -0.21891084 0.07202397 -0.09606081 0.035267204
0.0015758148 -0.0026043293 0.0007053795 0.04094751 -0.042370144 -0.000707728 0.0077194944 0.016782027
0.02299061 0.015697813 0.005460704 0.0058583976 0.0018762529 -0.0026408467 -0.00038026954 0.09383729
-0.09362902 -0.0041522966 0.0035782899 0.002293206 -0.017196035 0.001812379 0.002370515 0.015504735
-0.0012114374 -0.0021725793 0.0024441467 0.15125677 -0.14787742 -0.004237844 -0.0010237887 0.0009128389
-0.015034532 0.0072719613 -0.022649923 -0.009784155 -0.0012141144 -0.0024028302 0.0016511258 0.010415215
-0.006884437 0.4439306 -0.0014228751 -0.03244781 0.040642656 -0.025852209 0.0097882645 -0.015694816
0.09721874 -0.0534483 -0.13039948 0.001165269 0.003268867 0.00037451592 -0.0054267137 0.019706465
-0.12421169 0.020438446 0.033375807 -0.0057942816 0.07374081 0.001958604 -0.06085337 -0.033873532
-0.035150208 -0.0073180613 -0.032378346 -0.04466405 0.22233544 -0.044456914 -0.09787374 -0.016285539
-0.01785994 -0.04677336 -0.046648923 0.0075177443 -0.03859037 -0.0004748027 0.1004979 0.020859415
0.051549215 0.021940783 0.10358326 -0.06400389 0.03872668 -0.027934296 -0.05539626 -0.010337203
-0.0030674606 -0.0046626907 0.124623835 0.0071060318 -0.10081557 0.0069530904 0.046751786 0.02156625
-0.14793523 -0.062054038 -0.12734076 0.020865353 -0.0586902 -0.0021349746 -0.0031261202 0.012379855
-0.2069166 0.0020831337 0.012632113 0.026544044 -0.017225754 -0.101682216 -0.19322465 -0.07470588
0.042276993 0.009060797 0.06407775 -0.0021098205 -0.042440135 -0.0022305497 -0.019426957 -0.06183725
-0.058047272 -0.046625093 -0.083317064 -0.057704177 -0.062530436 0.0057499367 -0.036862507 -0.0013043656
0.10250796 0.0014103054 0.03586632 0.06487736 -0.051344067 -0.08511491 -0.022756092 0.10856826
-0.1276042 0.010877522 -0.106910646 -0.012336035 0.039345387 -0.010559379 -0.01319742 -0.02153277
-0.03976324 -0.04771804 -0.03279131 0.06325053 -0.07415659 0.014854043 0.036646232 -0.06913699
0.06464142 -0.06916569 -0.11729994 -0.071827255 -0.0038090039 -0.009301126 -0.023583028 0.042388637
-0.110877834 -0.023607729 -0.034864485 0.08132734 -0.10295592 0.081366114 0.07748057 0.07471044
0.108114295 -0.050677884 -0.042327125 -0.02581069 0.083525844 0.019593483 -0.01563575 0.005937726
-0.036307797 0.0064286524 -0.01137404 0.026369553 0.062118217 -0.08556264 -0.096817 0.039628696
0.050324902 -0.010054402 0.18515101 -0.034252927 0.046586767 -0.033946365 0.008615479 -0.013905091
-0.15182674 -0.036712237 -0.11560404 -0.09026801 0.08540661 -0.0010522826 -0.04989144 -0.009673435
-0.038340375 -0.029022407 0.0142602045 0.007233238 -0.11797967 -0.065685414 -0.11333775 -0.048086897
00000000: c779 763e 0f14 323d bf8f dabd 72be f03d
00000010: bf7b 91bd 6409 6c3b e4a5 9cbd 2660 dfbb
00000020: 8346 903c 44c8 23bc dff8 6fbc f26e 24bd
00000030: c66f e43d 7717 5e3d 70cf 69bd da2a c83d
00000040: c6be 1fbc 3c3c 2e3b 5c6e 00bd 6c97 10bd
00000050: 6cdf 08be 2a50 16bd 7df6 34bd a708 49bd
00000060: 5ab1 cd3d 3229 e6bb b6b6 9dbc 7936 113e
00000070: e821 97bc 4f00 673b fab7 12bd e9be 73bb
00000080: f598 4bbd 0e95 cabc 0b22 b9bc 5367 3c3b
00000090: ff4a 213d 8929 463d 0a1e 8e3c 9e5c b33d
000000a0: e3a5 1b3d fac1 56ba e78f cb3d 6cd5 493d
000000b0: 2a2a 60be 4e81 933d 88bb c4bd 5874 103d
000000c0: 928b ce3a 65ad 2abb 38e9 383a 94b8 273d
000000d0: 518c 2dbd d286 39ba d0f3 fc3b 767a 893c
000000e0: ce56 bc3c b398 803c b5ef b23b cdf7 bf3b
000000f0: 9aec f53a 0e12 2dbb ea5e c7b9 c42d c03d
00000100: 92c0 bfbd fd0f 88bb be81 6a3b 9d49 163b
00000110: b3de 8cbc 598d ed3a a45a 1b3b 9207 7e3c
00000120: 18c9 9eba d561 0ebb fa2d 203b 0ee3 1a3e
00000130: 2e6d 17be 9ddd 8abb a630 86ba 954b 6f3a
00000140: 6653 76bc a249 ee3b 558c b9bc b84d 20bc
00000150: eb22 9fba cd78 1dbb 976a d83a 94a4 2a3c
00000160: d896 e1bb df4a e33e c47f baba ffe7 04bd
00000170: ea78 263d 03c8 d3bc f55e 203c 6a92 80bc
00000180: 9e1a c73d 9bec 5abd 7187 05be f0bb 983a
00000190: 7d3a 563b ad5a c439 93d2 b1bb 746f a13c
000001a0: b362 febd 876e a73c 12b5 083d f5dd bdbb
000001b0: 6c05 973d ec5b 003b 6241 79bd f9be 0abd
000001c0: aaf9 0fbd 59cc efbb 289f 04bd a7f1 36bd
000001d0: e7ab 633e 7418 36bd 0772 c8bd 4069 85bc
000001e0: 024f 92bc 6c95 3fbd f112 3fbd 6957 f63b
000001f0: f010 1ebd f1ee f8b9 d8d1 cd3d 5de1 aa3c
00000200: 4525 533d 28bd b33c 7623 d43d 7914 83bd
00000210: de9f 1e3d 77d6 e4bc 30e7 62bd 5f5d 29bc
00000220: 7307 49bb 7cc9 98bb c83a ff3d b7d9 e83b
00000230: 6578 cebd c0d6 e33b cd7e 3f3d b4ab b03c
00000240: 557c 17be 602c 7ebd 9e65 02be d1ed aa3c
00000250: 2365 70bd eeea 0bbb 98df 4cbb e0d4 4a3c
00000260: f2e1 53be 2f85 083b ecf6 4e3c e572 d93c
00000270: 061d 8dbc c43e d0bd afdc 45be 65ff 98bd
00000280: a42a 2d3d bd73 143c 323b 833d ea44 0abb
00000290: b5d5 2dbd 6a2e 12bb 4825 9fbc 0e49 7dbd
000002a0: fac2 6dbd f4f9 3ebd 23a2 aabd 375b 6cbd
000002b0: f50f 80bd f769 bc3b 24fd 16bd 3ff7 aaba
000002c0: b1ef d13d ffd9 b83a 90e8 123d 6cde 843d
000002d0: 284e 52bd ba50 aebd fc6a babc 0959 de3d
000002e0: adaa 02be a237 323c f8f3 dabd 151d 4abc
000002f0: a128 213d 3f01 2dbc fe39 58bc 7e65 b0bc
00000300: c7de 22bd fe73 43bd 2e50 06bd 7e89 813d
00000310: 69df 97bd 5f5e 733c 5c1a 163d b297 8dbd
00000320: b962 843d bea6 8dbd f33a f0bd 2b1a 93bd
00000330: 7ba0 79bb c063 18bc 3231 c1bc b59f 2d3d
00000340: eb13 e3bd ff64 c1bc 10ce 0ebd f38e a63d
00000350: 8eda d2bd 47a3 a63d 22ae 9e3d ca01 993d
00000360: 076b dd3d 9d93 4fbd 355f 2dbd f170 d3bc
00000370: 990f ab3d 8382 a03c 8b16 80bc 4191 c23b
00000380: 7cb7 14bd 72a7 d23b 2e5a 3abc f604 d83c
00000390: ac6f 7e3d 773b afbd fe47 c6bd b351 223d
000003a0: 7c21 4e3d 38bb 24bc 3a98 3d3e cc4c 0cbd
000003b0: c4d1 3e3d 580b 0bbd f027 0d3c 2ed2 63bc
000003c0: 7878 1bbe 925f 16bd d0c1 ecbd 6fde b8bd
000003d0: a9e9 ae3d bfec 89ba f75a 4cbd 547d 1ebc
000003e0: cc0a 1dbd 66c0 edbc a2a3 693c cc04 ed3b
000003f0: 539f f1bd 1386 86bd 9f1d e8bd c4f6 44bd

bn1.weight f4 [16]
0.72025645 0.6720816 0.39151105 0.7750084 0.28056106 0.73096395 1.0005465 0.35558748
0.78062177 0.73563844 0.314583 0.47247502 0.7225424 0.33145756 0.52977425 0.65836006
00000000: ba62 383f 8a0d 2c3f 2374 c83e f366 463f
00000010: b3a5 8f3e 7420 3b3f e811 803f 900f b63e
00000020: d4d6 473f cd52 3c3f 0611 a13e 3fe8 f13e
00000030: 8af8 383f ceb4 a93e 499f 073f 498a 283f

bn1.bias f4 [16]
0.008903121 -0.001271286 -0.0028105914 0.057255257 9.4566436e-05 0.021588523 0.032530416 -0.0069623217
0.04472908 -0.0016066844 -0.0016881187 0.0008815199 0.071278 0.007344356 0.049593356 0.0009049749
00000000: 65de 113c 48a1 a6ba e631 38bb 7d84 6a3d
00000010: f851 c638 6ada b03c 9d3e 053d 3024 e4bb
00000020: d735 373d 6297 d2ba dd43 ddba cd15 673a
00000030: 33fa 913d eca8 f03b 6722 4b3d d63b 6d3a

bn1.running_mean f4 [16]
-0.7010207 -0.18412529 0.11257678 1.3407872 0.08069493 1.5867972 -1.8207155 -0.0071335193
0.7932919 -0.0033416697 0.17882206 0.056873582 0.95692945 0.10110716 -0.3637017 0.1399753
00000000: 1876 33bf 578b 3cbe a88e e63d ea9e ab3f
00000010: 6243 a53d 2c1c cb3f 350d e9bf 4cc0 e9bb
00000020: 2e15 4b3f eaff 5abb 211d 373e 46f4 683d
00000030: 54f9 743f 4511 cf3d 1c37 babe af55 0f3e

bn1.running_var f4 [16]
1860.6638 10176.645 308.02087 3889.8398 340.4948 4337.315 5664.669 439.53183
1935.5209 11520.196 426.8708 8708.134 2911.5518 1230.9639 773.1378 10783.837
00000000: 3e95 e844 9402 1f46 ac02 9a43 701d 7345
00000010: 563f aa43 858a 8745 5a05 b145 13c4 db43
00000020: abf0 f144 c900 3446 766f d543 8910 0846
00000030: d4f8 3545 d8de 9944 d248 4144 597f 2846

conv2.bias f4 [32]
-9.034951e-06 -2.1033096e-05 -8.52202e-06 -0.00016019847 -5.8732403e-05 0.00012795172 -7.733936e-05 -8.9410525e-05
-0.00018248211 0.00012633835 -0.00011541995 -2.4296613e-05 0.00010000585 0.00016761699 -0.00025909304 5.1488416e-05
-5.3212283e-05 -9.241026e-05 -8.459155e-06 6.26176e-05 5.834831e-06 -8.85499e-05 8.483067e-05 7.7688775e-05
3.947501e-05 -6.443126e-06 -5.217307e-06 3.9103874e-05 5.4408425e-05 8.291047e-05 -0.00010342639 1.8604835e-05
00000000: d294 17b7 3b70 b0b7 ccf9 0eb7 f3fa 27b9
00000010: 7057 76b8 c72a 0639 4131 a2b8 e981 bbb8
00000020: ab58 3fb9 b179 0439 9d0d f2b8 94d0 cbb7
00000030: 3bba d138 58c2 2f39 e1d6 87b9 44f5 5738
00000040: 4130 5fb8 61cc c1b8 cbeb 0db7 9151 8338
00000050: d1c8 c336 deb3 b9b8 1fe7 b138 d8ec a238
00000060: f891 2538 0832 d8b6 5310 afb6 7703 2438
00000070: 9a34 6438 38e0 ad38 9fe6 d8b8 9411 9c37

conv2.lin.weight f4 [32, 16]
-0.043946933 0.01676572 0.0377517 -0.09041641 -0.087125815 0.0667888 -0.40099865 -0.085466035
0.14784613 0.007362221 -0.03366183 0.11119674 0.13984376 0.034867555 -0.17353658 0.034593623
0.009630569 0.012303115 0.091370285 0.052610774 0.0073068975 0.009036004 0.16087228 -0.019588878
-0.007982006 0.08442416 -0.017844928 0.07969098 0.09720392 0.04940657 0.033200048 0.18792175
0.13881674 -0.019778471 -0.07622658 -0.19247481 0.01055663 0.24758 -0.123404376 0.0024308187
-0.11512682 -0.0055857413 0.01890734 0.056596108 0.093790226 0.09751256 0.060281724 -0.086751856
0.18966074 0.10135959 -0.11985888 -0.24121074 -0.03625178 -0.1595286 -0.13894035 -0.040841695
0.09196783 0.054366447 -0.09615888 -0.025982682 -0.20251 -0.14883047 0.285121 0.07958745
-0.027631959 0.29968458 -0.07256199 0.15519448 -0.0171902 0.08747084 0.16697082 -0.07033157
0.077149525 0.11289507 -0.03562774 0.11040349 0.056275245 0.0023780314 -0.028985709 0.18923353
0.034515362 -0.108569376 0.02641519 0.065620266 0.050789382 -0.3263939 0.08130325 0.055807076
0.013049442 0.025218373 -0.009744025 0.105187014 0.1063835 -0.025328202 0.04849844 0.0733943
0.05518804 0.02953068 -0.029025584 0.16340464 -0.015166097 0.23602624 -0.010632005 0.06391314
-0.11112511 0.0020103047 -0.09932437 0.20580958 -0.16720226 0.035068877 -0.00672627 -0.02359594
-0.07933521 0.18588519 0.052267093 -0.3771608 0.020622628 -0.35042107 0.19026978 0.03056606
-0.3085034 0.06536879 0.00045019272 0.111606754 -0.29075688 0.0120263165 -0.040908925 0.13459933
-0.61781013 0.019936766 -0.025625546 0.08027117 -0.0430171 -0.1021274 0.03938979 -0.050032146
0.0026079214 0.00877498 -0.037853204 0.002598157 0.05348377 -0.06674166 0.022397224 0.079709835
0.09268554 0.19725463 -0.12897505 -0.063947596 -0.042892173 -0.15505283 -0.048378497 -0.047188405
0.16835228 -0.060495995 0.011150621 -0.03533613 0.24184228 -0.09294785 -0.23166186 0.10001696
-0.03821931 -0.068765685 -0.013183168 0.3115693 -0.017820414 0.15432991 0.006210767 0.04955503
-0.16340455 -0.010907797 -0.09670303 -0.008678568 -0.17014264 -0.06822778 -0.08894257 0.037068587
0.00056384556 -0.35984364 0.004616833 0.019602397 0.010018495 0.0072820503 -0.0053970716 0.009427363
0.0027774365 -0.23236442 0.008202035 -0.31032458 -0.012178466 0.0019139232 0.008639965 -0.2063087
0.035689857 -0.012254801 0.03982029 0.027829833 0.14981227 0.050826732 0.082978606 0.09657959
-0.12886797 -0.010431263 0.117457956 -0.041683313 -0.074947044 0.009224227 0.047065888 -0.10894869
-0.08317172 0.072175175 0.08388089 -0.08910589 0.03868648 -0.042572558 0.12094373 0.056014575
-0.011780653 -0.06710342 0.04691076 -0.14765622 0.09548911 0.02597076 -0.24017428 -0.21612431
0.024926195 0.051846974 -0.006229191 -0.04299624 -0.028399957 0.011623904 -0.040699974 -0.04414108
0.04611336 -0.5303771 -0.025292594 0.012605402 0.05458591 0.06130194 -0.044414602 -0.20351559
-0.24077411 -0.026343038 0.027744938 0.079453446 0.022891497 -0.05250513 0.26438254 -0.041954752
0.013688016 -0.19791134 0.008813313 0.10820364 0.01379047 0.03940983 -0.00079637545 -0.15604424
00000000: b301 34bd 4358 893c 87a1 1a3d 3d2c b9bd
00000010: 056f b2bd 91c8 883d b24f cdbe d108 afbd
00000020: fa64 173e c93e f13b fde0 09bd 1ebb e33d
00000030: 3433 0f3e 48d1 0e3d 93b3 31be 0bb2 0d3d
00000040: 89c9 1d3c 0193 493c 5820 bb3d 657e 573d
00000050: b36e ef3b bf0b 143c b4bb 243e db78 a0bc
00000060: f6c6 02bc 93e6 ac3d 872f 92bc 0635 a33d
00000070: d912 c73d 8b5e 4a3d c6fc 073d 8f6e 403e
00000080: fa25 0e3e 7606 a2bc ae1c 9cbd 1e18 45be
00000090: b7f5 2c3c 9d85 7d3e 6fbb fcbd 5f4e 1f3b
000000a0: 9cc7 ebbd 9808 b7bb 91e3 9a3c 52d1 673d
000000b0: 1715 c03d aab4 c73d f8e9 763d f5aa b1bd
000000c0: 6d36 423e 9e95 cf3d 9378 f5bd f3ff 76be
000000d0: bf7c 14bd 775b 23be 6146 0ebe 9f49 27bd
000000e0: a159 bc3d 5aaf 5e3d f2ee c4bd a2d9 d4bc
000000f0: c85e 4fbe 0467 18be 61fb 913e bffe a23d
00000100: 6b5c e2bc 4270 993e 619b 94bd 4deb 1e3e
00000110: 76d2 8cbc e923 b33d 66fa 2a3e 000a 90bd
00000120: 9200 9e3d 8835 e73d 65ee 11bd 3a1b e23d
00000130: df80 663d bfd8 1b3b 7073 edbc 6fc6 413e
00000140: fb5f 0d3d 9f59 debd ab64 d83c eb63 863d
00000150: 8708 503d 1a1d a7be 5182 a63d f695 643d
00000160: 54cd 553c c396 ce3c 67a5 1fbc 4a6c d73d
00000170: 98df d93d 177d cfbc 4da6 463d c04f 963d
00000180: db0c 623d 53ea f13c 10c7 edbc 8c53 273e
00000190: 397b 78bc ddb0 713e dc31 2ebc e4e4 823d
000001a0: 9095 e3bd 51bf 033b 936a cbbd bfbf 523e
000001b0: 1237 2bbe 62a4 0f3d 0b68 dcbb 464c c1bc
000001c0: 807a a2bd b058 3e3e 0516 563d 381b c1be
000001d0: c9f0 a83c 646a b3be 15d6 423e ad65 fa3c
000001e0: 28f4 9dbe 12e0 853d d807 ec39 1592 e43d
000001f0: 16de 94be 070a 453c 1e90 27bd 68d4 093e
00000200: ce28 1ebf 6e52 a33c aaec d1bc 3665 a43d
00000210: b332 30bd 2c28 d1bd 3057 213d 82ee 4cbd
00000220: a9e9 2a3b efc4 0f3c f60b 1bbd d745 2a3b
00000230: cc11 5b3d daaf 88bd 627a b73c e93e a33d
00000240: ebd1 bd3d 1efd 493e 0912 04be f5f6 82bd
00000250: b4af 2fbd 2bc6 1ebe 8828 46bd a148 41bd
00000260: 8a64 2c3e a6ca 77bd 18b1 363c 9ebc 10bd
00000270: 81a5 773e 715b bebd c438 6dbe b1d5 cc3d
00000280: da8b 1cbd 06d5 8cbd 37fe 57bc 0386 9f3e
00000290: 1efc 91bc a908 1e3e b183 cb3b 37fa 4a3d
000002a0: 8653 27be 9eb6 32bc 3d0c c6bd 8d30 0ebc
000002b0: df39 2ebe 02bb 8bbd 8627 b6bd 3bd5 173d
000002c0: 09cf 133a 6d3d b8be cd48 973b 3595 a03c
000002d0: 9d24 243c 449e ee3b ebd9 b0bb 3a75 1a3c
000002e0: a705 363b f0f0 6dbe d461 063c dde2 9ebe
000002f0: 3088 47bc 9bdc fa3a a48e 0d3c 9642 53be
00000300: 872f 123d 5cc8 48bc 9a1a 233d 64fb e33c
00000310: 6368 193e b12f 503d b0f0 a93d 85cb c53d
00000320: f7f5 03be e3e7 2abc cc8d f03d 1fbc 2abd
00000330: d67d 99bd 3621 173c 29c8 403d 7e20 dfbd
00000340: ef55 aabd 94d0 933d bec9 ab3d 267d b6bd
00000350: b775 1e3d 9060 2ebd 59b1 f73d 8a6f 653d
00000360: a403 41bc 856d 89bd 7f25 403d 3133 17be
00000370: cb8f c33d a2c0 d43c 3ff0 75be b14f 5dbe
00000380: 0532 cc3c 7e5d 543d 3e1e ccbb d31c 30bd
00000390: 07a7 e8bc 3072 3e3c 04b5 26bd 47cd 34bd
000003a0: 5de1 3c3d cbc6 07bf 6a32 cfbc e386 4e3c
000003b0: 7a95 5f3d be17 7b3d 16ec 35bd 6466 50be
000003c0: 7d8d 76be 5bcd d7bc 5a49 e33c 7db8 a23d
000003d0: f386 bb3c 9f0f 57bd 265d 873e bfd8 2bbd
000003e0: b343 603c 45a9 4abe b765 103c df99 dd3d
000003f0: 6cf1 613c 346c 213d dac3 50ba 10ca 1fbe

bn2.weight f4 [32]
0.5925425 0.38619098 0.23065732 0.5215077 0.5874924 0.38579717 0.22674352 0.88477135
0.69970906 0.41043037 0.38655463 0.91744757 0.2261034 0.351672 0.68867457 0.33899823
0.72332776 0.54508716 0.36254203 0.39899847 0.582113 0.7566544 0.874359 0.37432706
0.3632079 0.9003392 0.47130978 0.56877893 0.5927375 0.41383514 0.5246653 0.84294224
00000000: deb0 173f d3ba c53e 6f31 6c3e 8781 053f
00000010: e765 163f 3587 c53e 742f 683e 6080 623f
00000020: 2220 333f ee23 d23e 7dea c53e d8dd 6a3f
00000030: a687 673e 5a0e b43e fa4c 303f 2d91 ad3e
00000040: 022c 393f d58a 0b3f 1c9f b93e 8749 cc3e
00000050: 5c05 153f 1ab4 413f fed5 5f3f cca7 bf3e
00000060: 63f6 b93e a17c 663f 844f f13e 7f9b 113f
00000070: a5bd 173f 33e2 d33e 7750 063f 10cb 573f

bn2.bias f4 [32]
-0.14203689 0.027846893 -0.001569347 -0.09755639 0.055578172 0.034337394 0.08281867 -0.27838925
-0.265601 -0.007657071 -0.021762678 -0.11599308 0.049122743 -0.057117883 -0.072191 0.031993605
-0.031606857 -0.011383639 0.06783121 0.097619005 -0.009839691 -0.23145707 -0.33357343 -0.11274033
0.0065515586 -0.3060458 -0.021266753 0.01978088 -0.18755679 0.0050671 -0.012273964 -0.2958753
00000000: 1e72 11be 2b1f e43c 8cb2 cdba a5cb c7bd
00000010: f0a5 633d 5ea5 0c3d d69c a93d 0989 8ebe
00000020: dbfc 87be 2be8 fabb a547 b2bc c88d edbd
00000030: ee34 493d 71f4 69bd e0d8 93bd ba0b 033d
00000040: 3176 01bd 7182 3abc 17eb 8a3d 79ec c73d
00000050: a836 21bc 1503 6dbe 23ca aabe 67e4 e6bd
00000060: 75ae d63b 09b2 9cbe 9d37 aebc 830b a23c
00000070: e30e 40be ea09 a63b bc18 49bc f87c 97be

bn2.running_mean f4 [32]
-0.08384164 0.10334974 -0.00028943166 -0.08037729 0.12194534 0.025591904 0.029061433 -0.19931598
-0.09656391 -0.0032800143 -0.006846138 -0.043721646 0.030652013 -0.027105216 -0.03817266 0.02390937
-0.13271023 -0.07087233 0.03316101 -0.05498475 -0.050910123 -0.13281906 -0.13227107 -0.034294985
-0.007959489 -0.10255775 0.07884434 0.0353391 -0.05918839 -0.007485277 -0.013492141 -0.11216566
00000000: 2ab5 abbd 07a9 d33d dcbe 97b9 d99c a4bd
00000010: 7abe f93d 1da6 d13c 3e12 ee3c 7d19 4cbe
00000020: 4dc3 c5bd 82f5 56bb 9155 e0bb 7815 33bd
00000030: ee19 fb3c c20b debc ef5a 1cbd 95dd c33c
00000040: 31e5 07be 8325 91bd d7d3 073d b037 61bd
00000050: 2287 50bd b801 08be 1172 07be e678 0cbd
00000060: 8468 02bc cc09 d2bd 2479 a13d bbbf 103d
00000070: 866f 72bd 0e47 f5bb 240e 5dbc 1cb7 e5bd

bn2.running_var f4 [32]
0.09181389 0.026342988 0.0030620426 0.08559277 0.056896526 0.013878557 0.010526536 0.4022244
0.057439834 0.016930543 0.008703646 0.053519513 0.009991767 0.012574516 0.07341389 0.021091254
0.14179265 0.06172998 0.017145103 0.03698441 0.03173664 0.07210485 0.09286542 0.012846986
0.008951807 0.09564655 0.025904108 0.02592316 0.018072693 0.030892482 0.016092483 0.052090388
00000000: ec08 bc3d 40cd d73c 8dac 483b 434b af3d
00000010: 550c 693d e362 633c 7e77 2c3c 5bf0 cd3e
00000020: 0846 6b3d ecb1 8a3c bd99 0e3c 4737 5b3d
00000030: 82b4 233c 5805 4e3c 065a 963d 91c7 ac3c
00000040: 1832 113e 93d8 7c3d e373 8c3c f77c 173d
00000050: 47fe 013d b5ab 933d 3a30 be3d 2a7c 523c
00000060: 9aaa 123c 57e2 c33d da34 d43c cf5c d43c
00000070: 2f0d 943c 3b12 fd3c 62d4 833c bb5c 553d

conv3.bias f4 [64]
1.3314376e-05 -5.5987628e-05 -8.355077e-05 -3.7977345e-05 -3.6972294e-06 0.00011098577 4.6628895e-05 -9.288115e-05
0.00010137469 0.00010203022 3.4119792e-06 6.432509e-05 -1.107817e-05 -6.888651e-05 4.084247e-05 2.7386888e-05
6.247103e-05 -1.1186482e-05 -0.00011698841 -2.0760002e-05 0.00014718453 4.176948e-05 -2.419887e-05 5.1735235e-05
0.0001457203 1.9847892e-05 -0.00012689883 -5.906941e-05 -2.3070834e-05 8.328603e-05 -9.674729e-05 2.211125e-05
7.9369776e-05 -5.767387e-05 3.9310857e-05 1.40594175e-05 1.5176943e-07 0.00016142851 -7.665811e-06 4.4401255e-05
1.70194e-05 6.1381026e-05 2.9514935e-05 0.0002332657 -0.00014390887 -9.8820194e-05 1.4518105e-06 -0.00010441741
-0.000110953755 -9.2051254e-05 -0.00014696959 -0.00012699711 1.8335117e-05 1.6148575e-05 -7.082295e-06 5.6983004e-05
-4.780857e-05 -6.690729e-05 2.7208003e-05 5.8052752e-05 1.03027105e-05 -9.560435e-06 -0.00011893889 -0.00012258622
00000000: cf60 5f37 42d4 6ab8 fa37 afb8 dd49 1fb8
00000010: eb1d 78b6 08c1 e838 6593 4338 30c9 c2b8
00000020: 1f99 d438 0ff9 d538 5bf9 6436 45e6 8638
00000030: 61dc 39b7 2a77 90b8 454e 2b38 e5bc e537
00000040: e102 8338 93ad 3bb7 ad57 f5b8 c425 aeb7
00000050: 8c55 1a39 a331 2f38 adfe cab7 49fe 5838
00000060: 7fcc 1839 067f a637 2510 05b9 4cc1 77b8
00000070: 3d88 c1b7 d9a9 ae38 cee4 cab8 8c7b b937
00000080: 5373 a638 d9e6 71b8 b6e1 2438 bde0 6b37
00000090: 10f6 2234 2345 2939 689c 00b7 7c3b 3a38
000000a0: e2c4 8e37 b0b9 8038 d796 f737 c998 7439
000000b0: 3ee6 16b9 b03d cfb8 d4db c235 acfa dab8
000000c0: d8af e8b8 a40b c1b8 d91b 1ab9 872a 05b9
000000d0: 5dce 9937 cd76 8737 73a4 edb6 0901 6f38
000000e0: 1086 48b8 9450 8cb8 be3c e437 ab7d 7338
000000f0: ced9 2c37 c165 20b7 d56e f9b8 7d8a 00b9

conv3.lin.weight f4 [64, 32]
-0.045014076 -0.00083034823 -0.06779161 -0.08902389 -0.0067410823 -0.021596316 -0.07916257 -0.04522173
0.11485627 -0.016988792 0.0078112413 0.19935073 0.023872642 0.015499248 0.10419394 -0.00830589
0.029160682 0.015984263 -0.034993794 -0.004123151 5.588413e-06 0.14920197 -0.20273095 -0.046171125
-0.017962338 0.09844618 -0.005047882 -0.01848561 -0.011160697 0.0737931 0.023860862 0.08269632
0.07858005 -0.024556609 -0.017848833 0.093062125 0.007520767 -0.019092707 -0.0010586691 0.114227
-0.017935105 -0.000139637 0.04969043 -0.03957173 -0.0273959 0.009074627 0.006374494 0.011108678
0.16270407 0.07370651 -0.07051227 0.031167114 0.043279354 0.08093946 0.16060509 -0.018412555
0.01669148 -0.08124276 0.014536865 -0.06921463 0.029660653 -0.053294003 -0.0042866208 0.001186024
-0.022428181 -0.046888504 -0.002395196 -0.016471757 -0.056122426 -0.026059832 -0.041848965 0.007916286
-0.070195794 -0.003061679 0.028788777 0.096358456 -0.073373355 0.006452534 0.06706133 0.039473843
0.024301575 -0.013127328 0.018312966 -0.038784754 0.052085016 -0.00052046985 0.023612257 0.07520659
-0.017276429 -0.0023137091 -0.036020763 0.11587408 -0.028797043 0.019878158 -0.05947697 0.21351905
-0.0449663 -0.007612887 -0.039642785 0.08005369 -0.023857739 -0.095924936 0.052732717 0.057503294
-0.047942735 -0.020248016 0.0067031486 0.007186684 0.02306053 -0.020157646 0.07291995 0.028681276
0.008247337 0.07892752 0.032856923 0.026210114 0.057526924 -0.008240846 0.02469469 -0.013183389
0.015495739 -0.10979733 -0.06875287 0.008398344 0.03377806 -0.18286534 0.04823854 -0.071768425
-0.018125154 0.012708992 -0.010001096 -0.007881266 0.006579402 -0.060732443 0.007608155 -0.015954515
-0.00077166385 -0.076268084 -0.07861237 0.004646218 0.019637667 -0.018739697 -0.0835117 0.0053493916
0.0055701374 -0.013368682 0.0133715775 -0.00707702 -0.07243067 -0.26151767 -0.19401531 -0.02844109
-0.006108876 -0.10161029 -0.0117530925 0.0819598 0.0004252714 -0.0065433457 0.0929854 -0.10350359
-0.05730549 0.009252932 -0.034969628 -0.006753462 -0.011165664 0.005165587 0.02289758 -0.05135509
-0.03527345 0.02668112 -0.027568894 0.03794779 -0.0022152057 0.029571999 -0.00067298213 0.014187742
-0.021767683 -0.05631512 0.011696584 0.008491892 -0.067540064 -0.024990635 -0.092072375 -0.07215353
0.0013291748 0.02952707 -0.001329827 -0.031527594 -0.0019866508 0.032641936 0.00031391444 -0.1160456
0.0006458235 0.05174023 -0.007696004 0.008502997 0.03031368 -0.037807908 0.058671944 -0.09905936
0.029717842 0.0018868224 -0.052656353 -0.020010864 -0.09110683 0.056609713 -0.079142556 0.012203015
0.032118104 -0.029701602 0.006907021 0.01714594 -0.050354924 -0.0074067446 -0.00956369 -0.030901238
0.003316642 -0.1183669 -0.0022331183 -0.048669014 -0.034114245 0.030104363 0.05507002 -0.071961686
0.032646287 -0.016366355 -0.0073004393 -0.0030990615 -0.024211941 0.034680385 -0.03753383 0.0012592949
-0.052701063 0.01978251 0.010692919 -0.07116177 0.00072492816 -0.0087500885 0.03418929 -0.01387624
-0.037998147 -0.03289739 0.029280769 -0.024038397 0.05370844 0.15539077 0.15162131 0.027690548
-0.03934726 0.11939726 0.0076500904 -0.011684973 0.00032407927 -0.019849824 0.004141376 0.025266029
00000000: ae60 38bd baab 59ba 54d6 8abd 2852 b6bd
00000010: 4ce4 dcbb c2ea b0bc fc1f a2bd 6c3a 39bd
00000020: c439 eb3d 142c 8bbc 71f5 ff3b 9922 4c3e
00000030: 8f90 c33c 8ff0 7d3c a263 d53d 6d15 08bc
00000040: 62e2 ee3c 6ef1 823c a755 0fbd 7f1b 87bb
00000050: 1a84 bb36 67c8 183e b498 4fbe ef1d 3dbd
00000060: c125 93bc 279e c93d b468 a5bb 226f 97bc
00000070: 5bdb 36bc d620 973d db77 c33c b05c a93d
00000080: 94ee a03d f12a c9bc b737 92bc 5b97 be3d
00000090: c470 f63b 4f68 9cbc 0ac3 8aba d8ef e93d
000000a0: a4ec 92bc 866b 12b9 3188 4b3d f715 22bd
000000b0: 5e6d e0bc bfad 143c 22e1 d03b 2c01 363c
000000c0: e59b 263e 70f3 963d bd68 90bd 2d52 ff3c
000000d0: b145 313d 96c3 a53d a975 243e edd5 96bc
000000e0: 92bc 883c 9b62 a6bd 082c 6e3c 66c0 8dbd
000000f0: e6fa f23c d04a 5abd c876 8cbb 5d74 9b3a
00000100: 4ebb b7bc 290e 40bd b8f8 1cbb c7ef 86bc
00000110: a1e0 65bd 6e7b d5bc d269 2bbd 4fb3 013c
00000120: d0c2 8fbd 73a6 48bb 71d6 eb3c 9557 c53d
00000130: c544 96bd c76f d33b 7357 893d 53af 213d
00000140: 1914 c73c 0114 57bc 1305 963c c3dc 1ebd
00000150: 1957 553d 2470 08ba 7e6e c13c ea05 9a3d
00000160: 4c87 8dbc 99a1 17bb 828a 13bd 644f ed3d
00000170: c7e7 ebbc 85d7 a23c 209e 73bd bda4 5a3e
00000180: 952e 38bd 8675 f9bb 7960 22bd 30f3 a33d
00000190: 4e71 c3bc 4b74 c4bd 43fe 573d 9388 6b3d
000001a0: 9a5f 44bd 2bdf a5bc 16a6 db3b 467e eb3b
000001b0: 70e9 bc3c a621 a5bc 0e57 953d fff4 ea3c
000001c0: d71f 073c c0a4 a13d fb94 063d 98b6 d63c
000001d0: 5aa1 6b3d 9d04 07bc 854c ca3c 24ff 57bc
000001e0: d7e1 7d3c 6cdd e0bd 4ece 8cbd 3599 093c
000001f0: dd5a 0a3d 0d41 3bbe c695 453d 53fb 92bd
00000200: 347b 94bc 6039 503c a3db 23bc 6d20 01bc
00000210: 0698 d73b 95c2 78bd d44d f93b 0bb3 82bc
00000220: 7c49 4aba 7132 9cbd 86ff a0bd 4d3f 983b
00000230: 2cdf a03c fe83 99bc 2f08 abbd f349 af3b
00000240: b385 b63b 5108 5bbc 7614 5b3c 59e6 e7bb
00000250: 8856 94bd a5e5 85be f3ab 46be 4afd e8bc
00000260: f72c c8bb 0e19 d0bd 0b90 40bc 8ada a73d
00000270: f6f6 de39 9069 d6bb 216f be3d b1f9 d3bd
00000280: 29b9 6abd 9c99 173c 503c 0fbd 254c ddbb
00000290: 30f0 36bc 1644 a93b b593 bb3c b759 52bd
000002a0: e57a 10bd 5d92 da3c 29d8 e1bc 246f 1b3d
000002b0: fc2c 11bb fa40 f23c 116b 30ba b473 683c
000002c0: 2452 b2bc afaa 66bd 07a3 3f3c 9421 0b3c
000002d0: 7252 8abd 29b9 ccbc 7190 bcbd 3bc5 93bd
000002e0: b537 ae3a c1e2 f13c 974d aeba 1423 01bd
000002f0: 7832 02bb 8db3 053d e294 a439 51a9 edbd
00000300: 7b4c 293a 90ed 533d c32e fcbb 2850 0b3c
00000310: 6554 f83c 77dc 1abd fe51 703d a2df cabd
00000320: d572 f33c 414f f73a 30ae 57bd d3ed a3bc
00000330: 3896 babd 96df 673d 7e15 a2bd 28ef 473c
00000340: 468e 033d c650 f3bc 4b54 e23b a475 8c3c
00000350: f740 4ebd 47b4 f2bb 06b1 1cbc 9824 fdbc
00000360: 055c 593b 586a f2bd 8259 12bb 2959 47bd
00000370: 61bb 0bbd 6d9d f63c 1a91 613d a660 93bd
00000380: 1db8 053d bc12 86bc 8638 efbb a019 4bbb
00000390: 1f58 c6bc 050d 0e3d 13bd 19bd ed0e a53a
000003a0: 12dd 57bd ee0e a23c 5a31 2f3c 43bd 91bd
000003b0: 1b09 3e3a 885c 0fbc 120a 0c3d 2b59 63bc
000003c0: f2a3 1bbd 6abf 06bd 39de ef3c 2cec c4bc
000003d0: 62fd 5b3d c21e 1f3e 9e42 1b3e 4ad7 e23c
000003e0: 982a 21bd 8d86 f43d 9cad fa3b 5472 3fbc
000003f0: 2fe9 a939 199c a2bc 61b4 873b b4fa ce3c

bn3.weight f4 [64]
0.5007815 0.28326315 0.4062034 0.3513372 0.2853425 0.22158791 0.27702394 0.1968408
0.22848031 0.5657356 0.3110558 0.22149862 0.25676298 0.5450496 0.29551318 0.37263685
0.34212103 0.4968656 0.31117192 0.4352646 0.33688605 0.44680917 0.53724116 0.263154
0.38859704 0.149818 0.45350343 0.20763142 0.62520784 0.32664722 0.3804391 0.47995207
0.32820034 0.4140618 0.56072253 0.47601867 0.46088618 0.47509843 0.27129608 0.26505312
0.43172154 0.19104081 0.34527126 0.37924436 0.31788877 0.2569988 0.5665775 0.413947
0.29782462 0.4942827 0.25493488 0.33068454 0.4146325 0.50010616 0.57616144 0.40230688
0.31163222 0.28232172 0.20297776 0.42020434 0.4896267 0.5560483 0.4966162 0.31815794
00000000: 3733 003f de07 913e e4f9 cf3e 78e2 b33e
00000010: 6a18 923e f1e7 623e 15d6 8d3e a290 493e
00000020: bef6 693e 0cd4 103f b542 9f3e 89d0 623e
00000030: 7076 833e 5f88 0b3f 814d 973e 42ca be3e
00000040: 7d2a af3e 2b65 fe3e ed51 9f3e 00db de3e
00000050: 547c ac3e 2cc4 e43e a388 093f 1fbc 863e
00000060: 31f6 c63e e469 193e 9a31 e83e 559d 543e
00000070: 9f0d 203f 4e3e a73e eac8 c23e 47bc f53e
00000080: e009 a83e e9ff d33e 838b 0f3f b8b8 f33e
00000090: 46f9 eb3e 1a40 f33e 52e7 8a3e 0bb5 873e
000000a0: 9b0a dd3e 34a0 433e 65c7 b03e 512c c23e
000000b0: 51c2 a23e 5995 833e 390b 113f dcf0 d33e
000000c0: 787c 983e 9f12 fd3e d386 823e 7c4f a93e
000000d0: b64a d43e f506 003f 517f 133f 2bfb cd3e
000000e0: 428e 9f3e 798c 903e 67d9 4f3e 0625 d73e
000000f0: 5ab0 fa3e 2e59 0e3f 7b44 fe3e 99e5 a23e

bn3.bias f4 [64]
-0.06551466 -0.24197908 -0.13315378 -0.116189346 -0.13128564 -0.061413713 -0.12181147 -0.16978884
-0.18070404 -0.19652425 -0.20802774 -0.09293095 -0.103376105 -0.23403804 -0.17750737 -0.14724334
-0.09919637 -0.11987578 -0.1741613 -0.18372107 -0.13091487 -0.18413748 -0.26949528 -0.09646352
-0.17046168 -0.13183777 -0.017159844 -0.1574734 -0.2275019 -0.14884476 -0.12902215 -0.020969076
-0.093009226 -0.22273703 -0.15737371 -0.087329015 -0.2228521 -0.15038095 -0.15697078 -0.07882935
-0.14488275 -0.049711578 -0.08454819 -0.008625894 -0.15131415 -0.13436061 -0.144679 -0.17400023
-0.089358285 -0.20243749 -0.17539325 -0.16963999 -0.15780094 -0.16189755 -0.21203698 -0.1845021
-0.15092996 -0.08147243 -0.06292308 -0.17386746 -0.18832356 -0.15880562 -0.12428359 -0.06671837
00000000: 8d2c 86bd 5dc9 77be 7759 08be aef4 edbd
00000010: be6f 06be f28c 7bbd 4b78 f9bd 20dd 2dbe
00000020: 7b0a 39be a73d 49be 3905 55be 9552 bebd
00000030: dab6 d3bd aba7 6fbe 7ec4 35be f5c6 16be
00000040: 7727 cbbd 6f81 f5bd 5757 32be 6021 3cbe
00000050: 8c0e 06be 898e 3cbe 49fb 89be aa8e c5bd
00000060: 828d 2ebe 7b00 07be cd92 8cbc b540 21be
00000070: 42f6 68be c36a 18be 621e 04be 57c7 abbc
00000080: 9f7b bebd 2d15 64be 9326 21be 8ed9 b2bd
00000090: 5733 64be 77fd 19be f3bc 20be 4871 a1bd
000000a0: 255c 14be 5e9e 4bbd 9a27 adbd 9f53 0dbc
000000b0: 19f2 1abe d495 09be bb26 14be 1e2d 32be
000000c0: 7a01 b7bd c64b 4fbe 4a9a 33be 1bb6 2dbe
000000d0: 9296 21be 79c8 25be 3920 59be 1eee 3cbe
000000e0: 628d 1abe 04db a6bd d1dd 80bd 500a 32be
000000f0: e4d7 40be f19d 22be 6588 febd a4a3 88bd

bn3.running_mean f4 [64]
0.0013471708 0.04339813 -0.008244842 0.005612412 -0.035770044 -0.028900038 -0.017069986 0.007932622
0.009217852 -0.008460812 0.026875129 -0.03285397 -0.015473411 -0.009323034 -0.04009169 0.00803944
0.0083777765 0.012419093 -0.026061079 0.019974276 -0.028526437 0.010961951 0.021120623 -0.019165289
0.014739125 -0.008419126 0.018161105 -0.0037748078 -0.0095882155 -0.010091617 -0.023956725 -0.012545221
0.004237388 -0.005317218 -0.033956777 0.0012118353 -0.013103655 0.0021751851 0.013066455 -0.010805275
-0.019501908 -0.0022844207 -0.03929548 -0.0135606285 -0.0069075944 0.025360165 -0.028080711 0.005438258
-0.012143074 -0.008263317 -0.030518819 0.010326174 0.0065149767 -0.014425601 -0.004331208 -0.029809875
-0.0022517599 -0.038817998 -0.023680469 -0.007180973 -0.0013524357 -0.009120652 -0.0021874846 -0.014829393
00000000: 8d93 b03a 3dc2 313d 6015 07bc 53e8 b73b
00000010: 9c83 12bd c6bf ecbc 5bd6 8bbc d4f7 013c
00000020: 7906 173c 389f 0abc 3b29 dc3c e291 06bd
00000030: 3184 7dbc a4bf 18bc 2f37 24bd dbb7 033c
00000040: f142 093c 7479 4b3c 0b7e d5bc 18a1 a33c
00000050: 46b0 e9bc c199 333c 2805 ad3c 8600 9dbc
00000060: 5f7c 713c 60f0 09bc 99c6 943c c462 77bb
00000070: e417 1dbc 4f57 25bc e540 c4bc 788a 4dbc
00000080: c9d9 8a3b 0f3c aebb 4316 0bbd 72d6 9e3a
00000090: b6b0 56bc 8d8d 0e3b af14 563c 9c08 31bc
000000a0: 77c2 9fbc 38b6 15bb 4cf4 20bd 662d 5ebc
000000b0: 1a59 e2bb 1fc0 cf3c 8509 e6bc 6a33 b23b
000000c0: bef3 46bc dd62 07bc 9a02 fabc 1d2f 293c
000000d0: 967b d53b 5b59 6cbc ceec 8dbb d733 f4bc
000000e0: 4392 13bb 9fff 1ebd 8bfd c1bc 5e4e ebbb
000000f0: 3644 b1ba ca6e 15bc e75b 0fbb fbf6 72bc

bn3.running_var f4 [64]
0.0017976126 0.00063352135 0.001310582 0.0021576048 0.0008597819 0.0012697654 0.00086747913 0.00017094704
0.00026851703 0.0021086864 0.000457115 0.0004818989 0.0010930212 0.0019128234 0.0013431651 0.0011237257
0.002162742 0.0019465543 0.0007931607 0.0052243457 0.0008044898 0.0010200614 0.0007443049 0.0011627494
0.0008224253 0.00017537652 0.0040134997 0.00034766417 0.003253517 0.0008207856 0.0027080907 0.0015394439
0.0016914903 0.0012222651 0.0036976896 0.0026283215 0.0016215967 0.002154268 0.00065105804 0.0013289291
0.0007693845 0.0020991114 0.00502372 0.0015420073 0.0008703335 0.0002154456 0.004252948 0.00096403965
0.0007528325 0.0027737352 0.0005532931 0.00074307004 0.0023440637 0.0021292116 0.0026717093 0.0022633437
0.0010138588 0.00079978694 0.00064422254 0.0025257354 0.0010904417 0.0028651492 0.004181195 0.001020184
00000000: df9d eb3a e612 263a d6c7 ab3a 9a66 0d3b
00000010: fd62 613a 426e a63a 8a67 633a 3f40 3339
00000020: bfc7 8c39 e331 0a3b f0a8 ef39 60a7 fc39
00000030: b543 8f3a b4b7 fa3a 240d b03a fa49 933a
00000040: cabc 0d3b 8623 ff3a 1dec 4f3a fd30 ab3b
00000050: 66e4 523a 95b3 853a 751d 433a 6567 983a
00000060: 0798 573a 47e5 3739 ad83 833b b246 b639
00000070: f538 553b fd29 573a 397a 313b 2ac7 c93a
00000080: ffb4 dd3a 6934 a03a f054 723b eb3f 2c3b
00000090: c28b d43a 9f2e 0d3b c4ab 2a3a 762f ae3a
000000a0: 85b0 493a 3f91 093b 059e a43b 2e1d ca3a
000000b0: 1827 643a 3de9 6139 505c 8b3b 9bb7 7c3a
000000c0: bc59 453a 8ec7 353b df0a 113a 96ca 423a
000000d0: dd9e 193b 3e8a 0b3b d817 2f3b 9b54 143b
000000e0: 75e3 843a cba8 513a 0be1 283a cf86 253b
000000f0: 27ed 8e3a 3ac5 3b3b 6802 893b b2b7 853a

conv4.bias f4 [128]
-5.363701e-05 -4.1320054e-05 -1.1379738e-05 2.2918743e-05 7.0140654e-06 -2.3842735e-05 6.285996e-05 6.419866e-05
0.00019283207 5.457225e-06 -0.00017290452 -0.0001890373 -0.00019277218 -2.1095155e-05 -4.8152604e-05 0.00011007735
9.2950315e-05 2.2743538e-05 9.957471e-05 3.1701945e-06 8.043465e-05 3.9077877e-05 -0.00028776505 3.802995e-06
-0.00021295244 0.00030256005 0.0001307865 7.5235825e-05 2.9269011e-05 4.9117378e-05 -2.2261422e-05 4.131829e-05
6.078791e-05 -4.8261852e-05 6.8527224e-05 5.8713085e-05 -7.9626825e-06 4.822148e-05 3.8127524e-05 -2.3069715e-05
2.7419554e-05 -7.8060985e-08 3.62614e-05 -0.00010694035 -0.00015959288 -8.523453e-05 0.00019261759 9.782983e-06
7.307907e-05 3.8206683e-05 -5.5084685e-05 -1.5679581e-05 7.429529e-05 0.00010058884 -7.111555e-05 3.1119787e-05
-4.0414918e-05 7.843902e-05 -7.722162e-05 -0.00014160937 2.8959414e-05 -8.809977e-05 6.6022094e-06 0.00013387094
1.0085692e-05 -9.373192e-06 -3.4272445e-05 1.4326748e-05 -1.8098204e-05 -4.7320973e-05 9.306574e-06 2.6409773e-05
2.1746682e-05 -7.370375e-05 -6.205201e-06 -6.6438755e-05 0.00018194003 -4.2881496e-05 -1.4722757e-05 5.1493604e-05
4.220437e-05 -5.7603862e-05 -2.9575458e-06 3.668151e-06 -5.2384068e-05 -0.00013151631 -7.502276e-05 0.000114532435
-3.6349953e-05 1.4819639e-05 -0.0001042292 0.00016441078 7.475918e-05 -0.00011506345 -3.7729085e-05 -2.8118204e-05
3.0671665e-06 -5.601e-05 6.4560176e-05 0.00013585175 9.846548e-06 7.3536365e-05 -3.0254265e-05 -4.9871505e-05
4.7721747e-05 1.1778907e-06 3.5769353e-05 -2.528882e-06 3.441128e-05 -0.0002453838 0.00013418535 1.579816e-05
-4.3004998e-06 -0.00014624909 6.7865594e-06 -3.5809633e-05 0.00011526645 4.279441e-05 1.5219507e-05 -2.7597382e-05
1.021352e-05 9.326415e-05 -7.7990524e-05 -2.867039e-05 0.00019581334 2.4431654e-05 0.00012913758 6.9653724e-05
00000000: 4df8 60b8 124f 2db8 9aeb 3eb7 a041 c037
00000010: 5d5a eb36 e201 c8b7 afd3 8338 65a2 8638
00000020: f732 4a39 351d b736 b44d 35b9 5038 46b9
00000030: e322 4ab9 80f5 b0b7 77f7 49b8 54d9 e638
00000040: 52ee c238 60c9 be37 c4d2 d038 87bf 5436
00000050: 06af a838 8de7 2338 2cdf 96b9 f536 7f36
00000060: fc4b 5fb9 eca0 9e39 bc23 0939 edc7 9d38
00000070: b986 f537 6203 4e38 0abe bab7 2d4d 2d38
00000080: 85f6 7e38 c56c 4ab8 46b6 8f38 b242 7638
00000090: 7697 05b7 6b41 4a38 1eeb 1f38 d685 c1b7
000000a0: 0b03 e637 7ba2 a7b3 6217 1838 2a45 e0b8
000000b0: 6358 27b9 f1bf b2b8 64f9 4939 9821 2437
000000c0: 0742 9938 1d40 2038 bb0a 67b8 a587 83b7
000000d0: fbce 9b38 39f3 d238 df23 95b8 9e86 0238
000000e0: 3083 29b8 a17f a438 0bf2 a1b8 fa7c 14b9
000000f0: deed f237 34c2 b8b8 8c88 dd36 b55f 0c39
00000100: b835 2937 8e41 1db7 c2bf 0fb8 ea5c 7037
00000110: 99d1 97b7 827a 46b8 6e23 1c37 8e8a dd37
00000120: a56c b637 6691 9ab8 4536 d0b6 0955 8bb8
00000130: 28c7 3e39 a8db 33b8 c301 77b7 d6fa 5738
00000140: 9904 3138 ad9b 71b8 407a 46b6 5b2a 7636
00000150: f7b6 5bb8 a4e7 09b9 8a55 9db8 2231 f038
00000160: 7776 18b8 dda1 7837 a095 dab8 af65 2c39
00000170: 07c8 9c38 384e f1b8 4c3f 1eb8 62df ebb7
00000180: 85d5 4d36 48ec 6ab8 7b64 8738 6d73 0e39
00000190: 9a32 2537 8937 9a38 8aca fdb7 1f2d 51b8
000001a0: d628 4838 0418 9e35 0d07 1638 ddb5 29b6
000001b0: d554 1038 dba6 80b9 1bb4 0c39 4a86 8437
000001c0: 034d 90b6 715a 19b9 1ab8 e336 4d32 16b8
000001d0: 34bb f138 267e 3338 4957 7f37 ed80 e7b7
000001e0: bc5a 2b37 cf96 c338 d88e a3b8 3281 f0b7
000001f0: 3e53 4d39 94f2 cc37 1b69 0739 0f13 9238

conv4.lin.weight f4 [128, 64]
0.00043867482 -0.01173477 -0.0033345085 0.008817637 0.0064594727 -0.010023106 -0.002179737 -0.0012549262
-0.0007444376 -0.0013979494 -0.0062313615 -0.0007138485 0.0088813575 -0.00062058895 -0.0017190578 -0.00041856378
0.007344504 0.0016757044 -0.032671962 -0.00096631167 -0.0012818367 0.043669406 -0.14328054 -0.0096633285
-0.029731784 -0.0027313125 -0.00065066194 -0.008659866 0.002808106 0.0038998558 -0.008967292 0.05866965
-0.0016734735 0.006994761 0.12199058 -0.00019599021 0.07446086 -0.002887106 -0.028983967 -0.004180212
0.0014647311 -0.000119720164 -0.005112812 0.06405054 -0.010624682 -0.019294579 0.11405128 0.0039413855
0.0053813113 5.3074382e-05 -0.010153665 -0.0029552404 -5.4787193e-05 -0.0005528825 0.0015190662 -0.07384954
-0.004042904 0.0054952833 0.002074576 0.014825636 0.00018682111 0.00055074703 0.0016850728 0.010952494
-0.0034420204 0.002034442 0.0036103074 7.779576e-05 0.005735923 0.0037005236 0.002609835 -0.015585852
0.0043163737 -0.06588974 -0.0019056498 -0.0014903169 -0.009460609 -0.075159006 0.009628911 0.008260651
0.012317039 -0.017358338 0.012311292 -0.0006083512 0.0071284557 -0.019670762 -0.0014932357 -0.0041793
0.0044860295 -0.039746854 -0.0017175426 -0.00035551362 -0.09768719 0.0023930173 0.005241318 -0.0012470282
-0.0040853214 -0.007952041 -0.009151342 -0.0022521524 -0.020927154 0.0013415556 0.0040560733 -0.006537312
-0.034737118 -0.007975019 0.010785243 -0.0009428157 -0.010168548 0.021236604 -0.010128222 -0.0048098247
0.00074241555 0.0015351679 0.00882979 -0.0025504904 -0.01601208 -0.05177659 -0.07434678 0.00787827
0.001904417 -0.0014303386 0.007997655 0.004317532 0.0020466356 -0.0066893636 -0.0004767639 -0.01284575
-0.00032810177 0.004160406 0.063390754 0.0076439413 -0.007202822 0.0015909694 0.010683014 -0.01648312
-0.006998696 -0.08758783 -0.0033265797 -0.006052187 -0.008899617 -0.07804492 -0.0003205099 -0.0025950242
-0.0053935554 -0.001687578 -0.016026266 -0.09677515 -0.0007453068 -0.00050022796 -0.00698291 -0.0051383916
-0.0028831745 -0.020016953 -0.0012413063 -0.079582706 -0.07961989 -0.015569308 -0.0044418145 -0.0018112166
0.00011442877 0.0029150355 -0.0014527638 -0.00047735052 -0.0021731611 0.08171844 0.0077975187 0.0036954277
-0.0049679955 -0.008802175 0.010451158 -0.0004431628 -0.009397856 0.0012280305 0.00021915039 -0.0029813393
0.004800573 0.11330364 -0.030558476 0.0039574043 -0.0020840778 -0.07722362 -0.08477271 -0.0013047901
0.014894161 -0.0070621534 0.005774649 0.012443836 0.08164015 -0.0005881106 0.05829758 -0.0011410926
-0.000107642845 -0.012995975 -0.0031405366 -0.05770038 -0.044432435 -0.06938111 -0.0066119875 0.0029891324
-0.0019502423 -0.0026550246 0.004219572 -0.024181657 0.004896557 -0.002782794 0.005146302 -0.00037459692
0.0051759025 0.001281048 -0.00742551 -0.01798162 -0.098070666 -0.006469552 0.019479599 -0.0015067995
-0.0350177 0.035864882 0.0006570211 -0.064691715 -0.0047396915 -0.058589935 -0.044314425 0.0006183037
0.0006263818 -0.0060805404 -0.0010027131 0.0007096646 -0.0003602891 2.3449065e-05 0.018492805 -0.031465836
-0.027617157 0.010653668 -0.0014906572 0.0029278048 0.006831579 -0.0041360655 0.00023785431 0.029735157
-0.07736467 0.0015802355 0.0023262089 0.018867614 -0.0008209489 -0.007302769 0.0042227674 -0.024082292
0.0045129005 -0.11740374 -0.0016961874 -0.07377107 -0.0013495759 0.00025615466 -0.0060795597 -0.05892023
00000000: f0fd e539 3143 40bc c587 5abb da77 103c
00000010: fca9 d33b f437 24bc ebd9 0ebb 567c a4ba
00000020: 5d26 43ba 663b b7ba 7330 ccbb 9021 3bba
00000030: 1d83 113c 05af 22ba 0252 e1ba ae72 dbb9
00000040: 2aaa f03b 4fa3 db3a 09d3 05bd 1450 7dba
00000050: 4d03 a8ba b1de 323d 22b8 12be f052 1ebc
00000060: 1290 f3bc d2ff 32bb 2f91 2aba 1ce2 0dbc
00000070: 3308 383b b994 7f3b 8ceb 12bc 964f 703d
00000080: 7458 dbba 4f34 e53b 32d6 f93d b982 4db9
00000090: ef7e 983d 9a35 3dbb c96f edbc 29fa 88bb
000000a0: 38fc bf3a 4612 fbb8 6089 a7bb ee2c 833d
000000b0: 2513 2ebc aa0f 9ebc b893 e93d bd26 813b
000000c0: b655 b03b 2f9c 5e38 8f5b 26bc b5ac 41bb
000000d0: 4dcb 65b8 51ef 10ba 671b c73a 6d3e 97bd
000000e0: 567a 84bb c711 b43b 9cf5 073b 39e7 723c
000000f0: 69e5 4339 0260 103a a9dd dc3a 1772 333c
00000100: 8593 61bb 4654 053b e89a 6c3b 4826 a338
00000110: 69f4 bb3b 7c84 723b c409 2b3b cd5b 7fbc
00000120: 5e70 8d3b 33f1 86bd ffc6 f9ba bd56 c3ba
00000130: ac00 1bbc f7ec 99bd 94c2 1d3c ae57 073c
00000140: 68cd 493c 1333 8ebc 4db5 493c c279 1fba
00000150: d295 e93b 9424 a1bc adb8 c3ba 82f2 88bb
00000160: 8bff 923b 99cd 22bd 2b1f e1ba 3b64 bab9
00000170: 3910 c8bd 2bd4 1c3b 5dbf ab3b 5373 a3ba
00000180: 29de 85bb 4749 02bc 83ef 15bc d998 13bb
00000190: 6c6f abbc 23d7 af3a cfe8 843b f336 d6bb
000001a0: 8248 0ebd a7a9 02bc 96b4 303c 4a27 77ba
000001b0: fb99 26bc 63f8 ad3c d8f0 25bc bc9b 9dbb
000001c0: aa9e 423a b037 c93a d3aa 103c 2126 27bb
000001d0: c42b 83bc b113 54bd 2043 98bd dc13 013c
000001e0: a19d f93a 337a bbba 9908 033c 157a 8d3b
000001f0: d920 063b 7332 dbbb 2bf6 f9b9 fb76 52bc
00000200: 1305 acb9 0454 883b 03d3 813d 077a fa3b
00000210: a605 ecbb 1388 d03a cf07 2f3c 9c07 87bc
00000220: 5155 e5bb 4061 b3bd bf02 5abb 6d51 c6bb
00000230: b3cf 11bc 04d6 9fbd 1c0a a8b9 4811 2abb
00000240: 6cbc b0bb b931 ddba 8449 83bc 0d32 c6bd
00000250: b160 43ba bb21 03ba e5d0 e4bb f45f a8bb
00000260: a4f3 3cbb 98fa a3bc 54b3 a2ba 42fc a2bd
00000270: c10f a3bd 6916 7fbc a48c 91bb 5866 edba
00000280: 7af9 ef38 2e0a 3f3b aa6a beba e744 fab9
00000290: 986b 0ebb ff5b a73d 5482 ff3b fd2e 723b
000002a0: 91ca a2bb ff36 10bc 553b 2b3c 4e58 e8b9
000002b0: 77f9 19bc def5 a03a bccb 6539 9362 43bb
000002c0: 204e 9d3b bd0b e83d c555 fabc 1dad 813b
000002d0: 0695 08bb 6b27 9ebd 519d adbd 7e05 abba
000002e0: a406 743c a369 e7bb 4439 bd3b 3be1 4b3c
000002f0: f332 a73d 6f2b 1aba 71c9 6e3d b790 95ba
00000300: 50be e1b8 12ed 54bc 76d1 4dbb 3c57 6cbd
00000310: c9fe 35bd af17 8ebd 5fa9 d8bb 52e5 433b
00000320: 469f ffba ecff 2dbb 5644 8a3b 9c18 c6bc
00000330: 4c73 a03b 895f 36bb 4fa2 a83b 8c65 c4b9
00000340: 9e9a a93b d7e8 a73a b151 f3bb 314e 93bc
00000350: 46d9 c8bd 89fe d3bb ae93 9f3c cd7f c5ba
00000360: b86e 0fbd 0ee7 123d f13b 2c3a 177d 84bd
00000370: 6a4f 9bbb 00fc 6fbd 0b83 35bd a915 223a
00000380: c533 243a 453f c7bb 786d 83ba c908 3a3a
00000390: 2fe5 bcb9 7cb4 c437 397e 973c 52e2 00bd
000003a0: 603d e2bc b98c 2e3c 2862 c3ba 6ae0 3f3b
000003b0: 70db df3b d587 87bb 8868 7939 2597 f33c
000003c0: 5e71 9ebd e81f cf3a 4f73 183b 4190 9a3c
000003d0: f334 57ba 114c efbb 245f 8a3b 3a48 c5bc
000003e0: f4e0 933b 5f71 f0bd 9b52 deba 4915 97bd
000003f0: 41e4 b0ba 7f4c 8639 0b37 c7bb 5756 71bd

bn4.weight f4 [128]
0.2511263 0.29340947 0.2999935 0.24226496 0.16705275 0.2185226 0.321212 0.12721184
0.18415037 0.24811426 0.2676891 0.24078476 0.21789739 0.17356655 0.24674228 0.3617169
0.24737975 0.27422738 0.3163838 0.17755596 0.17679359 0.28290462 0.19638641 0.37106046
0.20266509 0.18613234 0.21184775 0.23725328 0.21052478 0.18178518 0.2016807 0.20310466
0.2864635 0.14444138 0.24838565 0.3316292 0.22787924 0.23451073 0.308519 0.22436835
0.28024915 0.25439724 0.2350698 0.29622498 0.2935713 0.23567852 0.15479709 0.25102854
0.38321286 0.17583705 0.27384192 0.25287494 0.19099224 0.18783695 0.22688562 0.35115734
0.37570018 0.13648802 0.28370228 0.35719827 0.12502342 0.23382202 0.24246931 0.18289837
0.3181459 0.26407042 0.30182987 0.31724408 0.37805256 0.34292954 0.17854089 0.31182668
0.24562667 0.3381727 0.18696913 0.17438187 0.26303676 0.21167625 0.22303477 0.14846449
0.14350452 0.1964835 0.24709547 0.36939722 0.25215232 0.1535982 0.16953495 0.26422733
0.2301553 0.20026432 0.21682663 0.21917324 0.24117705 0.15007152 0.29941645 0.18188147
0.12831841 0.27474293 0.14183322 0.22871904 0.28407264 0.3063763 0.1533494 0.2749682
0.23428935 0.17956834 0.18520048 0.19729583 0.20321015 0.13941844 0.40270644 0.26138023
0.19227757 0.20120461 0.23070584 0.2326521 0.13675928 0.27544498 0.32158688 0.16871268
0.15990119 0.2973874 0.15012693 0.12327573 0.13778655 0.1325291 0.30523342 0.18750772
00000000: a093 803e c439 963e bf98 993e 4e14 783e
00000010: e00f 2b3e 63c4 5f3e e675 a43e d243 023e
00000020: ea91 3c3e aa11 7e3e 8c0e 893e 4890 763e
00000030: 7e20 5f3e 6ebb 313e 02aa 7c3e f532 b93e
00000040: 1e51 7d3e 8867 8c3e 0ffd a13e 3bd1 353e
00000050: 6109 353e e0d8 903e 8519 493e a3fb bd3e
00000060: 7087 4f3e 7a99 3e3e 9eee 583e 86f2 723e
00000070: cf93 573e e525 3a3e 6385 4e3e abfa 4f3e
00000080: 58ab 923e 71e8 133e cf58 7e3e 4dcb a93e
00000090: 2d59 693e 9523 703e 34f6 9d3e d1c0 653e
000000a0: d17c 8f3e 5b40 823e 23b6 703e cdaa 973e
000000b0: fa4e 963e b655 713e 2183 1e3e d086 803e
000000c0: 7a34 c43e a10e 343e 0235 8c3e d378 813e
000000d0: 7893 433e 5458 403e b454 683e e5ca b33e
000000e0: c65b c03e 84c3 0b3e 6d41 913e b1e2 b63e
000000f0: 2406 003e 0a6f 6f3e e049 783e b649 3b3e
00000100: 05e4 a23e 3d34 873e 7289 9a3e d16d a23e
00000110: 1b90 c13e 7694 af3e 6cd3 363e bfa7 9f3e
00000120: 8f85 7b3e f924 ad3e d674 3f3e 2991 323e
00000130: c1ac 863e a9c1 583e 3a63 643e 1307 183e
00000140: d9f2 123e f832 493e 9806 7d3e a221 bd3e
00000150: 1c1a 813e d948 1d3e 929a 2d3e ce48 873e
00000160: d5ad 6b3e 1712 4d3e cd07 5e3e f36e 603e
00000170: 1ef7 763e 59ac 193e 1d4d 993e 233f 3a3e
00000180: e765 033e 1bab 8c3e ba3c 113e 5335 6a3e
00000190: f871 913e 5bdd 9c3e a007 1d3e a2c8 8c3e
000001a0: 8ce9 6f3e c3e0 373e 32a5 3d3e eb07 4a3e
000001b0: 5216 503e b5c3 0e3e 8a2f ce3e a1d3 853e
000001c0: 69e4 443e 9508 4e3e 273e 6c3e 5a3c 6e3e
000001d0: a00a 0c3e 2007 8d3e 09a7 a43e 04c3 2c3e
000001e0: 23bd 233e 2943 983e e0ba 193e fc77 fc3d
000001f0: eb17 0d3e b5b5 073e 8e47 9c3e 0602 403e

bn4.bias f4 [128]
0.08415882 -0.14348948 -0.08288509 -0.12193017 0.0664971 -0.063037515 -0.14158066 0.01085983
-0.085648105 -0.073634386 -0.20891036 -0.116757974 -0.030733513 -0.12179168 -0.022904139 -0.12488342
-0.068988554 -0.21588403 -0.08829372 -0.02876641 -0.09339794 -0.09404052 -0.07559813 -0.13751039
-0.16567422 -0.049952917 -0.09596088 -0.18657933 0.014538818 -0.060354736 -0.10162297 -0.0880762
-0.09765097 -0.062642045 -0.0010777023 -0.12356804 0.061378747 -0.09856411 -0.18087772 -0.11648975
-0.14867619 -0.16720809 -0.076786056 -0.07950072 -0.07994497 0.06940903 -0.15306857 -0.03685805
-0.23029631 0.009098491 0.09206612 -0.09121473 -0.025079487 -0.06347201 -0.16806 -0.08301541
-0.1804936 -0.058263905 -0.067830175 -0.16509959 0.020620178 -0.18919514 0.039304465 0.024585577
-0.14192441 0.09635324 -0.112188175 -0.106245 -0.21818455 -0.0011344628 0.002751579 -0.074376486
-0.036072824 -0.13511151 0.029635 -0.13498874 -0.06456024 0.033844326 -0.06315725 -0.06476685
-0.09527896 -0.07431522 0.076369986 -0.13613833 -0.20551817 0.007779963 -0.08411547 -0.23498504
-0.01836504 -0.106532626 -0.11865048 0.017671235 -0.23322721 0.019908702 -0.06503742 -0.048173662
-0.07794897 -0.14656867 -0.07417588 -0.04976885 -0.23031531 0.005345476 -0.0133382175 0.019164607
-0.15753011 -0.06122237 -0.07426004 0.013250758 0.048413917 -0.118218854 -0.2427713 -0.11399143
-0.14176717 0.03966696 -0.18417367 0.07128812 -0.09172762 0.036668852 -0.18721256 -0.022326495
-0.09150848 -0.0034591556 -0.06796139 -0.010322032 0.0050809137 0.037321366 -0.25564015 -0.10034638
00000000: 765b ac3d e8ee 12be a8bf a9bd 86b6 f9bd
00000010: a22f 883d d019 81bd 85fa 10be 6eed 313c
00000020: 4668 afbd a0cd 96bd 99ec 55be ce1e efbd
00000030: d9c4 fbbc eb6d f9bd 76a1 bbbc e1c2 ffbd
00000040: df49 8dbd b410 5dbe 56d3 b4bd 89a7 ebbc
00000050: 6b47 bfbd 5198 c0bd 31d3 9abd 86cf 0cbe
00000060: 81a6 29be 6e9b 4cbd 2387 c4bd a70e 3fbe
00000070: 3934 6e3c 8736 77bd b41f d0bd 4b61 b4bd
00000080: 3bfd c7bd 794a 80bd b041 8dba 3e11 fdbd
00000090: 4868 7b3d fbdb c9bd 0238 39be 2e92 eebd
000000a0: 923e 18be 9938 2bbe 0242 9dbd 46d1 a2bd
000000b0: 30ba a3bd 5226 8e3d 02be 1cbe 77f8 16bd
000000c0: ccd2 6bbe d611 153c 298d bc3d cace babd
000000d0: 7f73 cdbc 9dfd 81bd ec17 2cbe fc03 aabd
000000e0: 50d3 38be 22a6 6ebd 8cea 8abd de0f 29be
000000f0: a6eb a83c 5fbc 41be b8fd 203d b167 c93c
00000100: a254 11be d954 c53d eac2 e5bd fb96 d9bd
00000110: c56b 5fbe 41b2 94ba d653 343b b352 98bd
00000120: 19c1 13bd ac5a 0abe 19c5 f23c 7d3a 0abe
00000130: 2938 84bd 59a0 0a3d 9758 81bd 7ba4 84bd
00000140: 9e21 c3bd 9432 98bd de67 9c3d d967 0bbe
00000150: 5b73 52be 0fef fe3b bb44 acbd eb9f 70be
00000160: 4872 96bc c72d dabd 06ff f2bd 44c3 903c
00000170: 1dd3 6ebe 9317 a33c 5732 85bd bf51 45bd
00000180: b6a3 9fbd 1916 16be 86e9 97bd 6cda 4bbd
00000190: c7d7 6bbe 1a29 af3b 8a88 5abc 18ff 9c3c
000001a0: 934f 21be 4fc4 7abd a615 98bd b519 593c
000001b0: ac4d 463d ba1c f2bd 0a99 78be 5774 e9bd
000001c0: 6a2b 11be d279 223d 0698 3cbe 81ff 913d
000001d0: b1db bbbd 1432 163d a6b4 3fbe 0ee6 b6bc
000001e0: cc68 bbbd 00b3 62bb 572f 8bbd bd1d 29bc
000001f0: cb7d a63b 4ade 183d 44e3 82be 6782 cdbd
