gcn99.pth (torch, 741458 bytes, 38 tensors)

conv1.bias f4 [16]
0	0xb9f477aa	-0.00046628463
1	0xb9d0207d	-0.00039697057
2	0x39ac3745	0.00032847575
3	0x39dd4e7d	0.00042210883
4	0xb91111aa	-0.00013834858
5	0xb9a23ee6	-0.0003094591
6	0xb961555d	-0.00021489472
7	0xb98be338	-0.00026681437
8	0xb8b179c2	-8.462697e-05
9	0x39334fbb	0.00017100472
10	0x3a0211ec	0.0004961777
11	0xb9827fb8	-0.0002489069
12	0xb8e9604d	-0.00011128243
13	0x382c6acf	4.110747e-05
14	0xb935f05f	-0.0001735105
15	0xb96fe7c3	-0.00022879154

conv1.lin.weight f4 [16, 48]
0	0xbd9d4db0	-0.07680833
1	0xbdeebbdc	-0.11656925
2	0x3d9b3d6a	0.07580073
3	0x3e5d789f	0.21628045
4	0xbdb6c403	-0.08924105
5	0x3df8b2e6	0.12143497
6	0xbe995dba	-0.2995432
7	0x3e09cb10	0.13456368
8	0x3e350ab9	0.17679872
9	0x3e3f3207	0.18671428
10	0xbe0edb79	-0.1395091
11	0xbd7d0084	-0.06176807
12	0x3e709ebd	0.23498054
13	0xbd6b67a8	-0.0574719
14	0x3e1d0cda	0.15336934
15	0x3d540f4c	0.0517724
16	0xbe6207b3	-0.2207325
17	0xbe269e40	-0.16271305
18	0x3e619cce	0.22032472
19	0x3e483d47	0.19554625
20	0x3e7026b0	0.23452258
21	0xbd88a50e	-0.06672107
22	0xbdddbf0b	-0.10827454
23	0xbda34178	-0.079714715
24	0x3e660b9b	0.22465365
25	0x3c79d6de	0.015248982
26	0x3d67700a	0.056503333
27	0x3d1d5068	0.03840676
28	0x3e031534	0.12801057
29	0xbd969475	-0.07352535
30	0x3d0fb390	0.035083354
31	0x3e015bba	0.12632647
32	0xbed1bb20	-0.40963078
33	0x3ed24e54	0.41075385
34	0xbd756b5d	-0.059916843
35	0x3e4bb569	0.19893421
36	0x3e8092c5	0.25111976
37	0xbd20fc98	-0.039303392
38	0x3d2f67e2	0.04282368
39	0x3e811212	0.252091
40	0x3e9c3204	0.3050691
41	0xbd12ae50	-0.03581077
42	0x3e806cb6	0.2508294
43	0xbe9afded	-0.30271855
44	0x3db599f0	0.08867252
45	0x3cf8c1c0	0.030365825
46	0xbe0e4b1e	-0.13895842
47	0xbd6242e6	-0.05523958
48	0x3dde71e2	0.10861565
49	0xbe08442e	-0.13307258
50	0x3d95a2a1	0.073064096
51	0xbdfb9784	-0.12284759
52	0x3d813fee	0.06311022
53	0xbe046cca	-0.12932125
54	0xbd8c9137	-0.06863635
55	0x3d191547	0.037373807
56	0x3d727a57	0.059198704
57	0xbd798547	-0.06091812
58	0x3d8a9f53	0.0676867
59	0xbd908792	-0.07057108
60	0x3e815f11	0.25267842
61	0xbc7c7ca1	-0.015410573
62	0xbdbb7e66	-0.09154968
63	0x3e1fc488	0.15602314
64	0x3e040874	0.1289385
65	0xbd95691f	-0.07295441
66	0x3e7011bc	0.23444265
67	0xbd2d3e51	-0.042295758
68	0xbe52714f	-0.20551036
69	0x3dd43107	0.10360914
70	0x3e836f2d	0.25670758
71	0x3d73657d	0.05942296
72	0x3d3edc31	0.04659671
73	0x3d8ce935	0.06880418
74	0x3ba4559b	0.005015088
75	0xbe649f6c	-0.2232644
76	0x3e47bccd	0.19505616
77	0x3e89b04e	0.26892322
78	0x3e40bed0	0.18822789
79	0xbd59f214	-0.05320938
80	0x3cf65f75	0.030074814
81	0xbe7cc531	-0.24684598
82	0x3d5f0b04	0.054453865
83	0x3e9233bf	0.28555104
84	0x3e2be21f	0.16785477
85	0xbcac0329	-0.0209976
86	0x3d839b4b	0.06426104
87	0x3d854b27	0.06508475
88	0x3d7ea28b	0.06216673
89	0x3ede7add	0.43453112
90	0xbe3ed5ac	-0.18636197
91	0x3e8a4e7e	0.2701301
92	0x3f071b95	0.5277646
93	0xbd9ed0aa	-0.07754643
94	0xbceb611d	-0.02873283
95	0xbdcf61ce	-0.10126077
96	0x3ecdb279	0.40175226
97	0x3ca89e88	0.020583406
98	0x3ddb542d	0.10709415
99	0x3da98c58	0.082787216
100	0xbce30bd3	-0.0277156
101	0x3e3e2d82	0.18572047
102	0xbd612315	-0.054965097
103	0xbd87f02f	-0.06637608
104	0x3d5d3848	0.054008752
105	0x3e8b4954	0.27204382
106	0x3e455f66	0.19274673
107	0x3e5c42d4	0.21509868
108	0x3dd1f7d6	0.10252349
109	0x3e16f4f7	0.14741884
110	0x3d9b8e9b	0.07595559
111	0xbe21b6a9	-0.15792336
112	0xbe3ba919	-0.18326224
113	0x3d97b730	0.07407987
114	0x3cb907fc	0.022586815
115	0xbdfabc38	-0.12242931
116	0x3e6f8d61	0.23393776
117	0xbead0883	-0.33795556
118	0xbda5fa12	-0.08104338
119	0xbd9a53a5	-0.07535485
120	0xbd96b4a6	-0.07358675
121	0xbda6e87f	-0.08149814
122	0x3d9c9df7	0.07647317
123	0x3dfc4228	0.12317306
124	0xbe529616	-0.20565066
125	0x3de8cb53	0.11366906
126	0x3ed46fe6	0.41491622
127	0xbe13eb5e	-0.14445254
128	0xbdcdff38	-0.10058445
129	0xbe31a1a6	-0.1734682
130	0xbda4ffc4	-0.08056596
131	0xbe0022aa	-0.12513223
132	0x3e80412d	0.25049725
133	0x3dc9a836	0.09846537
134	0x3cde66ba	0.027148593
135	0x3ead9413	0.33902034
136	0xbd9d5b99	-0.076834865
137	0xbd2463f8	-0.0401344
138	0x3d315d7b	0.04330204
139	0x3d4b7e47	0.049680974
140	0x3f1ac6c4	0.6045954
141	0xbec33c13	-0.3813177
142	0x3e91e944	0.2849828
143	0x3c25bad1	0.010115341
144	0xbeb74479	-0.35794428
145	0x3b48eb75	0.0030657921
146	0xbdeb06f5	-0.11475936
147	0x3dd1b4a4	0.102395326
148	0x3d91cc07	0.07118993
149	0x3cf48507	0.029848589
150	0xbe9b145c	-0.3028897
151	0x3e5f276e	0.21792385
152	0xbe7a3e9d	-0.24437948
153	0xbe1901c8	-0.14942086
154	0xbe617a55	-0.22019322
155	0x3c1b7331	0.009487913
156	0xbe1afbe0	-0.15135145
157	0xbe0bc5a8	-0.13649619
158	0x3dd4cd9e	0.10390781
159	0xbe385379	-0.18000592
160	0x3e06ff7c	0.13183397
161	0xbe80bd4c	-0.25144422
162	0xbe4de5ec	-0.2010724
163	0xbd85e761	-0.06538273
164	0x3f0fa533	0.5611145
165	0x3e34447c	0.1760425
166	0x3da2e619	0.07954044
167	0x3d57fada	0.052729465
168	0xbea7846e	-0.32718223
169	0xbe060780	-0.13088799
170	0xbe40cde2	-0.18828538
171	0xbe63a5ae	-0.2223117
172	0xbe0f6dc0	-0.1400671
173	0xbe02c015	-0.12768586
174	0x3e6dacf6	0.2321051
175	0x3e63d9cc	0.22251052
176	0x3e5bcace	0.21464083
177	0xbe78a0a8	-0.24280035
178	0xbe809239	-0.2511156
179	0xbe9a473e	-0.30132478
180	0xbd6af63a	-0.057363726
181	0xbdf8ec45	-0.1215444
182	0xbeb31622	-0.34977823
183	0xbc851839	-0.016246902
184	0x3d4179f4	0.047235444
185	0xbe511d4a	-0.20421329
186	0xbe83821e	-0.2568521
187	0x3bdd8eeb	0.006761422
188	0x3f2defab	0.6794383
189	0x3cd51ec2	0.026015643
190	0xbdeb69cc	-0.114947885
191	0xbe72abb4	-0.23698312
192	0x3d46adbe	0.048505537
193	0x3d29d02c	0.041458294
194	0xbe2fcec9	-0.17168726
195	0x3e2cc9e2	0.16873887
196	0xbe15b97c	-0.14621538
197	0x3d74f611	0.05980498
198	0x3df25422	0.11832453
199	0x3d38b7f9	0.045097325
200	0xbe3bdce8	-0.18345988
201	0x3e08a72e	0.13345024
202	0x3d6970fe	0.056992523
203	0xbd3ae0fa	-0.04562471
204	0xbd2ba447	-0.041904714
205	0xbe6293c7	-0.22126685
206	0xbe45bb85	-0.19309814
207	0xbe89fc77	-0.26950428
208	0xbcd80f4e	-0.026374485
209	0xbeb2d487	-0.3492777
210	0x3d9a0f96	0.07522504
211	0xbdcf8ea2	-0.10134627
212	0x3e1f4410	0.15553308
213	0xbe0a6df9	-0.13518514
214	0xbe14b9b9	-0.14523973
215	0x3d1de6da	0.038550235
216	0xbdaf7eed	-0.08569131
217	0xbdb8f138	-0.09030384
218	0x3d7c2749	0.061560903
219	0xbcd60607	-0.026125921
220	0x3df0bf62	0.117552534
221	0x3db5710c	0.088594526
222	0xbe4807ae	-0.1953418
223	0x3dd8aecd	0.105802156
224	0xbe195e76	-0.1497744
225	0x3d9f605d	0.07782052
226	0x3d81c88c	0.063370794
227	0xbe15a067	-0.1461197
228	0x3c284875	0.010271181
229	0xbe4f80ae	-0.20263931
230	0xbe0b70b8	-0.13617218
231	0xbe1de532	-0.15419462
232	0x3d5b6731	0.053565208
233	0xbd4d126a	-0.05006639
234	0xbe0446a6	-0.12917575
235	0xbd9065f9	-0.070507
236	0xbe8a07aa	-0.26958972
237	0x3e59e204	0.21277624
238	0x3e2ebc71	0.17064072
239	0x3ebc3c98	0.3676498
240	0x3eb3ba8d	0.35103264
241	0x3e61032f	0.2197387
242	0xbd716c2f	-0.058941063
243	0xbcea6507	-0.028612627
244	0x3e54ef89	0.207945
245	0xbbbfa851	-0.0058489223
246	0x3e1d1788	0.15341008
247	0xbe995576	-0.29948014
248	0xbebc17e5	-0.3673698
249	0x3e0625b2	0.13100317
250	0x3d7dd8a9	0.0619742
251	0xbe3eba64	-0.1862579
252	0x3e13f330	0.14448237
253	0x3e8fe123	0.28101453
254	0xbdf446c2	-0.119275585
255	0x3e15e84e	0.14639398

bn1.weight f4 [16]
0	0x3faf1e0b	1.3681043
1	0x3faee8fd	1.3664852
2	0x3f90d568	1.1315126
3	0x3fac2eb0	1.3451748
4	0x3f9ea8c2	1.2395251
5	0x3fe8002a	1.812505
6	0x3f8e1677	1.1100606
7	0x3f9e6f3f	1.23777
8	0x3fb39dfa	1.4032586
9	0x3fa8217e	1.3135221
10	0x3f9983f7	1.1993397
11	0x3fc04d0c	1.5023513
12	0x3f922488	1.1417398
13	0x3f998103	1.1992496
14	0x3fa80e52	1.312937
15	0x3f7ffde6	0.99996793

bn1.bias f4 [16]
0	0x3ec4c840	0.3843403
1	0x3f0c0b92	0.54705155
2	0x3ec4f287	0.38466284
3	0x3ee46900	0.4461136
4	0x3f293cef	0.661086
5	0x3e52e378	0.20594585
6	0x3eecb849	0.46234348
7	0x3e595bad	0.21226378
8	0x3f45a9e6	0.7721237
9	0x3f40b229	0.7527185
10	0x3ece5a60	0.40303326
11	0x3f0d8915	0.55287296
12	0x3ef6733e	0.48134798
13	0x3ee17264	0.44032586
14	0x3e88f789	0.26751354
15	0x3f031fe2	0.51220524

bn1.running_mean f4 [16]
0	0xbf00a4d7	-0.50251526
1	0xbfe4f801	-1.7888185
2	0xbf84da72	-1.0379164
3	0x3eb1214d	0.3459572
4	0x3ee7b5fc	0.4525603
5	0x3f6f54e9	0.9348894
6	0xc0392477	-2.8928506
7	0x3fddc461	1.7325555
8	0xbe121e40	-0.14269352
9	0xbdf64ca6	-0.12026338
10	0xbfc3abd0	-1.5286808
11	0xbf180588	-0.5938344
12	0xbde683a3	-0.112555765
13	0x3f834f39	1.0258552
14	0x3fa54e92	1.2914603
15	0x3e12bf24	0.14330727

bn1.running_var f4 [16]
0	0x46ba19ea	23820.957
1	0x46cbc924	26084.57
2	0x46aceecb	22135.396
3	0x472014bb	40980.73
4	0x470e30ee	36400.93
5	0x469784bb	19394.365
6	0x46c623bb	25361.865
7	0x475cf062	56560.383
8	0x47a41efd	84029.98
9	0x46e802e9	29697.455
10	0x46d67b6d	27453.713
11	0x471d4a36	40266.21
12	0x47278b4d	42891.3
13	0x4720fccb	41212.793
14	0x46aff8a4	22524.32
15	0x4681a41a	16594.05

conv2.bias f4 [32]
0	0xbd0c41fe	-0.034242623
1	0xbd036975	-0.032082994
2	0x3aa38340	0.0012475029
3	0x3d82d0aa	0.06387456
4	0xbcdf13f2	-0.02723119
5	0x3d086443	0.033298742
6	0xbd250881	-0.040291313
7	0xbc54d5d8	-0.012990437
8	0xbdad3e45	-0.084591426
9	0xbce1ff2f	-0.027587501
10	0xbcac2049	-0.021011489
11	0xbd75de64	-0.06002654
12	0x3b261fc7	0.002534853
13	0xbca6841a	-0.020326663
14	0x3cefb6f3	0.029262042
15	0x3c033f75	0.008010735
16	0xba9f164b	-0.0012137381
17	0xbcda3db1	-0.026640745
18	0x3cdfed17	0.027334733
19	0x3cf7650d	0.030199552
20	0x3be6beb6	0.0070417775
21	0xbd46c24e	-0.048525147
22	0xbd7f3ae4	-0.06231202
23	0x3b25de1d	0.0025309392
24	0x3cb3d59e	0.021952447
25	0x3c25a9c0	0.010111272
26	0x3c16de1c	0.009208228
27	0x3c4fcb70	0.012682781
28	0xbca74d8c	-0.02042272
29	0x3ccb5da7	0.02482493
30	0xbd0298f3	-0.031884145
31	0x3d39275a	0.045203544

conv2.lin.weight f4 [32, 16]
0	0xbc9a1f36	-0.01881371
1	0xbb180972	-0.002319899
2	0xbe0fa827	-0.14028989
3	0x3e74696e	0.23868343
4	0x3e6819d7	0.22666107
5	0xbb602ddb	-0.003420702
6	0xbe1614cc	-0.14656371
7	0x3e38c682	0.18044475
8	0x3dde1095	0.108430065
9	0x3e75b24a	0.23993793
10	0x3d1a5801	0.037681583
11	0x3e4e6d77	0.20158945
12	0x3e865567	0.26237032
13	0x3eb476e1	0.35246947
14	0xbea7aa1c	-0.3274697
15	0x3e8aaab8	0.27083373
16	0xbdb2caf6	-0.08730118
17	0xbee0e80f	-0.43927047
18	0x3db55f32	0.08856048
19	0xbe74ccf1	-0.23906304
20	0xbeae3e41	-0.3403187
21	0xbda9aa6c	-0.082844585
22	0x3dbb8efe	0.09158133
23	0xbe4e61ef	-0.20154546
24	0xbe83169d	-0.2560319
25	0x3e57bfc3	0.21069245
26	0xbc744877	-0.014909855
27	0xbeb36867	-0.3504059
28	0x3daac1c6	0.083377406
29	0x3d2d6078	0.042328328
30	0xbe9e1609	-0.30876186
31	0x3e14850f	0.14503883
32	0x3cb669f6	0.022267323
33	0x3d52b267	0.05143967
34	0xbe8e5686	-0.27800387
35	0xbeaa0a4d	-0.33210984
36	0xbe8d40af	-0.27588412
37	0xbe347008	-0.17620862
38	0x3db6a25d	0.08917687
39	0x3e85f9ea	0.26167232
40	0xbd882c49	-0.06649072
41	0x3ca17b55	0.01971213
42	0xbeea5838	-0.4577043
43	0x3d5e2f2a	0.054244198
44	0x3df272df	0.11838316
45	0x3d127241	0.035753492
46	0x3e669ca3	0.2252069
47	0x3dc3eac7	0.095662646
48	0x3e48af7a	0.19598189
49	0x3e5bdaaa	0.21470132
50	0xbe808d20	-0.2510767
51	0xbe1ab1a8	-0.15106833
52	0x3d89449a	0.06702538
53	0xbe2defa3	-0.16985945
54	0xbe50979c	-0.20370334
55	0x3e89bfb7	0.2690408
56	0x3de5eb1b	0.112264834
57	0xbe12e03d	-0.14343353
58	0x3d8a6aae	0.06758629
59	0xbec17100	-0.37781525
60	0xbdf14739	-0.11781163
61	0xbd902007	-0.07037359
62	0xbe719ee3	-0.23595767
63	0xbdf369c6	-0.11885409
64	0x3e19ace9	0.15007366
65	0xbe214e05	-0.15752418
66	0xbe4d0bc7	-0.20024024
67	0x3de8fd3f	0.11376428
68	0x3cf0da46	0.029400956
69	0xbcafe93b	-0.021473518
70	0x3e52b263	0.20575862
71	0xbea172e5	-0.3153297
72	0xbe934521	-0.2876368
73	0x3c8cd725	0.017192433
74	0xbe6cc31d	-0.23121305
75	0xbe123167	-0.14276658
76	0xbe43a925	-0.19107492
77	0xbdb5a3c3	-0.08869126
78	0x3e03b737	0.1286286
79	0x3e76624c	0.24060935
80	0x3e915331	0.28383783
81	0xbec0de55	-0.37669626
82	0xbe8922ec	-0.26784456
83	0xbdf36874	-0.11885157
84	0xbdb48451	-0.088143
85	0x3e31be9f	0.17357872
86	0x3e4fd111	0.20294596
87	0x3e177b8a	0.1479322
88	0xbe3e76d9	-0.18600024
89	0xbe5f68de	-0.21817347
90	0xbe74ce64	-0.23906857
91	0x3c4c05fa	0.012452597
92	0x3e672f0b	0.22576539
93	0xbea26417	-0.31716987
94	0xbe910d0f	-0.28330275
95	0x3d80897c	0.06276223
96	0x3dfe63c8	0.124213755
97	0x3e7e29d5	0.24820645
98	0xbc835398	-0.016031072
99	0x3e8f65da	0.28007394
100	0x3e28cb51	0.16483809
101	0x3e56ca1b	0.20975535
102	0xbcb7dea4	-0.02244503
103	0xbdb6a4a6	-0.08918123
104	0x3e120b93	0.14262228
105	0x3e5971b4	0.2123478
106	0x3dbcdd61	0.09221912
107	0xbe741cd9	-0.2383913
108	0x3e9f2529	0.31083038
109	0x3e6aacfa	0.22917548
110	0x3cfe52d8	0.031045362
111	0xbe5e5173	-0.21710758
112	0xbec50d00	-0.3848648
113	0x3e102747	0.14077483
114	0xbe51c523	-0.20485358
115	0xbe16d2a5	-0.14728792
116	0xbe926bc1	-0.28597835
117	0x3d454029	0.04815689
118	0x3ded5039	0.11587567
119	0x3d563c5c	0.052303657
120	0x3e1bb41b	0.15205424
121	0xbe5b56ba	-0.21419802
122	0xbe1a86dd	-0.15090509
123	0xbea50ddd	-0.3223714
124	0xbe6d2404	-0.2315827
125	0xbe93d753	-0.28875217
126	0x3dec5142	0.11538936
127	0x3c88761d	0.016657883
128	0xbdc6414b	-0.096804224
129	0xbef56312	-0.47927147
130	0xbd692739	-0.05692217
131	0xbea83e4e	-0.32860035
132	0xbdd75d1e	-0.105158076
133	0x3d04c83b	0.032417517
134	0xbe49d446	-0.19709882
135	0xbe65bfeb	-0.22436492
136	0xbe5925a1	-0.2120576
137	0x3e5f1190	0.21784043
138	0x3e1a4ee8	0.15069163
139	0xba5deeb7	-0.0008466052
140	0x3e9e54d4	0.30924094
141	0xbe6a9fa9	-0.22912468
142	0x3e4859ae	0.1956546
143	0x3dda3b9f	0.10655903
144	0x3de772ae	0.1130117
145	0xbe3c50d0	-0.18390203
146	0xbe733253	-0.23749666
147	0x3b86bb73	0.004111701
148	0x3cf8d21f	0.030373631
149	0x3dd1fa92	0.102528706
150	0xbe342f70	-0.17596221
151	0xbc15ef76	-0.00915133
152	0xbf1a1b4f	-0.6019792
153	0xbe56b001	-0.20965578
154	0x3d7191ed	0.058977056
155	0xbe88e0ed	-0.26734105
156	0xbe9c8d8e	-0.30576748
157	0x3d78656e	0.060643606
158	0x3db5c5cd	0.08875618
159	0xbe0eb3c8	-0.13935769
160	0xbe2adfe4	-0.1668697
161	0x3d9e114d	0.077181436
162	0x3daf92db	0.08572932
163	0xbe5822ca	-0.21107021
164	0x3dc9e049	0.09857232
165	0x3c2d9ebc	0.010596927
166	0xbeb66cb3	-0.35629806
167	0xbeb6da0f	-0.3571324
168	0xbec60378	-0.3867452
169	0xbe6e7049	-0.23285021
170	0x3d4f3b99	0.050593946
171	0x3e2ba0ab	0.16760509
172	0x3e4e7f0d	0.20165654
173	0xbe00fb57	-0.12595879
174	0xbdb95217	-0.090488605
175	0x3ebd43c7	0.36965773
176	0xbd4ba170	-0.049714506
177	0xbd2980f1	-0.041382734
178	0xbd177ce8	-0.036984354
179	0xbe9859a0	-0.29755878
180	0x3ea2cef5	0.3179852
181	0x3d95a18b	0.073062025
182	0xbd53f6f4	-0.051749185
183	0x3e49e9cd	0.19718094
184	0xbd146579	-0.036229584
185	0x3ce0f1b4	0.027459003
186	0x3dcca123	0.09991672
187	0x3e9892ba	0.29799443
188	0x3e038321	0.1284299
189	0x3cb165c6	0.021654975
190	0x3e4c4f42	0.1995211
191	0x3cd5eb15	0.026113072
192	0xbe50d386	-0.2039319
193	0x3e326160	0.17419958
194	0xbe3d9103	-0.18512349
195	0x3db0c4f2	0.08631314
196	0xbe5b5bf4	-0.21421796
197	0xbe40f54d	-0.18843575
198	0xbd2ed901	-0.04268742
199	0xbedee964	-0.43537438
200	0xbded01b9	-0.11572594
201	0xbdfbc2c4	-0.12293008
202	0xbe093b22	-0.13401464
203	0xbf199ed8	-0.60008
204	0x3e688f6c	0.22710961
205	0x3de55e1f	0.11199593
206	0x3e1dcd7f	0.15410422
207	0x3cc40ea4	0.023932762
208	0xbe9fbf92	-0.31200844
209	0xbe54d85c	-0.2078566
210	0xbe8b26e8	-0.2717812
211	0x3db9115d	0.09036515
212	0xbcbda5d6	-0.023150366
213	0xbc93e276	-0.01805232
214	0xbdbdec2a	-0.0927356
215	0x3d97cfba	0.074126676
216	0x3e220947	0.15823852
217	0x3e2df08e	0.16986296
218	0xbcd19192	-0.025582109
219	0x3d983c97	0.074334316
220	0x3d963cfe	0.07335852
221	0xbe7bad3c	-0.24577802
222	0xbed542b7	-0.41652462
223	0xbe3c9c76	-0.1841906
224	0xbe1fc541	-0.1560259
225	0x3e93defd	0.28881064
226	0x3e0dec7f	0.13859747
227	0xbed39920	-0.41327763
228	0xbe804e62	-0.250598
229	0xbd3795a1	-0.04482043
230	0x3e86d1de	0.2633199
231	0xbea5206a	-0.32251292
232	0x3b3b02e8	0.0028535668
233	0x3e7e6794	0.248442
234	0xbd2d3923	-0.042290818
235	0xbe74625c	-0.23865646
236	0xbeb84eda	-0.3599766
237	0x3e3028fa	0.17203131
238	0xbda614e5	-0.08109454
239	0xbe06b04a	-0.13153186
240	0xbea1c6e2	-0.31597048
241	0x3e7e5d87	0.24840365
242	0xbe7fdd48	-0.24986756
243	0x3e56f252	0.20990875
244	0xbd219aab	-0.039454143
245	0xbe8c60e2	-0.27417666
246	0xbe60f49f	-0.21968316
247	0x3dfb153e	0.12259911
248	0xbe9af3f6	-0.30264252
249	0xbd9bf533	-0.076151274
250	0xbe189766	-0.14901504
251	0x3e8953ce	0.2682175
252	0xbeaf2f5e	-0.34215826
253	0xbea80ed3	-0.3282381
254	0xbe3c2b3a	-0.18375865
255	0xbd9df84c	-0.077133745

bn2.weight f4 [32]
0	0x3f70b0d9	0.9401985
1	0x3facef5b	1.3510545
2	0x3fa27bc3	1.2694019
3	0x3fa36ae0	1.2766991
4	0x3f9fc9f6	1.2483509
5	0x3f95940c	1.1685805
6	0x3f641c5b	0.89105767
7	0x3fb8575b	1.4401659
8	0x3fbbda75	1.4676043
9	0x3ff82559	1.9386398
10	0x3fa5440e	1.2911394
11	0x3f6cd0a1	0.9250584
12	0x3fa15846	1.2605064
13	0x3fb1bf82	1.3886569
14	0x3f9a1153	1.2036537
15	0x3f9e9139	1.2388068
16	0x3f8e8cc6	1.1136711
17	0x3f8b3db4	1.0878205
18	0x3fc19a2b	1.5125173
19	0x3f8a7f5d	1.0820118
20	0x3f5b8cf9	0.8576198
21	0x3fbe6094	1.4873223
22	0x3f9e35fb	1.2360224
23	0x3f808d7a	1.0043175
24	0x3fc41a9f	1.5320624
25	0x3fbe60dd	1.487331
26	0x3f8b2d68	1.0873232
27	0x3f76a730	0.9634886
28	0x3f9932ab	1.1968588
29	0x3f9c512f	1.2212275
30	0x3f5ea697	0.86972946
31	0x3fb4d45c	1.4127307

bn2.bias f4 [32]
0	0x3ebc1cac	0.36740625
1	0x3ce7ce2f	0.028296558
2	0x3e533ba1	0.20628215
3	0x3ec5c58f	0.38627288
4	0x3e648e06	0.22319803
5	0x3e811654	0.25212348
6	0x3f11c10b	0.56935185
7	0x3df2ac4f	0.118492715
8	0x3e085cdf	0.13316678
9	0x3e911133	0.28333434
10	0x3e1c7d1d	0.15282102
11	0x3eadcbf2	0.3394466
12	0xbd959b2f	-0.073049895
13	0xbcc7f1ca	-0.024407286
14	0x3e7185f8	0.23586261
15	0x3d39a540	0.04532361
16	0x3e34a258	0.17640054
17	0x3d3eb76a	0.046561636
18	0x3ea9158b	0.33024248
19	0x3dd727c6	0.10505633
20	0x3e58e6d2	0.21181801
21	0x3e7426ad	0.23842879
22	0x3e4ddb0e	0.20103094
23	0x3e98a936	0.29816598
24	0x3e74b066	0.23895416
25	0x3e4b1f44	0.19836146
26	0x3d974494	0.07386127
27	0x3ede4162	0.43409258
28	0x3ef71594	0.4825865
29	0xbd0fc297	-0.035097685
30	0x3e5b7566	0.21431503
31	0x3e69245c	0.22767776

bn2.running_mean f4 [32]
0	0x3f42a273	0.7602913
1	0xbf5bfcd4	-0.8593266
2	0xbebd2068	-0.36938787
3	0xbeb8f914	-0.36127532
4	0xbec3b5fb	-0.38224778
5	0xbf0a814f	-0.5410356
6	0x3f3ca582	0.73690045
7	0xbf4e0935	-0.804828
8	0xbf0cab45	-0.54948837
9	0xbf7e116f	-0.9924535
10	0xbef66150	-0.4812112
11	0x3ea9a2f3	0.33132133
12	0xbf363d65	-0.7118743
13	0xbee0884b	-0.43853983
14	0xbea3ce36	-0.31993264
15	0xbf471d2a	-0.77778876
16	0xbc128974	-0.008943904
17	0x3de3cb8f	0.1112281
18	0xbf11d4a4	-0.5696509
19	0xbf37f156	-0.71852624
20	0x3e2879aa	0.16452661
21	0xbf39aa97	-0.72525924
22	0xbd9132c4	-0.07089761
23	0xbea403d3	-0.32034168
24	0xbf1cb17a	-0.6120831
25	0xbf463762	-0.7742826
26	0xbf369a22	-0.7132894
27	0x3c519856	0.012792667
28	0xbea133b3	-0.31484756
29	0xbefc1474	-0.49234354
30	0x3ea45ff8	0.32104468
31	0xbeebd8cf	-0.4606385

bn2.running_var f4 [32]
0	0x3f49f71b	0.7889268
1	0x3f1cc9e3	0.61245555
2	0x3f199a43	0.6000101
3	0x3e83771c	0.2567681
4	0x3ea5c462	0.3237639
5	0x3edd0ca8	0.43173718
6	0x3f16cfc0	0.5891075
7	0x3f1029b6	0.56313646
8	0x3e81169e	0.25212568
9	0x3f6f6c69	0.93524796
10	0x3e6d07c1	0.23147489
11	0x3e697b86	0.22801027
12	0x3f11a14f	0.5688676
13	0x3f21a403	0.6314089
14	0x3eddaed6	0.43297452
15	0x3f448357	0.7676291
16	0x3f0996ed	0.5374592
17	0x3f21fe7c	0.6327894
18	0x3ef34158	0.4751079
19	0x3f8d280d	1.1027848
20	0x3ebfcdbf	0.3746166
21	0x3f2a5fa3	0.6655218
22	0x3e8e3d75	0.27781263
23	0x3f0d4e44	0.5519755
24	0x3ec5daff	0.38643643
25	0x3f3d1099	0.7385345
26	0x3f83c6d4	1.0295053
27	0x3e988ef6	0.2979657
28	0x3ec68407	0.38772604
29	0x3ef59e0e	0.4797215
30	0x3eca09ed	0.39460698
31	0x3ef72378	0.48269248

conv3.bias f4 [64]
0	0x3bea451d	0.007149352
1	0x3ce649e1	0.0281114
2	0x3bf63252	0.007513323
3	0xbd200ace	-0.039072804
4	0xbd3b21c2	-0.04568649
5	0xbc8b5320	-0.01700741
6	0x3c8654fe	0.01639795
7	0x3d05f3b8	0.03270313
8	0x3a0bc2d9	0.0005331464
9	0x3bbe0aca	0.005799626
10	0x3af23e57	0.0018481713
11	0x3cd2b6cc	0.02572193
12	0x3a9da2ee	0.0012026706
13	0xbca4dafb	-0.02012395
14	0xbb8100d1	-0.003936865
15	0xbb463a95	-0.003024732
16	0xbbeb3c42	-0.007178814
17	0x3c310767	0.0108049875
18	0xbcd70542	-0.026247624
19	0x3d2d8ebb	0.042372447
20	0x3c684a3f	0.014177858
21	0xbd1ac671	-0.037786905
22	0xbc832962	-0.016010944
23	0xbd5d7be6	-0.054073237
24	0xbb425e8f	-0.0029658412
25	0xbb630820	-0.0034642294
26	0xbd017c88	-0.031612903
27	0x3c47ad28	0.01218728
28	0xbc2c0520	-0.010499269
29	0xbcf5204b	-0.029922625
30	0xbcb453cb	-0.022012612
31	0x3cfd911a	0.030952979
32	0xbc6f10a1	-0.014591367
33	0xbd357b68	-0.044307142
34	0xbc78f687	-0.015195495
35	0xbd1d3606	-0.0383816
36	0xbce8dc66	-0.028425407
37	0xbd488c3b	-0.04896186
38	0x3d07eb2f	0.033183273
39	0x3c36f665	0.0111671435
40	0xbcf39ee3	-0.029738849
41	0xbbdbfa02	-0.006713153
42	0xbaf84332	-0.0018940924
43	0xbbeb9422	-0.0071892897
44	0xbc6b9ef5	-0.01438116
45	0x3d3a7136	0.045518123
46	0x3d0776d8	0.033072323
47	0xbc431676	-0.011907211
48	0xbd0e1499	-0.034687612
49	0x3bc8c19d	0.006126596
50	0x3c2669a8	0.010157026
51	0x3badf808	0.0053091086
52	0xbc430e6d	-0.011905295
53	0xbc860358	-0.016359016
54	0x3a4087b7	0.0007344442
55	0x3cde7f30	0.027160257
56	0xbb869f47	-0.004108343
57	0xbb249495	-0.0025112976
58	0x3d0eb3de	0.034839503
59	0x3c80ec31	0.015737625
60	0x3b5ac715	0.0033382822
61	0xbc9e6879	-0.019336926
62	0x3c7a9db2	0.015296387
63	0x3d7bc793	0.061469626

conv3.lin.weight f4 [64, 32]
0	0x3ca563ab	0.020189127
1	0xbe3cf95c	-0.18454498
2	0xbe3a7639	-0.18209161
3	0xbda4c639	-0.080456205
4	0xbe43fcc6	-0.19139394
5	0xbe7bfcf4	-0.24608213
6	0x3dfb965f	0.122845404
7	0xbed6078b	-0.4180263
8	0x3e137f2c	0.14403981
9	0xbda8e4a3	-0.08246734
10	0xbe6c8853	-0.23098879
11	0xbdb40bc5	-0.08791307
12	0xbe37a545	-0.17934139
13	0xbdf429f3	-0.11922064
14	0xbd0367e3	-0.032081496
15	0xbe285490	-0.16438508
16	0xbe8b8afa	-0.27254468
17	0xbe58d79b	-0.21175997
18	0xbe27f9c7	-0.16403876
19	0x3e012cd5	0.12614758
20	0x3e3a5e80	0.18200111
21	0xbd115804	-0.03548433
22	0x3d99c063	0.07507398
23	0x3e3a99c3	0.18222718
24	0x3e548d72	0.20757082
25	0xbe3fa0fd	-0.18713756
26	0xbdb6b894	-0.08921924
27	0x3dcf6b61	0.10127903
28	0xbddc920b	-0.10770043
29	0x3e313996	0.17307124
30	0xbd819bcf	-0.06328546
31	0xbe9e30a9	-0.308965
32	0xbe570e2b	-0.21001498
33	0x3c763832	0.015028046
34	0xbe2f26e2	-0.17104676
35	0xbd3222d9	-0.043490265
36	0x3c7dc286	0.0154882725
37	0xbcd66a74	-0.026173808
38	0xbe962ee0	-0.29332638
39	0xbe2c450b	-0.16823213
40	0xbd8615ef	-0.06547152
41	0xbdd635c5	-0.104594745
42	0x3dcba7fe	0.09944151
43	0xbc8d400f	-0.01724246
44	0xbdd77e64	-0.10522154
45	0x3deb2cbf	0.11483144
46	0xbe877b18	-0.264611
47	0x3c97d39b	0.018533519
48	0xbd5446fd	-0.051825512
49	0x3e100ea5	0.14068086
50	0xbe5faf5f	-0.21844243
51	0x3dca072f	0.098646514
52	0xbda552c1	-0.08072425
53	0xbc94667e	-0.018115278
54	0xbeb284b5	-0.34866872
55	0x3e51585b	0.20443861
56	0x3dcbb086	0.099457785
57	0xbd56e8a3	-0.052467953
58	0xbd5241f7	-0.05133244
59	0x3d653f20	0.055968404
60	0x3d7c8a48	0.061655313
61	0xbe26a46f	-0.16273664
62	0x3e9f3c9a	0.31100923
63	0x3d5e5620	0.054281354
64	0x3db32f86	0.08749299
65	0xbce87080	-0.028373957
66	0x3d4c3701	0.049857143
67	0x3d2d970f	0.04238039
68	0x3e6a33bc	0.22871298
69	0xbd9870d4	-0.07443395
70	0x3cd6d1ca	0.026223082
71	0x3ca12c78	0.019674525
72	0x3df43f47	0.11926132
73	0xbea6d98b	-0.32587847
74	0xbecc6ab1	-0.3992515
75	0xbc8e1af7	-0.017346842
76	0x3e6192b6	0.22028622
77	0x3d9aa039	0.07550091
78	0x3d3bf143	0.045884382
79	0x3e209054	0.15680057
80	0x3dacc69c	0.08436319
81	0x3da0fa85	0.07860283
82	0xbdbbbe2d	-0.091671325
83	0x3dc5647b	0.09638306
84	0x3d078957	0.03308996
85	0x3e4e312e	0.20135948
86	0xb9487c57	-0.00019119807
87	0xbe4c1ecd	-0.19933625
88	0x3e003fa4	0.12524277
89	0x3d9eab4c	0.07747516
90	0xbd655490	-0.05598885
91	0x3de38ab7	0.11110442
92	0x3e4a026a	0.19727483
93	0xbe4d6f12	-0.20061901
94	0xbae42632	-0.0017406403
95	0xbe326f13	-0.17425184
96	0xbe332062	-0.17492822
97	0xbe2b6171	-0.1673639
98	0x3e00c9a1	0.12576915
99	0x3e2d7b10	0.16941476
100	0xbe067047	-0.13128768
101	0x3cc6a9cb	0.024250885
102	0xbd6437ef	-0.055717405
103	0x3e8b947a	0.27261716
104	0xbcb62218	-0.022233054
105	0xbe731093	-0.23736791
106	0xbc86b160	-0.016442
107	0xbe1284af	-0.14308427
108	0xbd2d9c7e	-0.04238557
109	0xbdb9731d	-0.09055159
110	0x3dbdd290	0.09268677
111	0xbe8df785	-0.27727905
112	0xbe09dd15	-0.13463242
113	0x3e1ad54c	0.15120429
114	0x3d96dd08	0.07366377
115	0x3df75d1b	0.12078305
116	0x3c849391	0.016183646
117	0xbd855cea	-0.065118626
118	0x3e3a2d3f	0.18181323
119	0x3d4fb776	0.05071207
120	0xbd2ee75e	-0.042701118
121	0xbe64ab96	-0.2233108
122	0x3da4b340	0.08042002
123	0xbd6f082b	-0.0583574
124	0xbe2d6669	-0.16933598
125	0xbdc3a304	-0.09552577
126	0xbe429a6c	-0.1900422
127	0xbdaab20c	-0.08334741
128	0xbe467a73	-0.19382648
129	0xbd5e4437	-0.054264273
130	0x3d09ea40	0.033670664
131	0xbd96bd0a	-0.07360275
132	0x3df474c3	0.11936333
133	0xbe0b7148	-0.13617432
134	0x3e108ae5	0.14115484
135	0x3dc43b66	0.09581642
136	0xbe33c27e	-0.17554662
137	0xbe2b916c	-0.16754693
138	0xbc80333c	-0.01564943
139	0xbe042bcb	-0.1290733
140	0xbe154395	-0.14576562
141	0xbdacf6af	-0.08445489
142	0x3d229ef4	0.03970237
143	0xbe0ba37e	-0.13636586
144	0x3d0d68d4	0.0345238
145	0xbda8e2e7	-0.08246403
146	0x3e2328d4	0.15933543
147	0xbdc3900d	-0.0954896
148	0x3e2df3db	0.16987555
149	0xbc8f070f	-0.01745942
150	0xbda79112	-0.08181967
151	0x3d39ff4b	0.045409482
152	0xbcd050fd	-0.025429243
153	0x3b70b6c0	0.0036730021
154	0x3e2870f3	0.16449337
155	0xbe72de08	-0.2371751
156	0x3d7d52c9	0.06184653
157	0x3dee63bf	0.11640119
158	0x3dbba716	0.091627285
159	0xbe56a0c4	-0.20959765
160	0xbe3382ea	-0.17530409
161	0xbe795a86	-0.24350938
162	0xbe054b82	-0.13017085
163	0xbb73b0f8	-0.003718434
164	0xbd794548	-0.060857087
165	0x3e7d0be2	0.24711564
166	0x3db6402c	0.088989586
167	0xbdb55a33	-0.08855095
168	0x3d9f7fe3	0.07788064
169	0x3db177b8	0.08665413
170	0x3e1757b0	0.14779544
171	0x3e2354ae	0.15950271
172	0xbd29d087	-0.041458633
173	0xbd2dc496	-0.042423807
174	0x3e087932	0.13327482
175	0x3da906ac	0.08253226
176	0x3d2024e7	0.039097693
177	0xbdbd31b0	-0.09237993
178	0xbcb51c43	-0.022108203
179	0x3e45d8ab	0.19320934
180	0xbd7a8659	-0.06116328
181	0xbbb9c6dc	-0.005669458
182	0x3e0041dd	0.12525125
183	0xbe30c64f	-0.17263149
184	0xbe131bec	-0.1436612
185	0x3e1d8f53	0.15386705
186	0xbdabdadf	-0.08391356
187	0xbe3e0dc6	-0.18559942
188	0xbe079d9e	-0.1324372
189	0x3e0d036f	0.13770841
190	0x3d87825c	0.06616661
191	0xbdb5a5bb	-0.08869501
192	0x3cb7011d	0.022339398
193	0xbe611c39	-0.21983422
194	0x3dcbbe9e	0.09948467
195	0x3e66e131	0.22546841
196	0x3cb604c1	0.022219064
197	0x3e716a12	0.23575619
198	0x3d30b7d0	0.043144047
199	0xbe368c25	-0.17826898
200	0x3df9c856	0.12196414
201	0x3d895a9f	0.06706738
202	0xbeacba9c	-0.33736122
203	0xbe49fcaf	-0.19725297
204	0xbdc1d2a1	-0.094640024
205	0x3e6c6516	0.23085436
206	0x3c9bdd83	0.019026523
207	0x3e32d1e1	0.17462875
208	0x3d3bb3e3	0.04582585
209	0xbdbb3e77	-0.091427736
210	0x3d80b8f9	0.06285281
211	0x3ea72a68	0.3264954
212	0x3d136de9	0.03599349
213	0xbd51c157	-0.051209774
214	0xbe6b978c	-0.2300703
215	0x3d0e6793	0.034766745
216	0x3e8bb186	0.27283877
217	0xbdc4fca0	-0.09618497
218	0x3e91ab30	0.28450918
219	0xbe4949e3	-0.19657092
220	0xbe5b7ba4	-0.21433884
221	0x3db26347	0.08710342
222	0x3aa315ae	0.0012442374
223	0x3deebab9	0.11656708
224	0x3df2ee58	0.11861867
225	0x3e237df0	0.1596601
226	0x3d82082e	0.063492164
227	0x3c43ce74	0.011951078
228	0xbe9d6c7d	-0.30746832
229	0x3d152190	0.03640896
230	0x3dd951d7	0.10611313
231	0x3e0c42ec	0.13697404
232	0x3e097cec	0.1342656
233	0xbcdf063d	-0.027224654
234	0x3d9d0c1c	0.07668325
235	0xbde5917c	-0.112093896
236	0xbd40ca6f	-0.047068056
237	0xbe6c11d4	-0.23053676
238	0x3d5a40b9	0.05328438
239	0xbad46953	-0.0016205705
240	0x3e11b268	0.14228213
241	0xbd84cf1c	-0.064848155
242	0xbe6a04a6	-0.22853336
243	0x3d7ab56d	0.061208177
244	0xbe401c9e	-0.18760917
245	0x3e4125cd	0.18862076
246	0x3d03ee6c	0.0322098
247	0xbe3cbb4a	-0.1843082
248	0xbd4f379d	-0.050590146
249	0x3d2bb954	0.04192479
250	0x3e773bea	0.24143949
251	0xbe67065a	-0.22561017
252	0xbe6c67d0	-0.23086476
253	0xbd396e65	-0.045271296
254	0xbd36ba47	-0.04461124
255	0x3e110a48	0.14164078

bn3.weight f4 [64]
0	0x3f839d78	1.0282431
1	0x3fbc4010	1.470705
2	0x3f61b3ee	0.88165176
3	0x3fae9115	1.3638026
4	0x3f96421f	1.1738929
5	0x3f82a5fb	1.0206903
6	0x3f8463df	1.0342978
7	0x3fa31700	1.2741394
8	0x3fa266aa	1.268758
9	0x3f70cc3d	0.9406164
10	0x3fabd3a7	1.3423966
11	0x3faf4ac6	1.3694694
12	0x3fbd560e	1.4791887
13	0x3fb55d53	1.4169105
14	0x3f6d327f	0.92655176
15	0x3f8419e3	1.03204
16	0x3f9ddcaf	1.2332972
17	0x3fa21e5f	1.2665519
18	0x3f9c973b	1.2233652
19	0x3fa17703	1.2614444
20	0x3f7fddac	0.9994762
21	0x3fa84979	1.3147422
22	0x3f595395	0.8489316
23	0x3fdd629c	1.7295718
24	0x3f81cbce	1.0140321
25	0x3f94a80e	1.1613786
26	0x3f9515d1	1.1647283
27	0x3f9a6d47	1.2064599
28	0x3f839b31	1.0281736
29	0x3f8f3ef3	1.1191086
30	0x3fa02993	1.2512687
31	0x3fa20999	1.2659179
32	0x3f8ccb9e	1.0999639
33	0x3fa9a2da	1.3252823
34	0x3f917978	1.1365194
35	0x3f94065b	1.156444
36	0x3f7c6c8d	0.98603135
37	0x3f9381c3	1.1523975
38	0x3f7e77bf	0.9940147
39	0x3fae33eb	1.3609594
40	0x3fbbe743	1.467995
41	0x3fb64e6e	1.4242685
42	0x3fa2eea5	1.2729079
43	0x3f88b429	1.067998
44	0x3f7a837b	0.97856873
45	0x3f9ee5ea	1.2413914
46	0x3f9d107d	1.2270657
47	0x3fb78b90	1.4339466
48	0x3f9e0541	1.2345353
49	0x3f7a53ba	0.97784007
50	0x3fabcb34	1.3421388
51	0x3f8e0393	1.1094841
52	0x3f9613e0	1.1724815
53	0x3f4d626b	0.802283
54	0x3f8f34b1	1.1187955
55	0x3f9091ea	1.129453
56	0x3f93221d	1.1494786
57	0x3fc1cc1e	1.5140417
58	0x3fa0121e	1.2505529
59	0x3f846aa9	1.034505
60	0x3faf5d37	1.3700322
61	0x3f9e06bc	1.2345805
62	0x3f8d8bd9	1.1058303
63	0x3f8153ee	1.0103738

bn3.bias f4 [64]
0	0x3de301d5	0.11084334
1	0x3e6c1a0e	0.23056814
2	0x3e03e8de	0.128818
3	0x3e3b5d36	0.18297276
4	0x3e17fc65	0.14842375
5	0x3e724ddc	0.23662513
6	0x3e584d29	0.21123184
7	0xbce471c4	-0.027886279
8	0xbc138b63	-0.0090054
9	0x3e99e211	0.30055287
10	0x3c735ec2	0.014854135
11	0x3c8b8367	0.017030431
12	0xbb1c7c20	-0.0023877695
13	0x3dd34257	0.10315388
14	0x3ea341b6	0.3188607
15	0xbd8eb234	-0.06967583
16	0x3dd1be81	0.10241414
17	0x3e623d76	0.22093758
18	0x3d9a5fff	0.07537841
19	0x3e78cd17	0.24296986
20	0x3e09c5e0	0.1345439
21	0x3e4ca0e0	0.19983244
22	0x3e985755	0.2975413
23	0xbe4934ee	-0.19649097
24	0x3eedc7f1	0.46441606
25	0x3dcce134	0.100038916
26	0x3e07a634	0.13246995
27	0x3de1832a	0.11011346
28	0x3dfaf46f	0.12253653
29	0x3d6f8f86	0.058486484
30	0x3d2509e1	0.040292624
31	0x3e0890e4	0.13336521
32	0x3e13e6e7	0.14443551
33	0xbcc0a282	-0.02351499
34	0xbc85d36e	-0.01633617
35	0x3e1b9c43	0.15196328
36	0x3e9783a4	0.2959262
37	0x3e388389	0.18018927
38	0x3dcfde6e	0.10149847
39	0x3e3123a6	0.17298755
40	0x3b5c9ce7	0.0033662857
41	0x3ce529f0	0.027974099
42	0x3dfe5511	0.12418569
43	0x3d0ed99b	0.034875493
44	0x3e2642af	0.16236375
45	0x3d742468	0.059605032
46	0x3d1368ba	0.035988547
47	0x3e55b11f	0.20868348
48	0x3d65fd89	0.056149993
49	0x3e53fdda	0.20702305
50	0xbb132afc	-0.002245604
51	0x3e315ee4	0.17321354
52	0x3db66f0a	0.08907898
53	0x3f0642e8	0.5244584
54	0x3cc689ff	0.024235724
55	0x3d835976	0.06413548
56	0x3c9e4793	0.019321239
57	0x3c86f784	0.016475447
58	0x3e1f74ec	0.15571946
59	0x3e607468	0.21919405
60	0x3d837499	0.064187236
61	0x3db1f5d3	0.086894654
62	0x3e17b286	0.14814195
63	0x3d5bc1d2	0.05365164

bn3.running_mean f4 [64]
0	0xbf2c05d1	-0.67196375
1	0xbed1cf10	-0.4097829
2	0x3e28a17c	0.16467851
3	0xbead9742	-0.33904463
4	0xbe929c14	-0.28634703
5	0xbd6b1ae8	-0.057398707
6	0x3e1bd629	0.15218414
7	0xbdefe429	-0.1171344
8	0x3c4d6805	0.012537007
9	0x3ea09a6f	0.31367823
10	0xbe1ef992	-0.15524891
11	0xbe4ceca5	-0.20012148
12	0xbe1907bc	-0.14944357
13	0xbcaf58a5	-0.021404574
14	0x3f3c37e8	0.73522806
15	0x3e80f29e	0.25185102
16	0xbce752d3	-0.028237736
17	0xbde2cf9f	-0.11074757
18	0xbd8a6e42	-0.06759311
19	0x3e262d81	0.16228296
20	0x3e346ec8	0.17620385
21	0x3d94f3d1	0.07273067
22	0x3e13a32b	0.14417712
23	0xbed3c059	-0.41357687
24	0x3d7a9941	0.06118131
25	0x3e38d769	0.18050922
26	0x3e4a1019	0.19732703
27	0xbe3bcba6	-0.18339404
28	0xbd838908	-0.06422621
29	0xbeb55d3f	-0.35422704
30	0xbedd5ac7	-0.4323332
31	0x3e50080d	0.20315571
32	0x3c82a23d	0.015946502
33	0xbe9dba88	-0.30806375
34	0x3d570dae	0.05250328
35	0xbf089623	-0.5335409
36	0x3e687625	0.22701319
37	0xbdf87617	-0.12131899
38	0xbca4446b	-0.020052155
39	0xbe6ec0d1	-0.23315741
40	0xbd929f36	-0.07159273
41	0xbe8bd542	-0.2731114
42	0xbf21cee1	-0.632063
43	0xbe24ce92	-0.16094425
44	0x3e2d3e5b	0.16918318
45	0xbdf00256	-0.117191955
46	0x3dce2201	0.100650795
47	0xbe9a8092	-0.30176216
48	0xbeb294d2	-0.34879166
49	0x3edc41c7	0.43018934
50	0xbef24722	-0.47319895
51	0xbefd0a8e	-0.49422115
52	0xbed29612	-0.4113012
53	0x3eabb600	0.33537292
54	0xbdf393a8	-0.118933976
55	0xbecb6786	-0.3972742
56	0xbe65d585	-0.22444732
57	0xbe01ba3a	-0.12668696
58	0xbe504426	-0.20338497
59	0xbea3e28e	-0.32008785
60	0xbcf70e9d	-0.030158335
61	0x3e2db64d	0.16964073
62	0x3d8771e9	0.066135235
63	0x3e0deffb	0.13861077

bn3.running_var f4 [64]
0	0x3e25d54e	0.1619465
1	0x3e119dd8	0.14220369
2	0x3df0b82f	0.1175388
3	0x3debc7a1	0.115126856
4	0x3d812e20	0.06307626
5	0x3d375cac	0.044766113
6	0x3dba0bf1	0.09084309
7	0x3da6cde2	0.08144738
8	0x3d51612b	0.051118057
9	0x3e8a9f38	0.270746
10	0x3df1b776	0.118025705
11	0x3e385e64	0.18004757
12	0x3dbd2440	0.0923543
13	0x3dd7ac5d	0.105309226
14	0x3eae99e6	0.3410179
15	0x3e053750	0.13009381
16	0x3ded2021	0.11578394
17	0x3ddebfd8	0.10876435
18	0x3de6ee42	0.11275913
19	0x3eaf08dd	0.3418645
20	0x3db75d09	0.08953292
21	0x3e11b7de	0.14230296
22	0x3df80fe5	0.12112407
23	0x3e0c3fde	0.13696238
24	0x3e100e7f	0.1406803
25	0x3ddd315a	0.10800429
26	0x3e285583	0.1643887
27	0x3ebe21de	0.37135214
28	0x3d62c727	0.055365708
29	0x3dc66f9a	0.09689255
30	0x3e04ff5a	0.12988034
31	0x3e000c2f	0.12504648
32	0x3dc7cf45	0.097563304
33	0x3d68221f	0.056673165
34	0x3e2390e9	0.15973248
35	0x3ebc0763	0.36724386
36	0x3dacc310	0.08435643
37	0x3e04ec54	0.12980777
38	0x3e17a4eb	0.14809005
39	0x3dc57f5d	0.09643433
40	0x3e61fc2d	0.22068854
41	0x3e57a662	0.21059564
42	0x3e32d107	0.1746255
43	0x3e893a7f	0.2680244
44	0x3dea3317	0.11435526
45	0x3e465c33	0.19371109
46	0x3e5abd4e	0.21361277
47	0x3ec07de9	0.37596062
48	0x3dd9df46	0.10638289
49	0x3e18937e	0.14900014
50	0x3e096604	0.13417822
51	0x3e431ee9	0.1905476
52	0x3e22181a	0.15829507
53	0x3d9e3bda	0.077262595
54	0x3dbd4b44	0.092428714
55	0x3e22327f	0.15839575
56	0x3dedfd39	0.11620564
57	0x3df94047	0.12170463
58	0x3dd8cf2f	0.10586392
59	0x3e5598ac	0.20859021
60	0x3e094bb9	0.13407792
61	0x3ddebfce	0.108764276
62	0x3e8f1a48	0.27949739
63	0x3e1eb136	0.15497288

conv4.bias f4 [128]
0	0x3c117a24	0.008879218
1	0xbc108b66	-0.008822298
2	0xbc1d64dd	-0.009606567
3	0xbcd33a87	-0.025784744
4	0xbcb2ca48	-0.02182497
5	0xbcb6b6da	-0.022303987
6	0x3b3c4fda	0.0028734119
7	0x3a87d381	0.0010362716
8	0xbcf47aa6	-0.02984364
9	0xbba2a737	-0.004963781
10	0x3c3eb393	0.0116394935
11	0x3c9dfdc9	0.019286053
12	0xbb359dac	-0.0027712388
13	0xbcff6256	-0.03117482
14	0xbb5af614	-0.0033410834
15	0xbcde38d6	-0.02712671
16	0xbab61527	-0.0013891802
17	0xbb7b85b3	-0.0038379251
18	0x3cc2413e	0.02371275
19	0x3b95a985	0.0045673274
20	0x3cc3bb71	0.02389309
21	0xbc97e082	-0.01853967
22	0x3bb3c955	0.005486647
23	0xbc5a0672	-0.013307201
24	0xbce8d7fe	-0.028423306
25	0xbca22c16	-0.019796412
26	0xbca095cf	-0.019602684
27	0xbbaff154	-0.0053693447
28	0xbcc152fd	-0.023599142
29	0xbc5c88ce	-0.013460351
30	0x3aa47ab1	0.0012548772
31	0x3c21ca69	0.0098749185
32	0x3b851751	0.0040616174
33	0xbc234ba4	-0.009966765
34	0xbb71c136	-0.0036888844
35	0xbc03f57b	-0.008054133
36	0xbbde5c36	-0.0067858947
37	0xbbe549fb	-0.0069973445
38	0xbad1ec32	-0.0016015826
39	0xbc8cf53b	-0.017206779
40	0x3c9a900f	0.01886752
41	0xbc197fac	-0.009368818
42	0xbd3c5819	-0.045982454
43	0xbc367733	-0.011136818
44	0x3b2a313f	0.0025969294
45	0xbc22a145	-0.009926145
46	0x3c1d62e7	0.0096061
47	0xbc5bf283	-0.0134245185
48	0xbc2abadd	-0.010420528
49	0xbd31040e	-0.043216757
50	0xbc176d93	-0.009242433
51	0x3b88be37	0.004173066
52	0xbc04ecf4	-0.008113135
53	0x3c1046a4	0.008805905
54	0xbc319611	-0.010839001
55	0xbc228048	-0.00991828
56	0x3b0b69a1	0.0021272677
57	0x3b7f6188	0.0038968045
58	0x3ad0e535	0.001593745
59	0xbbd6da53	-0.006556788
60	0xbcadca87	-0.021214737
61	0x3b0b6e67	0.0021275522
62	0xbca6abfa	-0.020345677
63	0x3b639f72	0.0034732488
64	0x3a3a9a98	0.0007118373
65	0xbc007596	-0.007840535
66	0x3bb29333	0.0054496764
67	0xbc0c5f9c	-0.008567717
68	0x3c2026e3	0.009774896
69	0xbb8d4d4e	-0.004312194
70	0xbc913593	-0.017725741
71	0xbce56786	-0.028003465
72	0xbcd8fa89	-0.026486652
73	0x3c2251be	0.009907184
74	0xbc44d45a	-0.012013519
75	0x3cd3d827	0.025859905
76	0xbcad0787	-0.021121753
77	0xbdb01b9d	-0.08599017
78	0xbcfa0066	-0.030517768
79	0xbb52b7aa	-0.003215293
80	0xb8d1c810	-0.00010003161
81	0x3c2088c1	0.00979823
82	0x3c17ed12	0.009272831
83	0xbaadb368	-0.001325232
84	0xbc9d65da	-0.019213606
85	0xb9d0736b	-0.00039758845
86	0xbc2b18df	-0.010442941
87	0xbb5d5824	-0.003377446
88	0x3bab7edd	0.005233629
89	0xbb0dd41a	-0.0021641315
90	0xba898a0c	-0.0010493412
91	0xbc0dc680	-0.008653283
92	0xbc60e473	-0.013726342
93	0xbc45e5f6	-0.012078753
94	0xbc85f742	-0.016353253
95	0xbb8f5312	-0.0043739164
96	0xba45dedf	-0.0007548164
97	0x3b54e1cc	0.0032483218
98	0x3ce323f1	0.0277271
99	0xbd102123	-0.03518785
100	0xbd0aa968	-0.033852965
101	0xbc27fbde	-0.010252921
102	0x3bae2bbd	0.0053152726
103	0x3cba648a	0.022753019
104	0xbc915b36	-0.017743688
105	0xbc3ff1cb	-0.011715363
106	0x3d04344f	0.032276448
107	0xbbfb305a	-0.007665676
108	0xbb86389b	-0.0040961034
109	0x3a913e20	0.0011081137
110	0xbbef23d8	-0.007297974
111	0xbbe797ab	-0.007067641
112	0xb99eb178	-0.00030268333
113	0x3c219638	0.009862475
114	0x3a6f7593	0.00091346464
115	0xba5d6260	-0.000844514
116	0xbbf72c2c	-0.0075431075
117	0xbb6b4865	-0.0035901305
118	0xbc91ed39	-0.017813312
119	0x3b7eb90d	0.0038867623
120	0x3cb24ef5	0.021766165
121	0x3c285da2	0.01027623
122	0x3a4bfc34	0.00077814166
123	0xbb228eb3	-0.0024804294
124	0x3bf0b845	0.0073461854
125	0xbcadf211	-0.02123359
126	0x3b47e6dc	0.0030502593
127	0xbd2ed1d5	-0.04268058

conv4.lin.weight f4 [128, 64]
0	0x3d18fe0e	0.03735166
1	0xbd8dac77	-0.06917661
2	0xbe166ebd	-0.14690681
3	0xbdc13e67	-0.094357304
4	0xbd8f212e	-0.069887504
5	0x3d5c4deb	0.053785246
6	0x3dd5f7a5	0.10447625
7	0x3cbafda0	0.022826016
8	0x3d2c16e2	0.04201401
9	0xbbfcce5a	-0.0077150287
10	0x3e67b6bb	0.226283
11	0x3d41ea78	0.047342747
12	0x3ce8f752	0.028438244
13	0x3dd92d1d	0.10604308
14	0x3c8776c6	0.016536128
15	0x3d9e2dfa	0.07723613
16	0x3ba87d8e	0.0051419204
17	0xbddfee5c	-0.10934135
18	0xbc3999b4	-0.01132815
19	0x3e433c42	0.19065955
20	0x3d561c60	0.052273154
21	0xbe0988b0	-0.13431048
22	0x3ce6d30d	0.028176809
23	0x3cba29d8	0.02272503
24	0x3d0400bb	0.03222726
25	0xbddd2a91	-0.107991345
26	0x3e193fd0	0.14965749
27	0x3d125840	0.035728693
28	0xbda6e0b1	-0.08148325
29	0xbe21b8ba	-0.15793124
30	0x3e81f022	0.2537852
31	0x3e1d5d9f	0.15367745
32	0xbde0ecab	-0.10982641
33	0x3dd461ab	0.10370191
34	0xbd7a0da6	-0.061048172
35	0x3dd5aee6	0.1043375
36	0xbc31bea2	-0.010848673
37	0x3d9e83e6	0.077400014
38	0xbda08b09	-0.07839019
39	0x3e16f452	0.14741638
40	0x3d999c8f	0.07500564
41	0x3ddfc597	0.10926359
42	0x3ca4ef83	0.02013374
43	0xbd06002e	-0.032715015
44	0xbd40c5d1	-0.047063652
45	0x3c600563	0.013673159
46	0x3c9346cc	0.017978095
47	0xbe83eb20	-0.25765324
48	0xbe9fe0cc	-0.31226194
49	0x3d220dee	0.039564066
50	0x3e195a30	0.1497581
51	0x3cb8a7a2	0.022540871
52	0x3d92497c	0.07142922
53	0x3da9e9e3	0.082965635
54	0xbdd176c4	-0.10227731
55	0x3dc6d9db	0.097095214
56	0xbe1a3ba2	-0.1506181
57	0xbcf4bee4	-0.02987618
58	0x3b4e0df8	0.0031441431
59	0xbd57fc82	-0.052731045
60	0x3df689b9	0.12037987
61	0x3cdb0649	0.026736395
62	0x3d220dd2	0.03956396
63	0xbddd382c	-0.108017296
64	0x3ce8db31	0.028424831
65	0xbc0a1635	-0.008428146
66	0xbd1e6a08	-0.038675338
67	0xbde34646	-0.11097388
68	0x3e10b7ca	0.1413261
69	0xbd0b42d5	-0.033999283
70	0x3c995c5e	0.018720802
71	0x3daa1971	0.08305634
72	0x3d056854	0.0325702
73	0x3e36d699	0.178553
74	0xbcd968de	-0.026539262
75	0xbdc1afb6	-0.09457342
76	0xbda7e3d4	-0.08197752
77	0x3e2e4542	0.17018607
78	0xbcc4b17a	-0.024010409
79	0xbc8d76e7	-0.017268611
80	0x3e09e2de	0.13465449
81	0x3c34929b	0.011021282
82	0x3b303f9c	0.0026893383
83	0x3e32ff47	0.17480193
84	0xbe6f1ddc	-0.23351234
85	0x3d41fdfb	0.047361355
86	0xbdd27501	-0.10276223
87	0xbcf37425	-0.029718468
88	0xbdd59b0c	-0.104299635
89	0xbe68e54b	-0.22743718
90	0xbd8d03de	-0.06885503
91	0x3d83dd9c	0.06438753
92	0xbc19a136	-0.009376815
93	0x3d130745	0.035895605
94	0xbda52b43	-0.08064892
95	0x3d3334c0	0.04375148
96	0xbde52e79	-0.111905046
97	0xbd261d44	-0.040555254
98	0xbdabcda7	-0.083888344
99	0xbda2a103	-0.07940867
100	0xbdef1ee1	-0.116758116
101	0x3e5a645d	0.21327348
102	0xbd3e82cd	-0.04651146
103	0xbe3c285a	-0.18374768
104	0xbdc4a1ba	-0.096011594
105	0xbda41928	-0.08012611
106	0x3ddc1d02	0.1074772
107	0x3e0e78d2	0.13913277
108	0xbcdc0b4b	-0.026860854
109	0x3ddfab2d	0.10921321
110	0xbba7d08f	-0.0051212977
111	0x3e3c6e92	0.18401554
112	0xbda10748	-0.07862717
113	0xbde62f83	-0.11239531
114	0xbe1765b9	-0.14784898
115	0x3e354a37	0.17704092
116	0x3e4eeb79	0.20207013
117	0xbc3ccd5f	-0.011523574
118	0x3e19f026	0.15033016
119	0x3e14b6bc	0.14522833
120	0x3e5241e0	0.20532942
121	0x3c51ba28	0.012800731
122	0xbe0fda66	-0.14048156
123	0xbe2b3cda	-0.16722432
124	0xbe0149a8	-0.12625754
125	0xbddebf0f	-0.10876285
126	0xbd5ec398	-0.05438575
127	0x3d3767ad	0.044776607
128	0x3c70113b	0.014652546
129	0x3da5d0f5	0.08096496
130	0xbe74803f	-0.23877047
131	0x3e396e9c	0.181086
132	0xbe0709b3	-0.13187294
133	0x3ccf45b6	0.025301795
134	0xbb699ddd	-0.0035647072
135	0x3d07a506	0.033116363
136	0x3da0a1db	0.078433715
137	0x3da26b80	0.0793066
138	0x3d251f82	0.04031325
139	0xbcdd288a	-0.02699687
140	0xbe7e97cc	-0.24862593
141	0xbd81635f	-0.06317782
142	0xbdfde633	-0.12397423
143	0x3cfe6bf1	0.03105733
144	0xbdfe3987	-0.12413316
145	0x3da8a2f2	0.08234204
146	0xbafb681f	-0.0019180811
147	0xbcb10c57	-0.02161233
148	0x3d7bb8ad	0.061455417
149	0x3d4166f0	0.04721731
150	0xbdecc0e0	-0.115602255
151	0x3d3efec9	0.0466297
152	0xbe408011	-0.18798853
153	0x3ca5c4b8	0.020235404
154	0x3c98ef2d	0.018668735
155	0xbcaaa8a1	-0.020832362
156	0x3da47e36	0.08031885
157	0x3e86f0fc	0.2635573
158	0xbe2ae699	-0.16689529
159	0xbba3b90f	-0.004996426
160	0xbe5e4cc4	-0.21708971
161	0x3d8cc8c7	0.06874233
162	0xbd65f48f	-0.056141432
163	0x3defb873	0.11705103
164	0xbd296315	-0.041354258
165	0xbc54d365	-0.0129898535
166	0xbc0478a2	-0.008085402
167	0xbd8c2492	-0.06842913
168	0xbdd06f97	-0.10177534
169	0xbdd03593	-0.101664685
170	0xbe24b68b	-0.1608526
171	0x3ddbe6a4	0.107373506
172	0xbc7425e6	-0.014901614
173	0x3d9a85cc	0.07545051
174	0x3d811a80	0.063038826
175	0x3e26f827	0.163056
176	0x3dc696bc	0.09696719
177	0x3e0bb8fa	0.13644782
178	0x3b8e3af7	0.0043405253
179	0xbdb0b0ba	-0.08627458
180	0xbdd516db	-0.1040475
181	0xbcbbc7fe	-0.022922512
182	0xbc9c8ac1	-0.019109132
183	0xbe706904	-0.2347756
184	0x3dfc2999	0.123126216
185	0xbdaafb82	-0.083487526
186	0x3e4b496a	0.19852224
187	0x3caceaa6	0.021107983
188	0x3dd9f46c	0.10642323
189	0xbe052ab6	-0.13004574
190	0xbdefee53	-0.117153786
191	0xbe11d72c	-0.14242238
192	0x3e0c78b2	0.13717917
193	0xbd75d370	-0.060016096
194	0x3c2c2b0d	0.010508311
195	0xbd965a68	-0.073414624
196	0xbe42c379	-0.1901988
197	0xbce7e6c6	-0.028308284
198	0xbdb27919	-0.08714504
199	0xb905e00b	-0.00012767331
200	0xbd65eae5	-0.056132216
201	0xbe0b059c	-0.13576359
202	0x3d73511f	0.059403535
203	0x3e5e31a5	0.21698625
204	0xbdf2846b	-0.11841663
205	0xbdd7eab2	-0.105428115
206	0x3d63d8dc	0.055626735
207	0x3d5da811	0.05411536
208	0xbdaa77f2	-0.08323659
209	0x3cee4502	0.02908564
210	0xbd4ae95a	-0.049538948
211	0xbe6c6771	-0.23086335
212	0xbd5fd1f4	-0.054643586
213	0xbd78ed4d	-0.060773183
214	0xbc8fe06d	-0.01756307
215	0xbe235eb1	-0.1595409
216	0xbe1589a9	-0.14603294
217	0xbe2f5a01	-0.17124178
218	0x3d5955fd	0.05306052
219	0xbd1e4b44	-0.038645998
220	0x3d421935	0.04738732
221	0xbd3c6068	-0.045990378
222	0xbb8bc05e	-0.0042648753
223	0xbd1582fd	-0.036501873
224	0x3c9d36c2	0.01919115
225	0xbe5255f8	-0.20540607
226	0xbde845f9	-0.11341471
227	0xbd9b86e2	-0.07594086
228	0x3e1f282f	0.15542673
229	0x3d49bb6e	0.049251013
230	0x3db59594	0.088664204
231	0xbe2df690	-0.16988587
232	0xbdeb72b5	-0.11496488
233	0xbe4a37f8	-0.19747913
234	0xbe5168ce	-0.20450136
235	0xbc21f8c4	-0.0098859705
236	0xbd4f8322	-0.050662167
237	0xbe117252	-0.14203766
238	0x3aee7970	0.001819415
239	0x3e763e0e	0.2404711
240	0x3d8d4265	0.068974294
241	0xbd2d5fab	-0.042327564
242	0x3e549f67	0.20763932
243	0xbc826ad5	-0.015920082
244	0x3e19ba9e	0.15012595
245	0xbba72f3d	-0.005102067
246	0xbd04feef	-0.032469686
247	0x3d4a8466	0.04944267
248	0x3d36c4a6	0.044621132
249	0x3dbd1f27	0.092344575
250	0xbd2dd6e6	-0.04244127
251	0xbcc87bf5	-0.02447317
252	0x3db9d7d7	0.09074371
253	0xbddd37cc	-0.10801658
254	0xbd30ac94	-0.043133333
255	0x3d32a432	0.04361362

bn4.weight f4 [128]
0	0x3f8832a5	1.0640455
1	0x3f9331df	1.1499594
2	0x3fb7dc84	1.4364171
3	0x3fb68ddb	1.4262041
4	0x3fb12c62	1.384167
5	0x3fb88c5c	1.4417834
6	0x3f7b67b5	0.9820512
7	0x3f9e1b6b	1.2352117
8	0x3fb39401	1.4029542
9	0x3fa0718c	1.2534652
10	0x3f86ad0d	1.0521561
11	0x3faa544f	1.3306979
12	0x3f8ef0ac	1.1167197
13	0x3f91c2f1	1.1387616
14	0x3faef2d3	1.3667854
15	0x3f9dafa3	1.2319225
16	0x3fa1b9fe	1.2634885
17	0x3f864492	1.0489676
18	0x3fb8d078	1.443862
19	0x3fb89686	1.4420936
20	0x3f971478	1.1803122
21	0x3fb05ddf	1.3778647
22	0x3faa23bd	1.3292156
23	0x3f8c9ce9	1.0985385
24	0x3fac1155	1.3442789
25	0x3f985f3e	1.1904066
26	0x3fb5231a	1.4151337
27	0x3f9eacb5	1.2396456
28	0x3fafb4ee	1.372709
29	0x3f9ec98e	1.240526
30	0x3f983cb6	1.1893528
31	0x3f97fac6	1.1873405
32	0x3fa6e804	1.3039556
33	0x3f9c44d4	1.2208505
34	0x3f8ae3e5	1.0850798
35	0x3f90bfb4	1.1308503
36	0x3f97f01e	1.1870153
37	0x3f8ba713	1.0910362
38	0x3f8f62ff	1.1202086
39	0x3fa7532b	1.3072256
40	0x3fb103ab	1.3829244
41	0x3f872081	1.0556794
42	0x3fa15a4d	1.2605683
43	0x3f91839f	1.1368293
44	0x3fb16877	1.3860005
45	0x3fb8bd86	1.4432838
46	0x3f9d5289	1.2290813
47	0x3f9f042c	1.2423148
48	0x3f9d3dc9	1.228448
49	0x3f9f41b4	1.2441926
50	0x3f962d3f	1.1732558
51	0x3f911a4b	1.1336149
52	0x3fa23411	1.267214
53	0x3f8b775e	1.0895803
54	0x3fa1eb1e	1.2649877
55	0x3f966a10	1.1751118
56	0x3f9710ba	1.180198
57	0x3fab89f0	1.340147
58	0x3fa472ed	1.2847573
59	0x3fa0d8bd	1.2566143
60	0x3f9e91c4	1.2388234
61	0x3faf2a70	1.3684826
62	0x3fa822bc	1.31356
63	0x3fb784b7	1.4337376
64	0x3f9aa95e	1.2082937
65	0x3fa676f5	1.3005053
66	0x3fbf7ad1	1.4959356
67	0x3f953e7a	1.1659691
68	0x3f9b583f	1.2136306
69	0x3fad02be	1.3516462
70	0x3fbfe8ff	1.499298
71	0x3fa27d4f	1.2694491
72	0x3f9a57e0	1.2058067
73	0x3fb83944	1.4392476
74	0x3fb02ef3	1.3764328
75	0x3fcbbea9	1.591756
76	0x3f99111f	1.195835
77	0x3fc4fecd	1.5390259
78	0x3fb1f65b	1.3903307
79	0x3fad3f7a	1.3534997
80	0x3f6665fc	0.89999366
81	0x3fc6d1bd	1.5532757
82	0x3fa767fc	1.3078609
83	0x3f97906c	1.1840949
84	0x3f9e1c59	1.2352401
85	0x3fa17dcb	1.2616514
86	0x3fb06f5d	1.3783985
87	0x3f99102b	1.1958059
88	0x3fa1786a	1.2614872
89	0x3f9f833b	1.2461923
90	0x3f8f2fc3	1.1186451
91	0x3f8b5698	1.0885801
92	0x3f92b843	1.1462482
93	0x3f976936	1.1828983
94	0x3f962c67	1.17323
95	0x3f9f26f2	1.243376
96	0x3f94bdec	1.162046
97	0x3faa9ca5	1.3329054
98	0x3fa145a8	1.2599382
99	0x3fb74880	1.4319
100	0x3faaa8fb	1.3332819
101	0x3fa8f007	1.319825
102	0x3f7ccafd	0.98747236
103	0x3fb2ab4f	1.3958529
104	0x3fbb56dc	1.4635882
105	0x3f9474c6	1.1598136
106	0x3facd6e1	1.3503076
107	0x3fa30997	1.2737302
108	0x3f67e00f	0.9057626
109	0x3f9285bf	1.1447066
110	0x3f831976	1.0242145
111	0x3f9e179b	1.2350954
112	0x3f9139b1	1.1345731
113	0x3f97dfe5	1.1865202
114	0x3f874cda	1.0570328
115	0x3f91a192	1.1377432
116	0x3f953db6	1.1659458
117	0x3f9279d3	1.1443428
118	0x3fa08e0c	1.2543349
119	0x3fa0babb	1.2556986
120	0x3f9d5e8f	1.2294482
121	0x3fad1982	1.3523409
122	0x3f93033e	1.1485364
123	0x3f786578	0.9702983
124	0x3fbdc342	1.4825213
125	0x3fa7dbb9	1.3113929
126	0x3fa14adf	1.2600974
127	0x3fa8a658	1.3175764
